models/400000time.pth (torch, 541794 bytes, 10 tensors)

0.weight f4 [128, 17]
0.042672884 0.20823297 -0.042770635 -0.020951761 -0.06955063 0.097878784 -0.07495794 -0.14341441
-0.005963752 -0.16598253 0.032128032 0.15162466 0.17320377 0.055332277 0.16836396 0.057848737
0.12957992 -0.015250244 0.009544218 -0.119219735 0.11562262 0.14892481 0.2381536 -0.21423297
-0.22144623 -0.11323288 0.10328464 -0.04425185 0.17404886 -0.17386231 0.12975644 -0.12962013
-0.23683731 -0.110020764 -0.13957433 0.024700584 -0.23968792 -0.17911437 0.07101173 0.02344529
0.04282846 -0.15560615 -0.23581615 -0.044619158 -0.060368806 0.19586064 0.11595982 -0.22191265
0.0060462975 0.17928216 -0.114771836 0.09131547 -0.12938586 0.19056194 -0.11666714 -0.016889092
-0.086746775 0.17205548 0.21833053 -0.0688221 -0.20928304 0.086836375 0.18074463 -0.14553167
-0.020235252 -0.08864338 0.19817518 0.14617975 -0.08716474 0.11096302 0.12596479 0.17641658
-0.07860875 -0.021196533 -0.06440678 0.00354155 -0.18752158 -0.0961776 -0.18384562 0.14712836
0.10976665 0.02668323 0.23330545 0.039287865 0.063806355 -0.19492064 -0.026175093 -0.23000151
0.1718968 0.23223838 -0.055479992 0.08053499 0.109899156 -0.21176067 -0.20051341 0.15189698
-0.13027273 -0.22288536 0.078503534 0.20509076 0.17856587 -0.07154337 0.17320561 -0.19255707
-0.070934966 -0.13091062 0.13176553 0.20208389 -0.14228897 0.018873502 0.13569309 0.20581412
0.23473133 0.050533324 -0.16026959 0.20665357 0.23481844 -0.03489114 0.11933833 -0.09941693
-0.07715335 0.10359788 0.19854927 -0.019779012 -0.008891432 0.17484672 -0.08682736 -0.17189695
-0.14240453 -0.1665568 0.111179285 0.22819112 0.09230145 0.18793052 -0.20483537 -0.016580682
0.08735822 0.23736243 0.017237661 0.0109691415 -0.16378526 0.056388855 0.09603983 -0.23126929
0.11671664 0.22853969 0.14087023 -0.097145304 -0.06042582 0.0365031 -0.03891634 -0.009378261
0.15699203 -0.03718315 0.08128824 0.20615424 -0.07853276 -0.109747246 0.20644782 0.05868893
0.11342041 0.17274721 -0.09317862 -0.08543059 0.118301705 -0.19568571 0.19652809 0.117148995
0.08340713 0.1639879 0.040571522 0.11756869 0.041368842 0.19879699 0.20082316 -0.18468565
-0.081874385 -0.19281694 0.007828637 -0.2297395 0.20038357 0.23254274 0.20905223 -0.14776915
0.04751191 0.03241993 0.14640749 0.016835373 0.04409769 0.09034112 -0.034069534 0.1910592
-0.07041327 0.12498989 0.15988427 -0.15058774 0.08804501 -0.15083615 -0.1046145 -0.09465148
0.19857451 -0.17279829 -0.13961788 0.15761617 -0.2288744 0.023317989 -0.13758819 0.012813701
0.100964874 -0.043045565 0.0031715566 0.15535091 -0.10031686 0.18155997 -0.07325843 0.22051916
-0.1640906 -0.15086533 -0.13637924 0.14413595 -0.08356959 -0.052628584 -0.042367857 -0.23921199
-0.0692082 -0.19447587 -0.23573838 -0.24238388 -0.14943156 0.08018451 -0.20285304 0.18788669
-0.0155352065 0.16010223 0.021249097 0.2229887 0.04962943 0.0596876 0.022943513 -0.105916485
0.20183523 -0.18582639 -0.176249 -0.071830355 -0.006873397 -0.24118274 -0.16324994 0.044314854
0.2370275 0.14434369 -0.2244722 0.0939226 0.19143298 0.19439931 -0.09254766 -0.090710886
00000000: c3c9 2e3d 063b 553e 4330 2fbd 07a3 abbc
00000010: 9070 8ebd ac74 c83d 8c83 99bd 3adb 12be
00000020: 946b c3bb 53f7 29be af98 033d 7f43 1b3e
00000030: 545c 313e 19a4 623d 9a67 2c3e ccf2 6c3d
00000040: 99b0 043e 29dc 79bc 5a5f 1c3c 7a29 f4bd
00000050: 8dcb ec3d bf7f 183e 8ade 733e e35f 5bbe
00000060: cdc2 62be a4e6 e7bd e686 d33d 6e41 35bd
00000070: dd39 323e f608 32be dfde 043e 24bb 04be
00000080: 7b85 72be 9152 e1bd 93ec 0ebe e158 ca3c
00000090: c070 75be c269 37be 996e 913d 5610 c03c
000000a0: e56c 2f3d 3857 1fbe ca79 71be 94c2 36bd
000000b0: 4845 77bd b18f 483e 587c ed3d 123d 63be
000000c0: 0520 c63b be95 373e 7f0d ebbd 9b03 bb3d
000000d0: ba7d 04be ab22 433e 2eef eebd fe5a 8abc
000000e0: 4ba8 b1bd 502f 303e 0a92 5f3e 9af2 8cbd
000000f0: 4b4e 56be 45d7 b13d 1f15 393e 4106 15be
00000100: 66c4 a5bc a98a b5bd 6fee 4a3e 25b0 153e
00000110: 6d83 b2bd 9440 e33d eafc 003e 8ca6 343e
00000120: a0fd a0bd 5aa4 adbc b4e7 83bd 5919 683b
00000130: a805 40be c3f8 c4bd 0742 3cbe d1a8 163e
00000140: 56cd e03d ca96 da3c a0e7 6e3e 50ec 203d
00000150: e8ac 823d 4799 47be 266d d6bc 8485 6bbe
00000160: b705 303e e6cf 6d3e fd3e 63bd 87ef a43d
00000170: cf12 e13d cad7 58be 6353 4dbe e28a 1b3e
00000180: 3766 05be 0f3c 64be 76c6 a03d 5003 523e
00000190: f9d9 363e 5585 92bd d05c 313e ae2d 45be
000001a0: 5a46 91bd 6f0d 06be 8bed 063e 14ef 4e3e
000001b0: 33b4 11be 9a9c 9a3c 21f3 0a3e f0c0 523e
000001c0: 695d 703e 08fc 4e3d b61d 24be fe9c 533e
000001d0: 3f74 703e 03ea 0ebd a867 f43d 1a9b cbbd
000001e0: 9302 9ebd 202b d43d 8050 4b3e 9807 a2bc
000001f0: 5ead 11bc 050b 333e 8bd2 b1bd c105 30be
00000200: 7ed2 11be de8d 2abe f7b1 e33d efaa 693e
00000210: 8b08 bd3d dc70 403e 5dc0 51be 36d4 87bc
00000220: dee8 b23d 230f 733e ff35 8d3c eab7 333c
00000230: 53b7 27be 00f8 663d 88b0 c43d dbd1 6cbe
00000240: 2209 ef3d 4f06 6a3e 4940 103e 1ef4 c6bd
00000250: 1181 77bd 4684 153d bd66 1fbd 47a7 19bc
00000260: 85c2 203e 5c4d 18bd 737a a63d 191a 533e
00000270: c9d5 a0bd 2ac3 e0bd 0f67 533e ce63 703d
00000280: f648 e83d a5e4 303e 6fd4 bebd 3cf6 aebd
00000290: 2a48 f23d d661 48be a93e 493e d0eb ef3d
000002a0: 5bd1 aa3d 72ec 273e 532e 263d dac7 f03d
000002b0: 6072 293d 7091 4b3e 96a4 4d3e 3c1e 3dbe
000002c0: c2ad a7bd ce71 45be af43 003c d540 6bbe
000002d0: 5a31 4d3e af1f 6e3e ca11 563e cc50 17be
000002e0: d99b 423d c3ca 043d d8eb 153e 56ea 893c
000002f0: c89f 343d c404 b93d 7f8c 0bbd 06a5 433e
00000300: d534 90bd b3fa ff3d b4b8 233e ac33 1abe
00000310: f150 b43d cb74 1abe 2140 d6bd a3d8 c1bd
00000320: 1e57 4b3e 09f2 30be fdf7 0ebe 2266 213e
00000330: 0d5e 6abe 5e05 bf3c ebe3 0cbe 8ff0 513c
00000340: acc6 ce3d 8c50 30bd e4d9 4f3b 4f14 1f3e
00000350: ed72 cdbd dbea 393e 8408 96bd c6cf 613e
00000360: 5e07 28be 717c 1abe 00a7 0bbe 6098 133e
00000370: 8826 abbd 1291 57bd eb89 2dbd fdf3 74be
00000380: 07bd 8dbd af24 47be 6765 71be 7b33 78be
00000390: 9604 19be c737 a43d b5b8 4fbe 5e65 403e
000003a0: 6187 7ebc d7f1 233e 9612 ae3c 2657 643e
000003b0: 3b48 4b3d fc7a 743d 09f4 bb3c beea d8bd
000003c0: e5ad 4e3e 4649 3ebe 9e7a 34be cb1b 93bd
000003d0: 3c3a e1bb 9cf8 76be fe2a 27be 7e83 353d
000003e0: 56b7 723e d5ce 133e 0adc 65be 7e5a c03d
000003f0: 0207 443e 9d10 473e a189 bdbd a1c6 b9bd

0.bias f4 [128]
0.1802988 -0.23477761 0.10820272 0.17399709 -0.15444611 0.008985687 -0.04291294 -0.016698442
-0.04853992 0.11480266 0.0143564725 -0.1452957 0.2227665 0.037333757 0.20453951 -0.010833455
-0.06936805 0.1714185 -0.14489034 -0.040702727 0.09859032 -0.007849946 0.1088121 -0.12980255
0.046157014 0.21790677 -0.08916546 0.19931936 0.100031406 0.0209225 0.005181351 0.20675296
-0.16372055 -0.09537606 -0.15229344 -0.12859999 -0.11556812 0.06238392 0.12941208 -0.0596878
0.10248825 -0.15235953 -0.2301405 0.10946431 -0.0330432 0.0662388 -0.11576897 0.005231601
-0.12493299 0.066621855 0.09645097 0.22790258 0.04891833 0.021944586 -0.16948718 0.18201286
-0.23114514 0.0028040786 -0.14641659 -0.06935015 0.04464917 0.11649942 -0.14857376 0.040300034
-0.136463 0.15122733 0.1823312 -0.074183896 -0.05647724 -0.062606804 0.10581058 0.23533465
-0.18441392 0.09322179 0.09510038 -0.0632593 -0.22677115 -0.18630584 0.09698614 -0.22554521
0.23753783 0.021896882 0.06940966 -0.010092024 0.17548455 0.1542336 -0.01865287 -0.04528429
0.20388366 0.2122246 -0.17672086 0.116051935 0.20079352 -0.10654079 -0.24192975 -0.0666229
0.18567812 -0.057088885 -0.00571178 -0.15436625 0.17648351 -0.06592206 -0.047710653 0.17226034
0.24226125 0.16407436 0.1951864 0.13425797 0.044574745 -0.16138592 -0.024920493 -0.012763856
-0.09758767 -0.06791162 -0.22655652 0.00429686 -0.02778552 0.16422221 0.21907553 -0.09816372
0.15252416 -0.11632103 -0.19295473 -0.24022532 -0.22727393 0.090440296 0.0612208 0.13725749
00000000: 40a0 383e 8b69 70be 6399 dd3d 4b2c 323e
00000010: 1f27 1ebe b438 133c 7bc5 2fbd 2ccb 88bc
00000020: ccd1 46bd a81d eb3d 6937 6b3c 65c8 14be
00000030: e71c 643e 48eb 183d ce72 513e ce7e 31bc
00000040: d610 8ebd 5588 2f3e 225e 14be e7b7 26bd
00000050: b9e9 c93d 0f9d 00bc e1d8 de3d f6ea 04be
00000060: 230f 3d3d f422 5f3e 619c b6bd 601a 4c3e
00000070: 44dd cc3d aa65 ab3c 53c8 a93b 0cb7 533e
00000080: 5ca6 27be 8654 c3bd d0f2 1bbe b7af 03be
00000090: faae ecbd 4886 7f3d 9a84 043e 327b 74bd
000000a0: 5ce5 d13d 2304 1cbe f4a9 6bbe d32e e03d
000000b0: 4e58 07bd 35a8 873d 4818 edbd da6d ab3b
000000c0: dedc ffbd 0a71 883d 1688 c53d 4b5f 693e
000000d0: 965e 483d 22c5 b33c 0c8e 2dbe 9461 3a3e
000000e0: 50b1 6cbe a2c4 373b 3bee 15be 7407 8ebd
000000f0: 0ce2 363d 3f97 ee3d b823 18be a611 253d
00000100: f5bc 0bbe 56db 1a3e 08b5 3a3e baed 97bd
00000110: ae54 67bd ff37 80bd 38b3 d83d 91fb 703e
00000120: 01d7 3cbe 11eb be3d fdc3 c23d 188e 81bd
00000130: b236 68be f5c6 3ebe aba0 c63d 53f5 66be
00000140: 1e3d 733e 1761 b33c a726 8e3d 0459 25bc
00000150: 39b2 333e 6aef 1d3e e7cd 98bc 057c 39bd
00000160: e1c6 503e 6851 593e 50f6 34be a3ac ed3d
00000170: d19c 4d3e 0f32 dabd 6fbc 77be 9671 88bd
00000180: 6822 3e3e 09d6 69bd e229 bbbb 3012 1ebe
00000190: 18b8 343e 2502 87bd 3f6c 43bd 0465 303e
000001a0: 5513 783e 1c03 283e f2de 473e ec7a 093e
000001b0: 0294 363d 5a42 25be 1026 ccbc 7e1f 51bc
000001c0: 0bdc c7bd 3f15 8bbd 6ffe 67be adcc 8c3b
000001d0: 759e e3bc de29 283e 5655 603e 0f0a c9bd
000001e0: 4b2f 1c3e b839 eebd ed95 45be a0fd 75be
000001f0: 7fba 68be c338 b93d a9c2 7a3d 3a8d 0c3e

1.weight f4 [256, 128]
0.040572546 0.036699105 0.04785289 0.038657047 0.080582574 0.012270939 -0.06203487 -0.0514662
-0.0021307445 0.0068862047 0.048369188 0.0109797595 -0.025727311 -0.0072304285 0.07497709 0.05086781
0.027694367 -0.033920035 -0.06850306 -0.01397699 -0.083777204 0.013828476 0.011364455 0.046677537
-0.05612702 -0.043093633 -0.08654865 -0.025620237 -0.00078211905 -0.06495391 0.027871288 -0.027570033
0.015838385 -0.02985923 -0.08630186 0.06248969 -0.044601303 0.0669529 0.065702155 0.016391415
-0.08512098 0.07785081 -0.084702864 0.027914489 -0.01705508 -0.048379797 -0.05914229 -0.03880137
-0.083782434 0.0758461 0.08484977 -0.060521387 0.037010454 -0.079230145 0.08297026 0.007531431
0.05553155 0.040434696 0.06478093 -0.027391026 0.08734547 0.017995661 0.021541739 -0.050411098
0.0129522635 -0.0053816466 0.07515279 0.029689746 0.082706206 -0.03686646 0.017577669 0.03484729
-0.06444335 -0.01093323 -0.07868799 -0.033778224 0.06822131 0.07595638 -0.053200837 -0.0087353345
0.031869013 0.057767607 0.0370406 0.0794396 -0.06683694 -0.06317375 0.03433102 -0.06554055
-0.056143437 0.03390147 -0.083441004 0.08154151 0.044692528 0.086269006 -0.07707175 -0.03527455
-0.06939656 -0.08106989 0.019679775 -0.05309051 -0.077539645 -0.02254415 0.04925916 -0.00020597165
-0.019756852 -0.035674367 -0.046615206 -0.010990824 0.0437795 -0.0023853956 -0.01595332 -0.021751683
-0.04629687 0.07172115 0.070744455 0.022865076 -0.04518279 -0.07966221 0.007664826 -0.07916922
0.047172237 0.0396242 0.06551937 -0.052492823 -0.016099127 0.05321048 -0.04311688 -0.06668777
-0.009218453 0.049413353 0.071728244 0.010203488 0.01307018 0.050772484 -0.040957958 0.002491553
-0.08180647 0.06753544 0.06958502 -0.04263181 0.058009636 -0.027159544 0.023021061 -0.083031006
-0.08318694 0.03513493 -0.014472659 -0.07073574 -0.08033767 0.08343124 0.009544449 -0.07565521
0.07429289 -0.030844307 0.071095355 0.042585682 0.033513498 -0.06347426 -0.08270008 0.029435812
-0.08439433 0.069096446 -0.05829659 0.0018655354 -0.032308877 -0.025536986 0.044286855 -0.067636125
0.022099743 0.06006107 0.07081684 0.028550295 -0.060544778 -0.025295062 0.042889506 0.036447078
-0.08445947 0.04110444 0.010083223 -0.013149321 -0.055320866 0.077460036 0.017359085 -0.012159081
-0.06026842 0.043560117 0.03773908 0.012457986 0.07869108 -0.0011500927 0.07176702 0.055514038
0.07002943 0.03686512 -0.06686753 -0.083414 0.07402699 0.061700847 0.01991919 0.020977223
0.026971621 0.046983864 0.009127142 -0.06854661 0.01944663 -0.01719525 -0.06667295 -0.04758728
0.07318662 0.011209049 0.032096922 -0.071063496 -0.0058567473 -0.05564761 0.012789893 -0.06590167
0.078992926 0.02147698 -9.7843906e-05 -0.0553223 0.07521765 -0.066030726 0.02097478 0.027790694
-0.030506099 -0.012173906 0.0074931197 -0.084465645 -0.046362303 -0.068358004 -0.042713374 0.06334054
-0.074435495 -0.020779429 0.039208487 0.023327848 -0.05718028 0.08206816 -0.08212905 0.021438912
-0.08013564 -0.079668365 -0.027128093 -0.042616922 -0.04437842 0.00882496 -0.07407713 0.040922567
-0.005336107 -0.070273265 -0.063875854 -0.07973528 -0.062607974 -0.041272733 -0.07566335 -0.06736821
00000000: 662f 263d cd51 163d 6401 443d da56 1e3d
00000010: 7a08 a53d 0c0c 493c 4718 7ebd 39ce 52bd
00000020: f6a3 0bbb aca5 e13b c51e 463d 73e4 333c
00000030: 15c2 d2bc 3bed ecbb 978d 993d c45a 503d
00000040: 4cdf e23c bcef 0abd 554b 8cbd bfff 64bc
00000050: 6293 abbd d590 623c fb31 3a3c f230 3f3d
00000060: 72e5 65bd f382 30bd 6b40 b1bd 88e1 d1bc
00000070: 1f07 4dba 8e06 85bd 5452 e43c 8dda e1bc
00000080: 80bf 813c 589b f4bc 08bf b0bd 30f5 7f3d
00000090: dbaf 36bd 9a1e 893d da8e 863d 4a47 863c
000000a0: e953 aebd 3f70 9f3d b278 adbd edac e43c
000000b0: 18b7 8bbc e529 46bd 303f 72bd 2fee 1ebd
000000c0: 2096 abbd 3355 9b3d b7c5 ad3d 46e5 77bd
000000d0: 4698 173d 6a43 a2bd 50ec a93d 39ca f63b
000000e0: 0d75 633d da9e 253d ddab 843d 2563 e0bc
000000f0: 2fe2 b23d a36b 933c 4d78 b03c de7b 4ebd
00000100: bb35 543c 8658 b0bb b5e9 993d e937 f33c
00000110: df61 a93d 4901 17bd 0bff 8f3c 08bc 0e3d
00000120: e0fa 83bd 4a21 33bc 2b27 a1bd 095b 0abd
00000130: 9db7 8b3d 058f 9b3d 1fe9 59bd a61e 0fbc
00000140: 1589 023d ba9d 6c3d e2b7 173d 3bb1 a23d
00000150: cee1 88bd 3d61 81bd af9e 0c3d 203a 86bd
00000160: a9f6 65bd 45dc 0a3d 1ee3 aabd 3cff a63d
00000170: 830f 373d cead b03d cbd7 9dbd 0c7c 10bd
00000180: c91f 8ebd f807 a6bd 7b37 a13c 6f75 59bd
00000190: 1bcd 9ebd 82ae b8bc f9c3 493d 18fa 57b9
000001a0: 1fd9 a1bc 491f 12bd 96ef 3ebd db12 34bc
000001b0: 2252 333d 4c54 1cbb 89b0 82bc 9630 b2bc
000001c0: c9a1 3dbd 8ae2 923d 78e2 903d 8a4f bb3c
000001d0: 9711 39bd f125 a3bd 3829 fb3b 7923 a2bd
000001e0: ad37 413d fc4c 223d 052f 863d b702 57bd
000001f0: 51e2 83bc 3bf3 593d 539b 30bd 9993 88bd
00000200: ff08 17bc a865 4a3d 42e6 923d 882c 273c
00000210: 4f24 563c cff6 4f3d 88c3 27bd 5349 233b
00000220: 278a a7bd 0550 8a3d 9782 8e3d b19e 2ebd
00000230: 839b 6d3d b17d debc aa96 bc3c 290c aabd
00000240: ea5d aabd a5e9 0f3d bb1e 6dbc e6dd 90bd
00000250: 1488 a4bd ffdd aa3d 5260 1c3c 1ef1 9abd
00000260: df26 983d 33ad fcbc 719a 913d 536e 2e3d
00000270: 7345 093d cbfe 81bd a95e a9bd 5f23 f13c
00000280: efd6 acbd 7082 8d3d 68c8 6ebd fb84 f43a
00000290: 5056 04bd f132 d1bc 2266 353d cf84 8abd
000002a0: 850a b53c 9902 763d 6b08 913d 4fe2 e93c
000002b0: cdfd 77bd 9737 cfbc e8ac 2f3d 8849 153d
000002c0: 16f9 acbd 215d 283d 1a34 253c 4070 57bc
000002d0: 2298 62bd 5ea3 9e3d a434 8e3c e236 47bc
000002e0: 05dc 76bd 186c 323d 4b94 1a3d 951c 4c3c
000002f0: ca28 a13d b5be 96ba 96fa 923d b062 633d
00000300: 976b 8f3d e1ff 163d d8f1 88bd f6d4 aabd
00000310: 769b 973d 07ba 7c3d 922d a33c 6dd8 ab3c
00000320: 97f3 dc3c 2772 403d 028a 153c 2a62 8cbd
00000330: 8a4e 9f3c 0edd 8cbc d48b 88bd e1ea 42bd
00000340: dee2 953d 29a6 373c 1078 033d bd89 91bd
00000350: f5e9 bfbb c0ee 63bd b38c 513c 74f7 86bd
00000360: 0bc7 a13d 7ef0 af3c 8c31 cdb8 a399 62bd
00000370: b60b 9a3d 1e3b 87bd 4dd3 ab3c 4fa9 e33c
00000380: ede7 f9bc 1075 47bc d888 f53b 53fc acbd
00000390: 66e6 3dbd 48ff 8bbd 38f4 2ebd afb8 813d
000003a0: a371 98bd 9f39 aabc 1499 203d 0b1a bf3c
000003b0: df35 6abd 5a13 a83d 4633 a8bd a8a0 af3c
000003c0: 281e a4bd 2b29 a3bd bc3b debc 158f 2ebd
000003d0: 25c6 35bd 9196 103c c0b5 97bd 6c9e 273d
000003e0: 83da aebb 6eeb 8fbd 58d1 82bd 404c a3bd
000003f0: 9c38 80bd 990d 29bd 63f5 9abd 58f8 89bd

1.bias f4 [256]
0.052745767 0.005801545 -0.010714045 -0.08341387 0.042524356 -0.031653907 0.0067493753 0.059691716
-0.08177249 0.082692504 0.01821217 -0.0049202126 0.030426895 -0.02019011 -0.05037111 -0.04995318
0.06899879 0.08731986 0.034849554 0.022162383 0.03629878 -0.019852282 0.06393994 0.08814849
-0.019406801 -0.07534983 0.053628568 0.027371418 0.05740525 -0.070518434 0.06679681 -0.038944613
-0.012328027 -0.053149156 0.014448604 -0.08664901 -0.003310656 0.011957608 -0.007604735 0.023206824
0.08692921 -0.04515589 -0.0044469456 -0.0011687427 0.016398149 -0.021547185 -0.026207922 -0.0874748
-0.035924952 0.04942114 0.059393223 0.07775992 0.05239734 0.05992596 -0.046402954 -0.04098857
0.02845459 -0.054576185 -0.059505027 -0.061844632 -0.084576175 0.07999462 -0.022677997 0.054893047
0.048401356 0.0145423375 0.0072194813 -0.024445435 -0.018618949 -0.061702184 0.04422007 0.06255404
0.058911145 0.04126152 0.0731401 0.015234979 0.019288715 -0.006322765 -0.000994202 0.008492927
0.08383444 -0.0011128032 0.08399345 0.024361426 -0.07451545 -0.03864847 -0.07254543 0.051889956
0.005290272 0.002856966 -0.0068835285 0.035689592 -0.0047446815 -0.034020904 0.012769663 -0.050941262
0.0668313 0.04863896 0.01655289 0.053525012 -0.081713185 -0.047132365 -0.07651539 0.0581383
-0.078338906 -0.076130725 0.039537366 0.010680833 0.02841847 0.0032430736 0.040651634 0.036430754
-0.050485674 0.047158077 0.004285523 0.007955607 0.07846014 -0.031931486 0.0663532 -0.041300256
0.081180625 0.028095562 -0.062078957 -0.037750173 0.05884433 -0.030291855 -0.036703277 -0.08016577
0.03249268 0.068283804 -0.055586394 0.00451104 0.051579848 -0.07563885 0.080489784 0.024376862
-0.050108965 0.006483281 -0.040503785 0.055197544 0.02996468 0.0017809994 0.06384751 -0.078667
-0.031836443 0.020384302 -0.055038463 -0.0075018546 0.010242421 -0.06732266 0.078047216 -0.07008827
0.00818201 0.034598127 -0.06776967 0.08089084 0.08189441 0.07505163 -0.058694903 0.03765312
0.024383543 -0.07172031 -0.027422015 0.06881802 0.038205106 0.048245233 -0.0446217 -0.018325323
0.0666772 0.038796972 -0.04854872 -0.08527305 0.07297702 -0.047279175 -0.03739867 -0.071762286
-0.027132012 0.03460153 -0.056899436 0.026838597 -0.011185288 -0.04576485 -0.04199614 -0.042404216
0.0028599375 0.009321229 -0.07986964 0.0022988683 -0.01403862 0.047363143 -0.027727041 -0.021416415
0.03624494 -0.021324703 -0.033689104 0.08036698 0.06714538 0.028986178 0.07599581 -0.015311371
-0.015320948 -0.037346777 0.052723546 0.01590779 0.051690433 -0.075025186 0.08275268 -0.050404932
-0.01969479 -0.04048406 -0.023750992 -0.0104408385 -0.012725956 0.039387513 0.018035332 0.07072771
0.06704177 -0.0071014385 0.029399103 0.018671876 -0.06927614 -0.074262924 0.03404277 -0.047976177
-0.077622294 -0.071574606 0.0148029635 -0.05754146 0.0017988591 -0.07182468 -0.04413231 0.056550693
0.05300884 0.03912804 -0.07554586 0.008252701 0.0041782805 0.035600178 0.018638916 0.063995644
0.03995672 0.04768587 -0.0053227465 -0.020754477 0.042289726 -0.033057857 0.0050596446 0.06637168
0.07323771 0.04413793 0.024419336 0.069794506 0.057564437 0.035792325 -0.02552823 -0.0391915
00000000: f20b 583d e31a be3b f689 2fbc e4d4 aabd
00000010: 052e 2e3d 87a7 01bd dd29 dd3b 4d7f 743d
00000020: 5678 a7bd b05a a93d b031 953c bc39 a1bb
00000030: d341 f93c bb65 a5bc f051 4ebd b59b 4cbd
00000040: 3d4f 8d3d c1d4 b23d 68be 0e3d e38d b53c
00000050: 08ae 143d 41a1 a2bc f1f2 823d 3287 b43d
00000060: 03fb 9ebc 0351 9abd a1a9 5b3d 063a e03c
00000070: c421 6b3d f86b 90bd c4cc 883d 6384 1fbd
00000080: 7efb 49bc eeb2 59bd d6b9 6c3c 0975 b1bd
00000090: 97f7 58bb d8e9 433c 2431 f9bb 3d1c be3c
000000a0: f107 b23d 62f5 38bd afb7 91bb 7f30 99ba
000000b0: 6955 863c b983 b0bc ffb1 d6bc fd25 b3bd
000000c0: 0b26 13bd d26d 4a3d 4f46 733d 9840 9f3d
000000d0: 989e 563d ec74 753d 0611 3ebd a1e3 27bd
000000e0: 9a19 e93c 478b 5fbd 8bbb 73bd cc50 7dbd
000000f0: 4636 adbd 38d4 a33d 35c7 b9bc 88d7 603d
00000100: 8040 463d fc42 6e3c 6691 ec3b cb41 c8bc
00000110: c486 98bc 6ebb 7cbd 1b20 353d 551c 803d
00000120: d04c 713d d701 293d 7aca 953d 229c 793c
00000130: 5e03 9e3c 322f cfbb e24f 82ba eb25 0b3c
00000140: 64b1 ab3d 7bdb 91ba c204 ac3d 9d91 c73c
00000150: 8e9b 98bd dc4d 1ebd b392 94bd 908a 543d
00000160: 055a ad3b f03b 3b3b 398f e1bb 402f 123d
00000170: 4679 9bbb 8159 0bbd d937 513c c9a7 50bd
00000180: d9de 883d a539 473d ed99 873c 0b3d 5b3d
00000190: 3e59 a7bd de0d 41bd 1ab4 9cbd 6d22 6e3d
000001a0: 2670 a0bd 6dea 9bbd eff1 213d a9fe 2e3c
000001b0: dacd e83c bf89 543b 5482 263d 6a38 153d
000001c0: 11ca 4ebd d428 413d 936d 8c3b 3c58 023c
000001d0: b6af a03d 97ca 02bd 30e4 873d 752a 29bd
000001e0: 0742 a63d aa28 e63c 8146 7ebd ed9f 1abd
000001f0: c106 713d a026 f8bc 2d56 16bd f42d a4bd
00000200: 0b17 053d 61d8 8b3d 8fae 63bd 59d1 933b
00000210: 6445 533d 8be8 9abd d4d7 a43d fcb1 c73c
00000220: 0f3f 4dbd b471 d43b 4ce7 25bd d216 623d
00000230: 7d78 f53c 6c70 e93a 7cc2 823d 2a1c a1bd
00000240: ee66 02bd fbfc a63c 0370 61bd 1ed2 f5bb
00000250: d4cf 273c 76e0 89bd 38d7 9f3d 708a 8fbd
00000260: d60d 063c c4b6 0d3d d3ca 8abd 19aa a53d
00000270: 42b8 a73d abb4 993d 116a 70bd 283a 1a3d
00000280: ffbf c73c 19e2 92bd 22a4 e0bc 76f0 8c3d
00000290: f57c 1c3d cb9c 453d 3ec5 36bd fd1e 96bc
000002a0: 0e8e 883d 93e9 1e3d 06db 46bd a3a3 aebd
000002b0: fa74 953d cfa7 41bd 592f 19bd 1bf8 92bd
000002c0: f443 debc 55ba 0d3d 620f 69bd 9edc db3c
000002d0: 8042 37bc ec73 3bbd 2504 2cbd 0bb0 2dbd
000002e0: ca6d 3b3b 11b8 183c b292 a3bd 9ca8 163b
000002f0: 3d02 66bc dbff 413d d223 e3bc 7a71 afbc
00000300: 9375 143d 25b1 aebc 96fd 09bd 7197 a43d
00000310: 8483 893d 6c74 ed3c b1a3 9b3d 8bdc 7abc
00000320: b704 7bbc eff8 18bd a5f4 573d 0e51 823c
00000330: 59b9 533d cea6 99bd 3d7a a93d 6775 4ebd
00000340: f856 a1bc 9dd2 25bd 7191 c2bc 0d10 2bbc
00000350: 8780 50bc cd54 213d d5be 933c b1d9 903d
00000360: 324d 893d 2fb3 e8bb 63d6 f03c c3f5 983c
00000370: a6e0 8dbd 2917 98bd 6e70 0b3d ab82 44bd
00000380: 70f8 9ebd b595 92bd 2188 723c 98b0 6bbd
00000390: b2c7 eb3a d118 93bd 15c4 34bd b3a1 673d
000003a0: cc1f 593d b944 203d cab7 9abd 5636 073c
000003b0: f5e9 883b 7ed1 113d a4b0 983c 2610 833d
000003c0: a8a9 233d 4252 433d 6f6a aebb 4b05 aabc
000003d0: fe37 2d3d ad67 07bd 60cb a53b e0ed 873d
000003e0: a7fd 953d f9c9 343d 0f0b c83c 6cf0 8e3d
000003f0: b0c8 6b3d f99a 123d 9420 d1bc 4487 20bd

2.weight f4 [256, 256]
0.046231538 0.029700726 -0.039365135 0.023633003 -0.047450207 -0.008221485 -0.0512406 0.01101584
0.052396953 0.012020923 -0.02473177 0.052726693 0.031217724 -0.060419217 -0.016415127 -0.0020875856
0.009740971 -0.048633054 0.020469204 0.052298807 -0.040357262 -0.026011981 0.012934044 -0.013837583
0.05693247 0.014794245 0.0609743 0.035103492 -0.039894998 0.05712653 -0.050402477 0.0357294
-0.040275186 -0.042919368 -0.04980445 0.0033847094 -0.002779819 -0.005780667 0.021038882 -0.04509992
0.047682106 0.057898685 -0.012431249 -0.01796846 -0.022731602 -0.020767711 -0.05095297 0.0372409
-0.0030785725 -0.028714195 -0.04510136 0.032102935 0.048707716 0.027517632 -0.022055171 0.03190913
-0.0011475459 -0.043015085 -0.050860696 0.05932375 -0.004891731 -0.033614807 -0.021288313 0.04658945
0.05351933 -0.0032102615 0.010339305 -0.013466224 -0.029298931 0.05742322 0.0092494935 -0.006678827
0.052920654 0.030686237 -0.014958635 -0.015257522 -0.035545826 0.05743316 0.05241541 0.026902653
0.034355216 0.05263356 -0.05536942 0.004825175 -0.018307984 -0.012492172 -0.006605357 0.043247834
0.026512265 -0.044877887 -0.022717007 -0.01596582 -0.042603433 -0.04322768 -0.05651223 -0.01676996
-0.043466806 0.0348399 0.0023191348 0.005709596 0.00095725805 0.02167721 -0.052412257 -0.062470064
0.010184035 -0.03892617 -0.021510892 0.053292498 0.056847543 0.03409247 -0.014488049 0.03875166
0.052735828 -0.011944175 -0.026166022 -0.007722378 0.05114492 0.0045821965 0.008208357 0.027070403
0.049745776 -0.029956594 -0.010544866 -0.00862138 0.009802513 -0.03582585 0.031425096 0.016287789
-0.01482521 0.021125212 -0.02785942 -0.031032443 0.0112244785 0.04497224 0.00819236 -0.05994548
0.006529242 -0.023635097 0.011685006 -0.04695598 0.035560332 0.062339634 -0.06023618 -0.048187397
-0.038383484 0.007530004 0.051870495 0.01498276 -0.014231838 -0.0032813028 0.052447684 0.011838116
0.020080172 0.061043642 0.04943101 -0.024877071 -0.016796246 0.061714143 0.016876586 0.059189647
0.058910057 0.046434715 0.054899275 0.0008150786 0.04620251 0.02000618 0.03545341 0.0012610778
-0.03840752 0.035816528 -0.05018262 0.03629148 0.007280238 -0.023275837 -0.026246749 0.04032457
0.019312918 -0.026621796 -0.020850793 -0.011320226 -0.0011617318 0.014358126 0.053513132 0.062493496
-0.054695107 -0.021241255 0.056146033 0.043136463 -0.011764899 -0.021185212 -0.030347586 -0.0046506077
0.0033590645 -0.037271053 -0.020422287 -0.041950956 0.015726276 -0.0318736 0.05793392 -0.05681906
0.058308743 0.010967232 0.022499196 -0.057576448 -0.036782935 -0.03176739 0.017540462 0.019531436
0.05292111 0.046111338 0.003465265 0.051783554 -0.05285848 -0.053617522 -0.02354066 -0.048909016
0.027534358 0.044005938 -0.005208567 -0.050656274 -0.011529267 0.05855807 0.010192305 -0.05655677
0.0014062002 -0.03876417 -0.007356465 0.049409896 -0.04172214 -0.027322501 -0.012887761 -0.029608287
-0.00049722195 0.05602984 -0.021266498 0.0021385103 -0.0071566403 -0.03731481 -0.014417693 -0.01181037
-0.038835622 0.05584863 0.021717533 -0.020332448 -0.058304057 -0.012625121 -0.009388812 -0.04889161
0.047361434 -0.03492678 -0.030126318 0.029274866 0.051256277 -0.0016871095 -0.06126397 0.035053097
00000000: 485d 3d3d f04e f33c 563d 21bd 009a c13c
00000010: 265b 42bd 68b3 06bc aae1 51bd c87b 343c
00000020: 309e 563d 68f3 443c 489a cabc f2f7 573d
00000030: 50bc ff3c 247a 77bd 0479 86bc e0cf 08bb
00000040: 9898 1f3c 7433 47bd 08af a73c 4637 563d
00000050: a84d 25bd 1417 d5bc 50e9 533c 08b7 62bc
00000060: 0632 693d 9063 723c 30c0 793d aec8 0f3d
00000070: f068 23bd 82fd 693d d472 4ebd fe58 123d
00000080: 98f7 24bd 38cc 2fbd c0ff 4bbd 00d2 5d3b
00000090: a02d 36bb c06b bdbb bc59 ac3c b2ba 38bd
000000a0: 504e 433d 2c27 6d3d 70ac 4bbc 9832 93bc
000000b0: a037 babc 0c21 aabc 10b4 50bd ea89 183d
000000c0: e0c1 49bb 083a ebbc 34bc 38bd 5e7e 033d
000000d0: be81 473d a86c e13c 0cad b4bc 26b3 023d
000000e0: 4069 96ba 9630 30bd 4e53 50bd 76fd 723d
000000f0: d04a a0bb aeaf 09bd d464 aebc 94d4 3e3d
00000100: 1637 5b3d 4063 52bb 3066 293c 70a1 5cbc
00000110: 5004 f0bc 9c34 6b3d 308b 173c 10da dabb
00000120: 54c3 583d b461 fb3c 1015 75bc b0fa 79bc
00000130: 8098 11bd 083f 6b3d 8ab1 563d f462 dc3c
00000140: 0eb8 0c3d 4a96 573d 0ccb 62bd 801c 9e3b
00000150: a0fa 95bc f8ab 4cbc c071 d8bb a424 313d
00000160: 4030 d93c e0d1 37bd 0419 babc c0ca 82bc
00000170: f080 2ebd 820f 31bd 5e79 67bd 2861 89bc
00000180: 400a 32bd 48b4 0e3d a0fc 173b 9017 bb3b
00000190: 80f0 7a3a 6894 b13c 3cae 56bd 9ce0 7fbd
000001a0: f0da 263c 0c71 1fbd 9c37 b0bc 3c49 5a3d
000001b0: f8d8 683d 8ca4 0b3d 485f 6dbc 10ba 1e3d
000001c0: 8601 583d 80b1 43bc 205a d6bc 000c fdbb
000001d0: 567d 513d 4026 963b 587c 063c c0c2 dd3c
000001e0: 3ac2 4b3d 8867 f5bc 60c4 2cbc b040 0dbc
000001f0: b89a 203c 20be 12bd 9ab7 003d f86d 853c
00000200: 70e5 72bc c80e ad3c 7039 e4bc c037 febc
00000210: e0e6 373c d034 383d 4039 063c 6489 75bd
00000220: 40f3 d53b 649e c1bc 7872 3f3c ea54 40bd
00000230: b6a7 113d d857 7f3d 36ba 76bd 2660 45bd
00000240: 0038 1dbd 40be f63b 2876 543d 407a 753c
00000250: a82c 69bc 200b 57bb 62d3 563d a8f4 413c
00000260: 2c7f a43c e608 7a3d 2c78 4a3d 00cb cbbc
00000270: 4898 89bc f8c7 7c3d c440 8a3c d870 723d
00000280: ac4b 713d 5432 3e3d 10de 603d 00ab 553a
00000290: d83e 3d3d 00e4 a33c 9837 113d c04a a53a
000002a0: 3451 1dbd 5ab4 123d 4a8c 4dbd 60a6 143d
000002b0: 108f ee3b f8ac bebc 6c03 d7bc 602b 253d
000002c0: 2036 9e3c f415 dabc 48cf aabc 7878 39bc
000002d0: 4045 98ba 583e 6b3c 9630 5b3d 2ef9 7f3d
000002e0: fa07 60bd 2402 aebc 62f9 653d dcaf 303d
000002f0: 90c1 40bc 9c8c adbc 809b f8bc 2064 98bb
00000300: c023 5c3b 88a9 18bd a44c a7bc c4d4 2bbd
00000310: 64d4 803c e48d 02bd 1e4c 6d3d 1abb 68bd
00000320: 26d5 6e3d e8af 333c 3c50 b83c 48d5 6bbd
00000330: b4a9 16bd 861e 02bd 04b1 8f3c 6400 a03c
00000340: cec3 583d 3edf 3c3d 8019 633b fe1a 543d
00000350: 2282 58bd 0c9e 5bbd 58d8 c0bc d254 48bd
00000360: bc8f e13c 923f 343d a0ac aabb f47c 4fbd
00000370: 40e5 3cbc 96da 6f3d a0fd 263c 12a8 67bd
00000380: 4050 b83a 2ec7 1ebd 800e f1bb 0862 4a3d
00000390: d6e4 2abd 70d3 dfbc 3027 53bc 148d f2bc
000003a0: 0058 02ba 8c7f 653d 1437 aebc 4026 0c3b
000003b0: 4082 eabb 6ad7 18bd 3038 6cbc 4880 41bc
000003c0: 1a12 1fbd 88c1 643d f8e8 b13c 3c90 a6bc
000003d0: 3cd0 6ebd 98d9 4ebc 88d3 19bc 9242 48bd
000003e0: 10fe 413d 620f 0fbd 78cb f6bc d8d1 ef3c
000003f0: 1af2 513d 0022 ddba eeef 7abd d693 0f3d

2.bias f4 [256]
0.015823998 0.0009305477 -0.044656806 -0.044127017 0.044887394 -0.025961228 0.012388505 -0.037953556
0.037314363 0.01593855 -0.047781132 -0.0062582046 -0.039328277 -0.034621008 0.03542932 -0.014215656
-0.0151822865 0.05646193 0.008784741 0.041108496 0.02958344 0.015451893 0.038232848 0.043006055
-0.0020047203 -0.022717476 0.020892099 -0.025221176 -0.020903021 -0.038295604 -0.02705092 0.014322504
-0.0313842 -0.021661207 -0.031369768 -0.0403189 0.04618202 -0.03813889 0.04451838 -0.028664328
-0.039299376 0.04120206 -0.009300351 0.046831213 -0.016754605 0.020735525 0.041962013 -0.026968032
-0.060188033 -0.013678394 -0.013178408 -0.055986285 -0.056210183 0.025469303 -0.023839094 0.022574954
0.06230697 -0.046288736 0.014811344 -0.028276175 -0.039018318 0.054800354 -0.0111597255 -0.0020581186
-0.05410952 0.048111014 -0.012785621 0.03715737 0.017672263 0.00734815 -0.039381154 0.033458203
-0.027430706 0.0011662915 0.0152314305 0.060145237 0.04135202 0.031108007 0.002994813 -0.05975587
0.061224163 -0.022167034 0.048713036 0.058216333 -0.020632222 -0.031363316 -0.051314235 0.011866458
-0.009681739 0.0008122176 -0.0488358 -0.033987403 0.01394552 0.058069326 0.052282482 0.046469554
-0.041070655 -0.03066241 -0.016796522 0.006621942 -0.021931812 -0.018676296 0.0010346249 -0.005629055
-0.0153322145 -0.04249347 -0.048047237 0.018379197 -0.040834844 -0.049501263 -0.0068809837 -0.031295136
0.041344993 -0.03107693 -0.021676987 0.044157602 -0.04269866 -0.029526174 0.036292158 -0.060911946
-0.038917378 -0.020859122 -0.043381132 0.034041002 0.0027805716 0.008166559 -0.018494762 -0.0384472
0.02158431 0.050561912 -0.034063466 0.04335291 0.028230913 -0.021162309 0.011532865 0.04569085
-0.023405217 0.012459986 -0.055322833 0.011702776 0.016267575 0.03777547 -0.04003591 0.015576556
0.013549253 -0.001451455 0.024627104 0.061177872 -0.030625343 -0.024087094 -0.00029508024 0.027289502
0.013970241 0.031971775 -0.050070107 -0.044272654 -0.048122846 0.052310407 -0.026168749 -0.00034093857
-0.04393114 0.0040698126 0.006756678 -0.0018726289 -0.009061433 -0.0081724 0.0181626 0.035290144
-0.03219384 -0.03364511 0.057145104 -0.03351266 -0.047446944 -0.003939405 -0.0005921498 0.018776573
-0.002861619 -0.056310453 -0.020309746 -0.042434774 -0.010382086 0.021918751 0.018444113 0.037682325
0.01206214 -0.05256252 0.008953124 0.025521524 -0.009158194 -0.014386259 0.019612849 -0.019449614
0.042875424 -0.017802365 -0.014654137 -0.014206961 0.04194218 0.04857783 0.032893322 0.027838007
0.03481192 0.008168772 0.011846103 0.0575212 0.054354034 0.0013003573 0.0048745647 0.030632526
0.00839451 0.04393886 0.024749279 -0.05766522 -0.059809312 -0.019479834 -0.035738476 -0.028281435
-0.02256576 0.030901104 0.041664474 0.061817482 -0.058544926 -0.0471671 0.010582536 0.01026208
0.008536667 0.000619635 -0.023220077 -0.044882655 -0.021389835 0.0203112 0.061958373 0.0029688254
0.04005097 0.042286053 -0.048258327 0.020176172 -0.03887853 0.044075966 -0.030118085 0.036013722
0.0026506633 0.035531178 -0.030955337 0.045058183 0.058991022 0.007977769 -0.05423948 -0.045676522
-0.048050456 -0.03088183 0.045575567 -0.05137863 0.037306346 0.038732328 -0.037716024 -0.043534577
00000000: 54a1 813c 00f0 733a 0eea 36bd 88be 34bd
00000010: d8db 373d a4ac d4bc 28f9 4a3c 3075 1bbd
00000020: f2d6 183d 9091 823c 26b6 43bd a011 cdbb
00000030: b016 21bd c2ce 0dbd 561e 113d c8e8 68bc
00000040: 20bf 78bc a044 673d e0ed 0f3c 6261 283d
00000050: f858 f23c f029 7d3c 0c9a 1c3d 1e27 303d
00000060: a061 03bb 001a babc e825 ab3c a49c cebc
00000070: d03c abbc dadb 1cbd e499 ddbc f0a8 6a3c
00000080: b88c 00bd d872 b1bc 967d 00bd 6e25 25bd
00000090: 5c29 3d3d 8637 1cbd e858 363d 74d1 eabc
000000a0: 62f8 20bd 7ec3 283d 8060 18bc 16d2 3f3d
000000b0: f440 89bc 8cdd a93c 5ce0 2b3d 10ec dcbc
000000c0: ba87 76bd 581b 60bc 40ea 57bc e051 65bd
000000d0: a63c 66bd 00a5 d03c 344a c3bc 1cef b83c
000000e0: 9835 7f3d 4299 3dbd 48ab 723c 70a3 e7bc
000000f0: acd1 1fbd 5676 603d 48d7 36bc 80e1 06bb
00000100: f2a1 5dbd 0e10 453d c87a 51bc 5432 183d
00000110: 6cc5 903c c0c8 f03b 224e 21bd 780b 093d
00000120: 5cb6 e0bc 40de 983a 408d 793c da5a 763d
00000130: bc60 293d 38d6 fe3c a044 443b 92c2 74bd
00000140: 30c6 7a3d a497 b5bc 5287 473d 4074 6e3d
00000150: e804 a9bc d276 00bd e02e 52bd 886b 423c
00000160: 28a0 1ebc 00eb 543a 0c08 48bd 6036 0bbd
00000170: c07b 643c 1ada 6d3d 2826 563d dc56 3e3d
00000180: b439 28bd bc2f fbbc dc98 89bc e0fc d83b
00000190: 58aa b3bc 08ff 98bc 409c 873a f073 b8bb
000001a0: f833 7bbc a20d 2ebd 2ecd 44bd f88f 963c
000001b0: 7042 27bd d6c1 4abd e079 e1bb 542f 00bd
000001c0: 5e59 293d 0c95 febc f093 b1bc 9ade 343d
000001d0: cae4 2ebd e0e0 f1bc 16a7 143d ce7e 79bd
000001e0: d467 1fbd c0e0 aabc 6ab0 31bd 946e 0b3d
000001f0: 403a 363b 08cd 053c 5482 97bc d07a 1dbd
00000200: 94d1 b03c 021a 4f3d 2286 0bbd d292 313d
00000210: 8444 e73c 945c adbc 58f4 3c3c 5426 3b3d
00000220: 4cbc bfbc f824 4c3c 329a 62bd 00bd 3f3c
00000230: 9443 853c 74ba 1a3d b2fc 23bd d034 7f3c
00000240: b0fd 5d3c c03e beba c8be c93c a695 7a3d
00000250: 00e2 fabc 4c52 c5bc 00b5 9ab9 3c8e df3c
00000260: 70e3 643c d6f4 023d 5016 4dbd 3e57 35bd
00000270: 761c 45bd 7043 563d d85f d6bc 00c0 b2b9
00000280: 24f1 33bd 105c 853b 2067 dd3b 0073 f5ba
00000290: 6876 14bc 88e5 05bc bcc9 943c 668c 103d
000002a0: b0dd 03bd 74cf 09bd fc10 6a3d 9244 09bd
000002b0: ba57 42bd 2016 81bb 803a 1bba 54d1 993c
000002c0: 008a 3bbb caa5 66bd a060 a6bc 16d0 2dbd
000002d0: a019 2abc f48e b33c 1c18 973c c858 1a3d
000002e0: 48a0 453c cc4b 57bd 20b0 123c 8412 d13c
000002f0: 400c 16bc 58b4 6bbc 20ab a03c cc54 9fbc
00000300: 249e 2f3d 44d6 91bc e817 70bc 50c4 68bc
00000310: 90cb 2b3d 8cf9 463d 26bb 063d 880c e43c
00000320: f296 0e3d 50d6 053c 2816 423c 5a9b 6b3d
00000330: 56a2 5e3d c070 aa3a d0ba 9f3b 10f1 fa3c
00000340: 2089 093c 3cf9 333d 00bf ca3c 5e32 6cbd
00000350: 9cfa 74bd 2c94 9fbc 8262 12bd 78ae e7bc
00000360: d4db b8bc 5024 fd3c 5ea8 2a3d 5434 7d3d
00000370: cecc 6fbd 4a32 41bd 6062 2d3c 4822 283c
00000380: 60dd 0b3c 006f 223a 0838 bebc e0d6 37bd
00000390: bc39 afbc ac63 a63c 10c8 7d3d a090 423b
000003a0: 7c0c 243d 2434 2d3d 86aa 45bd 8048 a53c
000003b0: 183f 1fbd 0089 343d 34ba f6bc 2083 133d
000003c0: c0b6 2d3b 2489 113d 0c96 fdbc ee8e 383d
000003d0: 92a0 713d 30b5 023c 382a 5ebd 4e17 3bbd
000003e0: 8ed0 44bd e4fb fcbc 72ad 3a3d 6672 52bd
000003f0: 8ace 183d caa5 1e3d 1e7c 1abd 5051 32bd

3.weight f4 [128, 256]
-0.03880997 -0.036836185 0.025927544 -0.053341977 -0.0041880235 -0.038923666 0.031079613 -0.0015331507
-0.0060390085 0.03189189 0.024960406 0.061659113 0.04852815 -0.034456752 -0.042484567 -0.027331173
-0.053247772 -0.037588604 -0.0004892945 0.0015018582 0.0362671 -0.045476757 -0.0060952157 0.057473153
0.049035415 -0.016142435 0.008783877 0.046275847 0.057462633 0.0017588511 -0.02171342 0.053448215
-0.029323429 -0.062072165 0.0033140853 0.014627188 -0.021060199 0.0115860775 0.029029988 0.049377613
0.054745585 0.0077601224 0.049705654 -0.056255393 0.029577568 -0.035178557 0.046443656 -0.044328563
-0.05207002 0.0013869852 0.015123822 0.0076944083 -0.042700693 -0.052926786 0.03483721 -0.018408984
0.04617154 0.048797615 0.05501225 0.043752976 0.056238636 0.035383888 -0.045106083 -0.0014750138
0.05612903 0.06006202 -0.05119574 -0.055614002 -0.06055332 -0.028440796 0.026301727 0.0019517094
-0.061775222 -0.049224697 -0.008881263 -0.005699508 -0.010492682 0.011045419 0.04714299 0.040827304
0.05412153 -0.029847868 -0.06233698 -0.0315912 0.03156481 -0.039665967 0.009094976 -0.036331758
-0.008982442 0.055308387 0.026652403 -0.023152858 -0.043105304 -0.047053955 0.024491653 0.04916338
-0.05001063 0.057894908 0.056347102 0.046648532 0.03818673 -0.009161107 0.028398179 0.026623376
0.04677636 -0.026039243 0.008326277 0.0595702 0.059855893 0.00882829 -0.021528684 -0.059623748
-0.05591649 -0.01480893 0.024952784 -0.0021791458 -0.0020760447 0.042293616 0.029153898 -0.0477558
0.022891365 0.017138228 -0.05181139 -0.047985308 -0.01864656 0.022304758 -0.0071430355 0.025923721
0.039489195 -0.0012754723 -0.0121251345 0.017727092 0.022672042 -0.026487336 -0.028583966 0.0373621
0.057435304 0.052310236 -0.05643692 0.05479639 0.010452628 0.018590026 -0.04646481 0.009009026
-0.02405142 -0.057371423 -0.015346743 0.055524178 0.06225221 -0.030969575 -0.036079995 0.06244816
0.026998535 0.0062439814 -0.044964828 -0.00019640476 0.025107957 0.0364412 -0.033636197 -0.042572014
-0.006335944 0.050361186 0.0312002 0.04807093 0.013181992 -0.0033573806 0.0051639453 -0.009621076
0.054897495 -0.054923445 0.045922533 -0.018698104 -0.00026137382 0.026958972 0.012712784 0.03577231
-0.03942065 0.039563075 -0.013953872 0.058966644 0.051068284 0.031097285 0.002422452 0.030646615
-0.05163186 0.047815263 0.036970437 0.052480683 -0.02088765 0.061139874 0.013457723 -0.05186049
0.05249174 -0.038570784 -0.04073582 0.021287404 -0.02827432 -0.048072502 -0.016984664 -0.026855238
-0.04336878 0.047242172 0.023406424 0.025259316 0.013544053 -0.035430454 0.061344936 -0.008109778
0.04656125 0.057581514 -0.04245524 0.026392207 -0.049973786 0.028823972 -0.029395841 -0.059991427
-0.0226698 -0.056698315 0.027118579 0.0032584593 0.024581835 -0.01444713 0.03442403 0.0052435175
-0.054403253 0.031362027 -0.028639972 0.04425308 0.014311962 0.058503173 -0.0070173293 0.020233616
0.030040242 -0.053087115 -0.051170655 -0.010491803 -0.050823182 -0.007911429 -0.029603392 0.009290367
0.02266685 0.04386156 0.0118813515 0.061527148 0.02254159 -0.008374356 0.059863314 -0.0005143881
0.046350233 0.045542464 -0.049914084 0.039549194 -0.025187448 -0.062156804 -0.03441608 0.027301922
00000000: 34f7 1ebd 8ae1 16bd 0066 d43c 1e7d 5abd
00000010: b03b 89bb 6c6e 1fbd ac9a fe3c 00f4 c8ba
00000020: e0e2 c5bb 12a1 023d c479 cc3c 448e 7c3d
00000030: 74c5 463d 8622 0dbd 4c04 2ebd a0e5 dfbc
00000040: 561a 5abd 82f6 19bd 0044 00ba 00da c43a
00000050: d08c 143d d645 3abd 60ba c7bb f868 6b3d
00000060: 5cd9 483d 243d 84bc 40ea 0f3c be8b 3d3d
00000070: f05d 6b3d 4089 e63a 58e0 b1bc 84ec 5a3d
00000080: b037 f0bc 623f 7ebd 2031 593b e0a6 6f3c
00000090: 7086 acbc 88d3 3d3c 4cd0 ed3c 2e40 4a3d
000000a0: e83c 603d a048 fe3b 2898 4b3d 0e6c 66bd
000000b0: a84c f23c 6417 10bd b43b 3e3d de91 35bd
000000c0: 6047 55bd 80cb b53a e8c9 773c 6021 fc3b
000000d0: ece6 2ebd c2c9 58bd 76b1 0e3d 70ce 96bc
000000e0: 5e1e 3d3d 02e0 473d 8654 613d 5236 333d
000000f0: 7c5a 663d b2ee 103d 28c1 38bd 4055 c1ba
00000100: 8ee7 653d 9803 763d a0b2 51bd 82cb 63bd
00000110: c206 78bd acfc e8bc b876 d73c 80d0 ff3a
00000120: 0408 7dbd d69f 49bd b882 11bc f0c2 babb
00000130: 80e9 2bbc d8f7 343c 0219 413d 883a 273d
00000140: 8aae 5d3d 8483 f4bc 1055 7fbd c665 01bd
00000150: 1a4a 013d c878 22bd 1803 153c 9cd0 14bd
00000160: 182b 13bc 0c8b 623d 2456 da3c 10ab bdbc
00000170: 308f 30bd a6bb 40bd b8a2 c83c 8a5f 493d
00000180: f2d7 4cbd 3623 6d3d 38cc 663d 8812 3f3d
00000190: b069 1c3d 7818 16bc 4ca3 e83c 4419 da3c
000001a0: 9298 3f3d 4050 d5bc f06a 083c e2ff 733d
000001b0: 742b 753d 88a4 103c ec5c b0bc 0838 74bd
000001c0: b008 65bd 28a1 72bc c869 cc3c 00d0 0ebb
000001d0: 400e 08bb 123c 2d3d 28d4 ee3c 969b 43bd
000001e0: ac86 bb3c 7865 8c3c 2e38 54bd 3e8c 44bd
000001f0: acc0 98bc 78b8 b63c 2010 eabb fc5d d43c
00000200: 6cbf 213d c02d a7ba 80a8 46bc 6838 913c
00000210: b8ba b93c f8fb d8bc ec28 eabc 0009 193d
00000220: 4841 6b3d 4243 563d 662a 67bd 2e72 603d
00000230: 8041 2b3c 1c4a 983c e251 3ebd 989a 133c
00000240: 7c07 c5bc 4cfe 6abd e870 7bbc 526d 633d
00000250: 2cfc 7e3d e8b3 fdbc 9ec8 13bd a4c9 7f3d
00000260: 082c dd3c 509a cc3b 0a2d 38bd 00f2 4db9
00000270: 34af cd3c 5e43 153d 1cc6 09bd fe5f 2ebd
00000280: c09d cfbb 8847 4e3d 9097 ff3c 06e6 443d
00000290: 48f9 573c 8007 5cbb 5036 a93b b8a1 1dbc
000002a0: 32dc 603d 68f7 60bd 4419 3c3d c42c 99bc
000002b0: 0009 89b9 10d9 dc3c 4849 503c fc85 123d
000002c0: 8c77 21bd e40c 223d c89e 64bc 0287 713d
000002d0: fa2c 513d bcbf fe3c 00c2 1e3b 9c0e fb3c
000002e0: ee7b 53bd f0d9 433d 506e 173d fcf5 563d
000002f0: 941c abbc ce6d 7a3d c87d 5c3c aa6b 54bd
00000300: 9401 573d 66fc 1dbd 9ada 26bd ec62 ae3c
00000310: 8c9f e7bc ace7 44bd 6c23 8bbc 84ff dbbc
00000320: 76a3 31bd 0281 413d d4be bf3c a0ec ce3c
00000330: e0e7 5d3c 861f 11bd d444 7b3d e0de 04bc
00000340: 02b7 3e3d 98da 6b3d 8ce5 2dbd 7834 d83c
00000350: 50b1 4cbd 4020 ec3c 8ccf f0bc 92b9 75bd
00000360: 04b6 b9bc 7e3c 68bd c827 de3c e08b 553b
00000370: d85f c93c a8b3 6cbc 3600 0d3d d0d1 ab3b
00000380: f2d5 5ebd 7875 003d 609e eabc b842 353d
00000390: b87c 6a3c 06a1 6f3d a0f1 e5bb f8c0 a53c
000003a0: f416 f63c e071 59bd 5298 51bd d0e5 2bbc
000003b0: f82b 50bd f09e 01bc d082 f2bc a036 183c
000003c0: d4af b93c 2ea8 333d 00aa 423c e403 7c3d
000003d0: 24a9 b83c 9834 09bc 3c33 753d 00d8 06ba
000003e0: bed9 3d3d bc8a 3a3d b672 4cbd 56fe 213d
000003f0: e855 cebc 2298 7ebd e0f7 0cbd 48a8 df3c

3.bias f4 [128]
-0.057586662 -0.00449083 0.0111114085 -0.0095817 0.0041163936 0.0063961223 0.054223254 0.06000872
-0.003850378 -0.00033919513 -0.0065617785 0.046100132 0.03556039 0.046949588 0.028297275 -0.0125632435
-0.034615457 -0.05470717 -0.018679813 0.021595165 -0.045842342 0.0056450292 -0.056118034 0.049923226
-0.06231954 -0.008197024 -0.020602688 -0.009194285 0.047973514 -0.025751233 0.022189766 -0.0044988617
-0.050673977 -0.04244721 -0.056975946 -0.022847302 0.055492677 -0.04923687 -0.027770765 -0.031071305
-0.0022447333 -0.018245101 -0.040591612 -0.011561759 -0.007345028 -0.041242346 -0.029542305 0.037319824
-0.06136819 -0.021924056 -0.02863422 0.03969548 -0.030422375 0.036502935 -0.0020216256 0.054064162
-0.010221705 -0.026057795 -0.05083224 -0.06205097 0.030663356 -0.060426883 -0.0020866469 -0.050933644
-0.029084325 -0.037551396 -0.014925189 0.013581619 0.04410281 0.050027587 0.024824247 0.02662389
0.036371276 0.061085425 0.061743207 -0.015859134 0.03452809 0.043554395 -0.011272445 -0.0031238347
-0.05400592 0.0515413 -0.00030758977 -0.017828599 -0.02106861 -0.023970187 0.057281062 0.034462884
-0.04954329 -0.021706946 -0.03579334 0.009603791 -0.025927909 -0.013900213 -0.016076311 0.022399016
-0.044627555 0.03412661 0.06087949 -0.048075065 0.017736137 -0.04298541 -0.009674042 -0.028180964
-0.024913006 -0.0153553635 -0.03717988 0.029503413 -0.008429825 0.0021981522 0.0570414 0.061475836
-0.022701241 -0.022165343 0.052772537 0.017650038 0.020195529 -0.04683403 -0.03039673 0.021758176
-0.03896372 -0.0363568 0.015833564 0.0035924613 -0.023557968 -0.0072459504 0.05219595 -0.030931115
00000000: fedf 6bbd d027 93bb a00c 363c 90fc 1cbc
00000010: d0e2 863b 9096 d13b 3419 5e3d b4cb 753d
00000020: a056 7cbb 00d6 b1b9 3004 d7bb 7ed3 3c3d
00000030: c6a7 113d 364e 403d b0cf e73c 10d6 4dbc
00000040: f0c8 0dbd a014 60bd 6806 99bc 58e8 b03c
00000050: 2ec5 3bbd f0f9 b83b 06dc 65bd 4c7c 4c3d
00000060: c642 7fbd d04c 06bc f8c6 a8bc a0a3 16bc
00000070: e07f 443d 40f4 d2bc 50c7 b53c 306b 93bb
00000080: 848f 4fbd 20dd 2dbd 9c5f 69bd 442a bbbc
00000090: 4a4c 633d 9aac 49bd 847f e3bc 4089 febc
000000a0: 601c 13bb c076 95bc 6443 26bd 886d 3dbc
000000b0: 90ae f0bb bced 28bd b402 f2bc acdc 183d
000000c0: 365d 7bbd 149a b3bc 5092 eabc ba97 223d
000000d0: 5838 f9bc 1a84 153d 407d 04bb 6272 5d3d
000000e0: f078 27bc 2877 d5bc 7835 50bd 2829 7ebd
000000f0: b831 fb3c 2e82 77bd 20c0 08bb cc9f 50bd
00000100: 4042 eebc 7ecf 19bd c888 74bc 7085 5e3c
00000110: 26a5 343d bae9 4c3d 385c cb3c 581a da3c
00000120: 0cfa 143d b634 7a3d 72e6 7c3d 04eb 81bc
00000130: 546d 0d3d 1866 323d 10b0 38bc 40b9 4cbb
00000140: 5035 5dbd f81c 533d 0044 a1b9 480d 92bc
00000150: 1498 acbc 205d c4bc 8c9f 6a3d f428 0d3d
00000160: e8ed 4abd c4d2 b1bc 0a9c 12bd 3859 1d3c
00000170: c466 d4bc b8bd 63bc 78b2 83bc 247e b73c
00000180: 62cb 36bd 58c8 0b3d c65c 793d 5cea 44bd
00000190: 604b 913c 7811 30bd e07f 1ebc c4db e6bc
000001a0: 5c16 ccbc 1095 7bbc ee49 18bd 24b1 f13c
000001b0: 401d 0abc e00e 103b 3ea4 693d 16ce 7b3d
000001c0: f4f7 b9bc 1894 b5bc 0428 583d d096 903c
000001d0: 1871 a53c 0ad5 3fbd 9002 f9bc 343e b23c
000001e0: 6c98 1fbd deea 14bd 64b5 813c 806f 6b3b
000001f0: a4fc c0bc 706f edbb 6ccb 553d 4063 fdbc
