models/HuberLoss.pth (torch, 541212 bytes, 10 tensors)

q_net.0.weight f4 [128, 17]
00000000: bee3 3f3d 37fd 8b3d 8b59 263e f7f9 3fbe
00000010: 9619 c8bd 30a7 10bd adee 4cbe be7a 993d
00000020: 53c6 633d ac83 423e e7cf dbbb e616 acbc
00000030: d4ea b03d 4324 27be 9bdf 003d 961b 54be
00000040: f80a 6ebe 9f9b 6bbe 8342 633e fd0b 0c3e
00000050: 185c 393d 73d0 0e3e b147 39bd d651 b83d
00000060: 7337 3fbb d552 773e 5c93 adbd 1194 d03d
00000070: 17e1 493e 7d04 47bc 8035 f83d 30a6 48be
00000080: e730 0d3e 5e0d 1a3e c73b 17bd c65f 6abe
00000090: 1e4f 52bd 2ece 34be 9448 f9bd 97da e3bd
000000a0: 72a0 2c3e 1b75 6dbe 786e bcbd 0540 c23d
000000b0: fff3 a0bd ffde bb3c ced3 fe3d 5b35 7a3d
000000c0: 998a 703e 49ee 573e 8d07 403e 5e51 503e
000000d0: 531d 203e 26e6 04be c907 debd c1a1 1cbe
000000e0: 7515 87bb f869 36be 3b24 3e3d e95c 59be
000000f0: 008e 5f3e 1271 613e 8a58 4c3e a8d9 92bd
00000100: d857 773e bf30 b8bc 5d13 73bb d4af dfbd
00000110: 1775 353c e496 dfbc 2d93 53bd cf2e 5abe
00000120: 9c56 573e e0eb a3bc 27d6 0bbe 6c27 b8bd
00000130: 6a3f 29be ecba 36be 1f84 85bc 4327 e83d
00000140: c351 4c3e f61a a33d 5102 27be 2c54 443e
00000150: 0506 0bbe 6b75 85bd 1468 563e 6c8a 173c
00000160: 0ac6 343d 403b 55bc a3e2 913d 7160 19be
00000170: a13d 8fbc d889 933d d824 a03d 4eac 0b3e
00000180: 5f48 f0bc 7246 6ebe 5ce1 54bd 0515 fa3d
00000190: 749f ec3b fb0d b1bd 9eec a83d d062 b8bd
000001a0: 27f8 11be 28eb 003d 5ad6 dd3d 9b42 d83d
000001b0: 7079 e43d 4c5b 65bd 1bfb 903c 0501 333e
000001c0: 66c9 00be 32a1 e0bd 7156 da3d 8d25 123e
000001d0: 59ba e3bd de5d 243c 9cee aa3d ed8c 81bd
000001e0: f9fd 24bd fac3 d63c 3808 61be 6f12 a23d
000001f0: e3e2 933d dd8c ea3d aa36 cf3c 6212 633e
00000200: bf87 263e c198 c33c 122e a93a 68d2 a83d
00000210: 4d6a c93d bbb7 3cbd b1d7 59be 12d7 68be
00000220: baee 343c ea23 213e 934f e6bd 7d25 1f3e
00000230: e42b de3d 276b c03d 7e86 413e e13a 94bc
00000240: 3587 113e 8915 1b3e 8431 d2bd 4742 0c3e
00000250: 7127 6fbe 828a 523d c5f8 cf3d 71de e33d
00000260: ff63 2f3e 3cec 29be 8618 a73d fbf3 21be
00000270: 9b03 333e 316e 4c3e 88f3 8ebc c8dc 89bd
00000280: b8d9 3b3c 6373 773e 8165 46bc 1af9 6ebe
00000290: 4c82 b83d a9b8 ccbd a212 533d 5860 5fbe
000002a0: a4b6 27be f1da 3b3e 4b07 723e 7fda 573e
000002b0: 838e d63d 661d 7b3c 3d8f cebd 7325 833d
000002c0: 3607 613d 391c 583e b114 5cbe ba87 123e
000002d0: 4971 0bbe 115b f23d 921b b3bd 33e4 ad3d
000002e0: e551 d13d f5f8 59bd 750f 173d 71cb cb3d
000002f0: 080e 383d 4aad 20be e7de 08be a5a8 1c3e
00000300: 98e9 603c 8443 68bd c446 16be fbf5 dbbc
00000310: db12 373e 037d 333d 8831 0d3e a5fe 233d
00000320: 489b 3f3d b540 9f3d dcfe 093e b02d 58bd
00000330: db2e 89bd 9899 7fbd 1cba 453e 7e11 1a3e
00000340: 9785 a23d 5c61 383e 9d47 573c 0201 a8bd
00000350: 7d90 523e c8b8 f53d 086d 9b3d 24da 4d3b
00000360: 3050 f9bd 34cf 0bbe 51d0 2a3e 2a53 9cbd
00000370: c90a 05be e86e 453d 22a3 a33d 325c 3f3e
00000380: 5cd7 db3d 00de 3abe ddc7 4e3e 31a6 02be
00000390: 2c41 d2bd 0b1f 613d 46f2 173e 294a 14be
000003a0: d1d3 4e3e 5936 5d3e 9468 3b3d a136 fa3a
000003b0: 199a 553e 387b 6ebd 48ce f43d 0965 d73d
000003c0: ee22 313e 3a0b 093e 0145 573d 0730 b5bc
000003d0: 90df 403e a4cc 6cbe 7100 26be 4078 613e
000003e0: fe4b fcbd 1daf 47bd 851e b9bd 16ba 5abe
000003f0: 0a9a 01be 89be 30bd 723a a3bd df33 05bd
0.04684805 0.06835406 0.16245095 -0.18747698 -0.09770505 -0.035315692 -0.20012923 0.07494114
0.05560906 0.18995541 -0.0067081335 -0.021007013 0.0863854 -0.16322426 0.031463247 -0.20713648
-0.23246372 -0.23008583 0.22193341 0.13676448 0.045253843 0.13946705 -0.045234386 0.08999984
-0.0029177337 0.24152692 -0.08475372 0.101844914 0.19714771 -0.012147066 0.12119579 -0.19594646
0.13788186 0.15044162 -0.036922242 -0.22888097 -0.051344983 -0.17656776 -0.12172046 -0.11125677
0.1685808 -0.23189203 -0.09200758 0.09484867 -0.078590386 0.022933481 0.12442742 0.06108604
0.23490371 0.21086992 0.1875288 0.20343539 0.15636186 -0.1297842 -0.10841329 -0.15296079
-0.004122431 -0.17813861 0.04642127 -0.21226849 0.21831512 0.22015789 0.1995565 -0.07170421
0.24154603 -0.022484181 -0.00370904 -0.109222084 0.01107528 -0.02729363 -0.05165403 -0.21306919
0.21029133 -0.020009935 -0.13655911 -0.08991894 -0.16528097 -0.17844743 -0.016298352 0.113356136
0.19953065 0.07964127 -0.16309477 0.19172734 -0.13576515 -0.06516536 0.2093814 0.009249311
0.044134177 -0.013014615 0.07123306 -0.14978196 -0.017485442 0.07204026 0.078195274 0.13639948
-0.029331384 -0.2326906 -0.051972732 0.122110404 0.0072211567 -0.08645245 0.08248256 -0.09003222
-0.14254819 0.031474262 0.108319 0.10559579 0.11155975 -0.05599527 0.017697861 0.17480858
-0.12576827 -0.109682456 0.10661019 0.14272137 -0.11119527 0.010032145 0.083462924 -0.063257076
-0.04028127 0.026216496 -0.21975791 0.07913672 0.072210096 0.11452649 0.02529462 0.22174981
0.1626272 0.02387655 0.0012907407 0.08243257 0.098347284 -0.046073657 -0.21273686 -0.22738293
0.011043245 0.15736356 -0.11245646 0.15541644 0.10848215 0.09395438 0.18898961 -0.018094482
0.14211734 0.15144934 -0.102633506 0.13697158 -0.2335489 0.051401623 0.10154871 0.11126412
0.17127989 -0.16594023 0.08158974 -0.15815727 0.17481844 0.1996391 -0.01745011 -0.06731564
0.011465482 0.2416511 -0.012109161 -0.23337212 0.09009227 -0.09996159 0.05153144 -0.21814096
-0.16378266 0.18345238 0.23635595 0.21079443 0.10476401 0.015326833 -0.10085914 0.06403627
0.054938518 0.21104516 -0.21492268 0.14309588 -0.13617434 0.11833776 -0.08745493 0.08490791
0.10220698 -0.05321594 0.036879975 0.09950913 0.044935256 -0.15691105 -0.1336628 0.15298708
0.013727568 -0.056705013 -0.14675432 -0.026850691 0.17878287 0.043820392 0.13788426 0.04003777
0.046778947 0.07776014 0.13476127 -0.052777946 -0.0669839 -0.062402338 0.19309276 0.15045735
0.079356365 0.1800589 0.0131396325 -0.08203317 0.2056293 0.11998135 0.075891554 0.003141054
-0.12173498 -0.1365326 0.16681029 -0.0763305 -0.12992395 0.04820147 0.079900995 0.18687513
0.10734436 -0.18248749 0.2019343 -0.1275871 -0.10266337 0.054961246 0.14838514 -0.14481415
0.20197989 0.21602763 0.04575403 0.0019089767 0.20859565 -0.05822298 0.119534075 0.10517318
0.17298481 0.13383189 0.05255604 -0.022117628 0.18835282 -0.23124939 -0.16211106 0.22018528
-0.12319182 -0.048750985 -0.09039024 -0.21360049 -0.12656417 -0.04315046 -0.07970132 -0.03252017

q_net.0.bias f4 [128]
00000000: e68e ae3d d43f 6ebe a53c dd3d e0dc a2bd
00000010: 28e2 3d3e 2d87 523c 25a8 dabd ac7b 55be
00000020: 1fb3 82bc 3cc6 5abd 6b59 50be 9793 d6bc
00000030: 8f09 7fbd bdfb aebd 9ec7 133d 3635 b5bd
00000040: 5dc2 793d 0b2b a03d 3e85 0b3e ead4 3fbd
00000050: c40a 723e 3e29 973d fe41 183e d3b9 40be
00000060: 3aff 10bd 4cdd 56be fdaf 3fbe 71e5 e83d
00000070: 6798 503d b697 12be 18bc 45be 757b 543e
00000080: 2a0e 03bd e7d4 6cbd 0a5e 02be 461d 4fbe
00000090: a50e 0dbc 993c 863d f25a b03d 0c58 67bd
000000a0: b82f 543e ebcd 503e b431 483e fa48 293e
000000b0: 812a 333e d4cb 3dbd 5fec 39bd 8d91 033e
000000c0: 57cb 2dbd d53c 803d bc73 033e 0373 503e
000000d0: b17f 723d a9cd 73bd 7ef8 91bd 1fe6 1c3e
000000e0: 45cb 383e bad8 0cbe ec7c 003e eef9 b7bc
000000f0: 923f a7bd 3395 ee3c 89f2 f53d 438b 193d
00000100: bc8f 43be 74df 32bc b08a b63d 1179 8a3d
00000110: fcf4 8fbc 37dc 243e b23c b23d 5793 aabd
00000120: 25df 593e 3359 ad3d aa88 00be 2fb6 4d3d
00000130: 5ed5 fa3d 21ce 803d 287a 1fbe e3d1 8cbd
00000140: c36a 53be 45ca 493e 90c3 2dbe 4d14 313e
00000150: 987b 623d a48c f13c 55e3 2abe 5809 833b
00000160: fabb 3cbe 9a94 483e 11b6 6bbe 8691 c73c
00000170: a05d 463e 15dd 2b3d e59b 90bd 23af c0bd
00000180: 2d8a 943d a93f 1f3d b392 0e3e 8fa4 a6bb
00000190: b67e 6cbc fab6 7e3d ca78 733e 65cb 613c
000001a0: c6c1 a93d 5f24 6f3e 6fe0 9fbc 6fb0 1bbe
000001b0: ebcf 2f3e 58a8 003e e666 a93d 2b6a 96bb
000001c0: e088 86bd 89f2 bfbd 99e1 5ebc 77f7 4b3e
000001d0: e9c3 d7bd a942 513c b671 6dbe e437 d3bd
000001e0: 2d36 aabd 408a 673d 422b 483d 0e5f 4cbd
000001f0: f378 fd3c 499f 37bc cb7a 93bd 009f 5dbe
0.085233495 -0.23266536 0.10802583 -0.07952285 0.18543303 0.012849611 -0.10676602 -0.20847958
-0.015954552 -0.053411707 -0.2034661 -0.026193423 -0.062264975 -0.08544109 0.03607904 -0.0884804
0.060976375 0.0782071 0.13625047 -0.04683391 0.2363692 0.07380913 0.14868924 -0.18820886
-0.035399653 -0.20982856 -0.18719478 0.113718875 0.050926592 -0.14315686 -0.19310033 0.2075022
-0.03199593 -0.057820227 -0.12731186 -0.2022601 -0.008609449 0.06554527 0.086110964 -0.056480452
0.20721328 0.20391051 0.1955021 0.16531745 0.17496683 -0.046336964 -0.045391437 0.12848492
-0.042430248 0.06261603 0.12837118 0.20356373 0.059203807 -0.059522305 -0.07127474 0.15322159
0.18046291 -0.1375455 0.12547654 -0.022458043 -0.08166422 0.029123878 0.120091505 0.037486326
-0.19097799 -0.010917533 0.08913171 0.06761373 -0.017572872 0.1609963 0.08702983 -0.08328884
0.21276529 0.08464279 -0.12552133 0.050222572 0.12247728 0.06289316 -0.15573943 -0.0687597
-0.20646195 0.19706066 -0.16969132 0.172929 0.05529365 0.029486008 -0.16688283 0.0039989166
-0.18431082 0.19587937 -0.23018672 0.024361383 0.19371653 0.041958887 -0.070609845 -0.09408405
0.072529174 0.03887907 0.13923149 -0.005085535 -0.014434507 0.06218622 0.23776546 0.013781403
0.082889125 0.23353718 -0.019516198 -0.15204023 0.17169158 0.12564218 0.082715794 -0.004590293
-0.065690756 -0.09372432 -0.013603591 0.19918619 -0.10535414 0.012772241 -0.23187909 -0.10313395
-0.083111145 0.05652833 0.04886938 -0.04989534 0.030941462 -0.01120741 -0.07201155 -0.21642685

q_net.1.weight f4 [256, 128]
00000000: b72c 903d e911 9e3c a2d4 83bd 28cb 21bd
00000010: 79c7 393b f4fd 6dbc aec7 93bd 652a 043c
00000020: bf98 26bd d608 9abd 4adc a8bc 18d3 283d
00000030: 8b11 b2bd b16d aa3d 24c8 273c e9fe 5dbd
00000040: 6522 81bd 5969 8a3d 9291 a1bd 7966 ffbc
00000050: c30e 8e3d ddcd b8bc b436 993c 19f2 97bd
00000060: 2621 d23b a3f0 a4bc 2ebf 4f3d 0367 813d
00000070: a836 c4bc d249 75bd 4cde 9f3d 2f73 893d
00000080: a8ed af3d 2ef6 12bd e1db c33c b53d 223d
00000090: 09e1 dfbc b331 41bb afcb 54bb 5405 2cbd
000000a0: 5abf 063d 3fff 523d da28 9cbd d8ac a73d
000000b0: ceef b83b 58ae c6bc 1f3f 673d c257 20bd
000000c0: af7a 81bd e8a3 613c 7f6a d93c 6c1d a83d
000000d0: 1b21 5a3d a6c8 033d f04b b73c 0ba1 5bbd
000000e0: 9f26 29bd c63d 413d 9beb bcbc c976 b23c
000000f0: 47bd a53c 1a67 6ebd 3f78 08bd 58fa 233d
00000100: a274 9fbc 04e3 653d 5427 0e3d c727 45bc
00000110: 7e62 cd3c 0175 b13d 36c9 3ebd 15f1 56bd
00000120: e2b9 3dbc 980f 7ebd 701e 0f3d 3545 353c
00000130: b4d3 e5bb 8033 95bd 5521 40bd 81ed 9bbc
00000140: e63c dfbc 46c0 833d 6cd1 01bd 39ea 23bd
00000150: 310c 5cbd 396e 58bd cd11 7eba abe4 a3bc
00000160: 3a51 94bc a9a6 0e3d aa04 26bd d746 163d
00000170: 7cc8 483d 5f37 64bd e0f8 7dbd 3b57 023d
00000180: dfb0 49bd 734e 6f3c 0035 f6bc b672 06bd
00000190: 8f7c ac3d 11b3 95ba 71b5 a43d b2c6 ecbc
000001a0: 613d 04bd fff3 89bd 8039 06bb b060 acbd
000001b0: 55ae d9bc b13c 99bd fae4 163d f2d0 4d3d
000001c0: 2404 823d 3cd6 6fbd a5fe 09bd 5156 79bd
000001d0: 6d98 c63c 1931 a03b 0582 52bd d9a7 fd3c
000001e0: db6d 70bd 068f 763d ee19 b4bd 03fd 7abd
000001f0: c4c7 073d c08f 6e3d 9df2 eebc 86c1 abbd
00000200: deaa e1bc 2983 9fbd 79c2 77bd 212f babc
00000210: 0738 263d 949d 96bd 9def 99bd 7947 653c
00000220: 8fff 8dbd edc0 ad3c 8ec9 513d a04e 3d3b
00000230: 7b95 86bd 0590 54bc d641 31bd 8820 9bb9
00000240: fe85 b4bd 410d 62bd 923f b1bc 09c5 8cbc
00000250: 493d 1cbd cf50 dfbc c9d4 93bd 9756 853d
00000260: d621 9d3d e168 75bd 2b0f ab3d d479 29bd
00000270: a3ef a2bd ebc3 9ebd 1c7f 4d3d 3a1a 293c
00000280: 6ff7 54bc 3b97 2f3d 1b74 963a dd2a 823d
00000290: 1e40 80bb eba6 31bd a3db ab3d ecc0 06bd
000002a0: 7420 85bd bdf3 64bd d426 9f3c 3216 1ebc
000002b0: b870 78ba 50cd 68bd 0d34 bf3b 2505 be3b
000002c0: 1d9b b2bc abd3 ca3c c594 113a a831 9fbd
000002d0: f20c 83bb f2cf bbbc c7c7 89bd cb45 9b3d
000002e0: 1a19 5f3d f33f f8bc efed e9bb 77b5 58bd
000002f0: 2858 803b 398a 273c e349 583d 2800 373d
00000300: d97f 773d e078 a3bd 66e6 083d b892 cfba
00000310: 68fd c63c d98a 61bc 1406 a53d 59ff 883c
00000320: 0468 6bbc 5292 b23d af1d 903d 8bef 86bd
00000330: 1e0e acbd 5bb8 24bc 8cde 103d e858 46bd
00000340: fa89 1b3d 9f06 3f3c a68c 93bd 6b1b 273d
00000350: 4bae 3b3d e264 5d3d f781 523d cc21 a73d
00000360: 4478 9cbd 29b3 033c dda2 6cbd fdd7 3b3c
00000370: c9bf 8fbd 927a 72bd bd79 6dbd ed88 ccbc
00000380: cda0 a8bd 4c04 9d3d 1364 b03d 073f 983d
00000390: a09c 98bd 1138 de3b 8391 95bd 745e 423d
000003a0: ee75 8bbd d97c 33bd 7df6 a63d fcce 0d3d
000003b0: 8e91 523d 9689 2fbd 5225 1cbd 10f3 713d
000003c0: 636e b33d 0f3f edbc 4a80 a23d 0fe3 8dbd
000003d0: 30b8 683d 3fbe febc 839d aa3d f1d4 b13d
000003e0: 912a 903d 7725 af3d 81ee 9abc c993 4e3d
000003f0: 5bfe e0bc d30a 40bd 40ef 103d 273b c6bc
0.07039779 0.01929565 -0.06437041 -0.039500386 0.0028347655 -0.014525879 -0.0721582 0.008066748
-0.040673014 -0.075212166 -0.020612855 0.04121694 -0.08694752 0.08321703 0.010240588 -0.05419818
-0.06305388 0.06758375 -0.078890935 -0.031176792 0.06936409 -0.0225591 0.018702842 -0.07419223
0.006412643 -0.020134276 0.050719433 0.06318476 -0.023951843 -0.059884854 0.07806072 0.06711423
0.08590251 -0.035879306 0.023908557 0.03960963 -0.027328985 -0.0029479086 -0.0032470038 -0.04199727
0.03289733 0.051512953 -0.07624979 0.08187264 0.0056438213 -0.024253055 0.05645668 -0.039146192
-0.06322228 0.013771988 0.02654004 0.08208737 0.053254228 0.032173775 0.022375077 -0.05362038
-0.041296598 0.047178052 -0.023061564 0.021785157 0.020231856 -0.058203794 -0.0333178 0.04003367
-0.019464795 0.056124702 0.034705475 -0.012033409 0.025071379 0.08664895 -0.04657861 -0.052476007
-0.011579962 -0.06202659 0.034941137 0.0110638635 -0.0070137624 -0.072852135 -0.046906788 -0.01903415
-0.027250718 0.064331576 -0.03169386 -0.040018294 -0.053722564 -0.05283949 -0.00096919836 -0.020006498
-0.018105138 0.03482691 -0.04053179 0.036688652 0.04901932 -0.05571687 -0.062004924 0.03182147
-0.049240943 0.014606106 -0.03005457 -0.03282424 0.08422195 -0.0011421164 0.0804242 -0.028903339
-0.032285098 -0.06735992 -0.002048105 -0.08416879 -0.026572386 -0.07482279 0.036839463 0.050248094
0.06348446 -0.05855392 -0.033690114 -0.060873333 0.024242604 0.0048886654 -0.051393528 0.030963825
-0.058698516 0.06019499 -0.08794008 -0.061276447 0.033149496 0.05824256 -0.029168421 -0.08386521
-0.027547296 -0.07788689 -0.060488198 -0.022727551 0.040580776 -0.073542744 -0.07516406 0.013994091
-0.069335096 0.021210158 0.05121761 0.0028885975 -0.0657148 -0.01297379 -0.043275677 -0.00029588141
-0.088146195 -0.05518842 -0.021636758 -0.017183797 -0.038144384 -0.027260212 -0.0721832 0.06510656
0.07672469 -0.059914473 0.083525024 -0.04137595 -0.07955863 -0.07752212 0.05017005 0.010321194
-0.012998446 0.042868834 0.0011478694 0.06355832 -0.0039138934 -0.043372076 0.08391502 -0.03289883
-0.065003306 -0.05589651 0.019427694 -0.009648846 -0.00094772456 -0.056836426 0.0058350624 0.005798953
-0.02180248 0.024759134 0.00055534794 -0.07773143 -0.003999346 -0.022926304 -0.06727558 0.07581671
0.054467298 -0.03030393 -0.0071389596 -0.052907433 0.003916759 0.010225826 0.05280484 0.044677883
0.06042466 -0.079820395 0.03342285 -0.0015836572 0.024290755 -0.013766014 0.080578 0.016723322
-0.014368061 0.08719315 0.07036912 -0.06588658 -0.0840113 -0.010053719 0.035368487 -0.04842463
0.03797338 0.011659293 -0.07204561 0.040797632 0.045820516 0.054051287 0.051393475 0.08160743
-0.07640126 0.008038321 -0.057772506 0.01146507 -0.07019002 -0.059198923 -0.057977427 -0.024967635
-0.08233795 0.07666835 0.08612838 0.074338965 -0.07451749 0.006781586 -0.07303145 0.04745336
-0.06809603 -0.043820236 0.08152483 0.034621224 0.051408343 -0.04285582 -0.03812153 0.059069693
0.08761289 -0.028960733 0.079346254 -0.069280736 0.05681628 -0.031096576 0.08330824 0.086831935
0.07039369 0.08552068 -0.018912556 0.050433908 -0.027465036 -0.046885323 0.035384417 -0.024198128

q_net.1.bias f4 [256]
00000000: 0436 85bc 4fc5 52bd ee3d a63c b5a1 a43c
00000010: 1ac6 243c 992f d2bc e545 763d 7e7d 56bb
00000020: 627a 8abd 67e2 f13a 0cda 21bd 46b3 28bd
00000030: 68d8 9c3d c2b4 69bd bb60 003c 87ef 813d
00000040: 74ab 9a3d 3a3f ab3d 9130 a63d 7b86 ad3d
00000050: c8c6 53bd 0b0d 45bc afc0 943d e840 77bd
00000060: 639b 35bb 7505 74bd de71 4eba 3ff7 783d
00000070: 4a39 febc b426 8fbd 2bc0 d0bc 7e89 47bd
00000080: 294c ab3d 7230 c83c 2fbf 5fba 78d3 783d
00000090: 3724 6a3d df75 45bd 11b5 2ebd aa41 263d
000000a0: 21b7 11bd e9c8 5c3d 6a27 54bd dd7e ef3c
000000b0: 73cc 383d 486d 6e3b a2c1 863d 616c 36bc
000000c0: c2c9 7a3d 5ef7 e13c 4d0e 71bd 9971 b1bc
000000d0: 6bc2 eab8 9137 8c3c 347b 94bd 2296 0a3d
000000e0: 60f8 a23d ab09 483d d850 76bd 660f 16bd
000000f0: f9a2 27bc 9b64 db3b e5aa 813d bae6 a0bd
00000100: fc94 803d 1753 71bd e039 993d f199 97bd
00000110: 5d2c 15bb 1515 5f3c d6eb b43d a381 6b3d
00000120: 0d28 11bc 34bb b1bd 8037 71bc 9a73 613d
00000130: 8fac 863d 4f89 033b f77e 0e3d dff6 abbd
00000140: 2dc8 703d 8740 5e3d 499f 9b3d f4cb a9bc
00000150: 5f56 d83b 4fa5 cebb a3ac 7a3d f8c8 a1bc
00000160: ebac 79bd 9f2b a83d 3602 673c 7530 353d
00000170: 1f8c 9e3d fc9b 11bd 680e 8dbd 8e06 50bd
00000180: 477d 94bd 631f 963d fb3c edbc 6efd 2fbd
00000190: 440d 55ba a80a 733d 775c 6c3d b331 88bd
000001a0: 7177 0c3d eeb7 b13d 6d09 a2bc c48e 80bd
000001b0: 0476 f5bb a3c8 e83c ae72 25bd 71a8 b3bd
000001c0: bd8b 7bbd 7daa 373d 0fd3 99bd c98f 9cbc
000001d0: e7a7 a9bd f6d8 5dbd d15d 21bd fd93 233d
000001e0: 0430 a33d 1840 17bd 7861 0bbd 4461 943d
000001f0: ed12 bbbc 0e43 85bd dae7 a8bd e71e b23d
00000200: 0eb1 abbd db23 193c f2bd 6c3d db2c 2d3c
00000210: 39a7 41bd 0026 083c f188 923d 6275 52bd
00000220: faf7 a83d 7d33 b0bc abdd 8cbd 51b1 acbd
00000230: 04b5 cf39 335f e2bb 9d8f 413d a313 5abd
00000240: 5b9f 91bd cec2 403d d7c8 4eb8 dec4 17bb
00000250: 474b 9bbd 3509 843c 249e 80bc 7779 1a3d
00000260: f761 1abb e2ba 4d3d 4b3d ad3d a0cc 89bd
00000270: 93c2 a33d 4f12 043a 7bbc 673d a25f e43c
00000280: 3218 8d3d 3c8b 613d 3a13 83bd 4b9a b4bd
00000290: 3de3 883b aa90 e0bc ab36 28bc aa95 a9bd
000002a0: 934e 253b 070d 843c 51a1 fbbc c403 b3bc
000002b0: c9a0 233c 4240 783d 1853 a93d c065 963d
000002c0: 50bc 0fbd 9375 833c 6a36 3b3d b636 9ebd
000002d0: 713c 95bd 6fcd f9bc abb1 96bd 28e1 7fbd
000002e0: 675c 343d 604e b1bd 7e75 93bd 5523 74bd
000002f0: e51b 6a3d 2899 843d 3c4e c8bb 6636 38bd
00000300: 8778 a13d 6aab 843d 6f24 71bd 0e08 7abc
00000310: 6ff6 7dbd 34f8 3e3d 3442 b53c 2134 7a3d
00000320: 4d5a a93d 3278 443d ad72 543c 821c d6bc
00000330: c006 0f3d 6db4 8cbd 8e19 333d 0857 503c
00000340: f9ad a6bd 8558 1e3d 3b38 2e3b a5ee ba3c
00000350: 3bce 8c3d c338 a4bd 0b93 963b c702 583d
00000360: 5914 4dbd de11 91bd 0c47 77bd 651a 6e3d
00000370: 0ae8 64bd 2673 50bd 72c3 873d 6965 03bd
00000380: 88ef 8c3d d781 88bd 9511 883b 44bb 043c
00000390: 637a 87bd 133a b0bc cc75 e83c 05e1 60bd
000003a0: 453a 1ebd 9997 97bd afec 783d 3f49 a43d
000003b0: 1344 b23c 8166 3abd a64c 90bc 8c8d 8fbd
000003c0: 96d0 a6bd 36ac 99bd af7f abbd ac18 91bc
000003d0: 8e8e 8cbd 8ac8 443c 5b66 5fbd 7ca5 9cbd
000003e0: 1148 81bd 0348 9fbd 0403 a63d 2557 233d
000003f0: abc9 b1bd f819 af3d 4b9e f63b bb54 4a3d
-0.016261108 -0.0514577 0.020293202 0.02009664 0.010056997 -0.025657462 0.06012525 -0.0032728608
-0.06761624 0.0018454314 -0.039514586 -0.041186593 0.07658464 -0.05705715 0.007835562 0.06344514
0.07552233 0.08361669 0.08114732 0.08472916 -0.051703244 -0.0120270355 0.07263314 -0.060364634
-0.0027711026 -0.059575517 -0.0007875244 0.060782667 -0.031033177 -0.06989804 -0.025482258 -0.048715107
0.08364136 0.024437163 -0.00085352635 0.060748547 0.057163443 -0.048208114 -0.042653147 0.040589966
-0.035575036 0.05390254 -0.0517954 0.029235298 0.045116853 0.0036381055 0.06579901 -0.011134238
0.061227567 0.027583774 -0.05885153 -0.021660613 -0.00011194203 0.01711634 -0.07250062 0.033834584
0.0795753 0.048837345 -0.060135692 -0.03663578 -0.010231727 0.0066953427 0.06331424 -0.078565076
0.062784165 -0.05891713 0.07481742 -0.07402409 -0.0022762038 0.013615866 0.08834045 0.057496678
-0.0088596465 -0.08678284 -0.014722705 0.055041887 0.06575882 0.0020070856 0.03478905 -0.08396696
0.058784653 0.054260757 0.075987406 -0.020727135 0.006602093 -0.0063063274 0.061199795 -0.01974915
-0.060955923 0.08211445 0.014099648 0.044235665 0.0774157 -0.03554915 -0.068875134 -0.0507875
-0.07250457 0.07330205 -0.028959742 -0.0429663 -0.0008127282 0.059336334 0.05770537 -0.066501044
0.034293596 0.0867766 -0.019779885 -0.062772304 -0.007490875 0.028415984 -0.04039257 -0.08772362
-0.06141256 0.044840325 -0.07510959 -0.01911153 -0.08283978 -0.05416199 -0.03939611 0.039936054
0.07968143 -0.03692636 -0.0340285 0.072451144 -0.022836173 -0.0650693 -0.08247347 0.086973004
-0.0838338 0.0093469275 0.057798333 0.010569776 -0.047278617 0.008309841 0.07155026 -0.051381476
0.08250423 -0.021508927 -0.06878217 -0.08432258 0.00039616984 -0.0069083213 0.0472561 -0.053241383
-0.07110473 0.04706078 -4.9301274e-05 -0.0023158113 -0.075827174 0.016117672 -0.015700407 0.037713494
-0.0023556927 0.050227053 0.08458956 -0.06728482 0.079960965 0.00050381286 0.056576233 0.027877633
0.068893805 0.055064425 -0.064001516 -0.088184915 0.0041774795 -0.027412731 -0.01026694 -0.08280499
0.0025223836 0.016119493 -0.03071657 -0.021852382 0.009987065 0.060608156 0.08267802 0.07343626
-0.0350917 0.016047275 0.04570619 -0.07725279 -0.07286919 -0.030493466 -0.07358106 -0.062470585
0.044033434 -0.08657527 -0.07200144 -0.059604008 0.05715551 0.06474525 -0.006112842 -0.044973753
0.07884317 0.06478007 -0.058872636 -0.015260709 -0.062002596 0.046623424 0.022126295 0.06108487
0.08269177 0.04796619 0.012966794 -0.02613664 0.034918547 -0.06870351 0.043725543 0.012716062
-0.081386514 0.038658638 0.002658381 0.022818873 0.06875273 -0.08018639 0.0045951656 0.052737024
-0.050068233 -0.07083486 -0.06037049 0.05813064 -0.055885352 -0.050891064 0.06629075 -0.032079134
0.068816245 -0.0666539 0.0041524866 0.008101288 -0.0661514 -0.021512067 0.028376482 -0.054902095
-0.03862979 -0.07401962 0.060772594 0.08021783 0.021760976 -0.04550791 -0.017614674 -0.0700942
-0.08145253 -0.0750355 -0.08373963 -0.01771196 -0.06863128 0.012010703 -0.054540973 -0.07648751
-0.06312574 -0.07777407 0.08106044 0.03987803 -0.08681043 0.08549875 0.007526194 0.04939721

q_net.2.weight f4 [256, 256]
00000000: 6cf2 c83c c0b8 153c a081 56bb b8c4 bcbc
00000010: 5ac4 4bbd d01d ccbc 8024 ffba 304a 083d
00000020: c24b 693d a216 113d d056 99bb 58af 623d
00000030: a08f 1a3b c402 dcbc 16e1 2cbd 98bd 75bc
00000040: 44fb 673d f43f 1dbd 20ca 633b e810 cabc
00000050: b8e6 3d3c cca4 49bd 30e5 b33b 6241 4ebd
00000060: 8030 7c3b 9023 b4bc bc66 9c3c 2821 cc3c
00000070: 0050 2fbc c628 08bd 08a4 3a3c 8083 c73a
00000080: 1c3c 193d b898 293c 70f9 67bd ac79 79bd
00000090: f46c 28bd fe1a 72bd 8cdb 46bd 9463 89bc
000000a0: 6caf 71bd f01f e5bc 001f 3dba d024 0abd
000000b0: c490 eb3c 3a42 743d 9ab5 11bd 4661 4bbd
000000c0: eed0 0abd acf3 5f3d 4021 3bbd e89d 893c
000000d0: 3628 4fbd 00ca 493c d604 6d3d d018 96bb
000000e0: e0fd 42bc 60b6 513d dc52 4abd 4077 d33c
000000f0: ec3f 5ebd 1c57 db3c ee7d 573d a2f4 4bbd
00000100: 6027 703b 02f9 7c3d 6cde 52bd f242 673d
00000110: 8696 253d b8bf 2dbc c877 063d 9848 dd3c
00000120: e068 6f3c 3abb 713d 980e 243c e854 77bc
00000130: f818 f0bc d8f9 dbbc 0cc6 a93c 74a8 d4bc
00000140: 0038 4d3d e022 9a3c 261f 01bd 9cd2 ab3c
00000150: 786f 2b3d 2eb9 50bd d417 503d a00b 0dbb
00000160: 38d1 65bd 74c9 133d ec39 bdbc d8ae 6c3c
00000170: c0a2 7bbb 34d3 7bbd 8a5a 4a3d 5c8e 97bc
00000180: 70a2 483d 14d5 f4bc 0804 3a3c 5070 313c
00000190: b215 063d 88bd 773d 463b 313d 5ef7 193d
000001a0: 3c80 4abd 2ad5 7f3d 70af c1bb 3624 513d
000001b0: f053 c2bc 3068 b43b 687d dc3c 5888 583d
000001c0: 78c9 edbc 7456 673d 907f 03bd a0e2 d43b
000001d0: 046b f7bc 6cb8 003d 7cd4 a73c 08be a83c
000001e0: 1a98 553d 8087 c33a 9403 c63c a098 d9bc
000001f0: a633 65bd f653 233d 0889 bcbc 70de 5ebd
00000200: 1442 4cbd 4840 ee3c 7097 d93b 7c96 90bc
00000210: 4062 1ebb 689d 0a3d f0e2 823c 3289 4abd
00000220: 180a 5abc 52d7 54bd c272 5c3d f4c4 4d3d
00000230: 90bc 3b3c ea3d 52bd ec81 15bd d8ce 78bc
00000240: e0b8 5c3c 00aa 97bb e0ef 7a3b 3a4a 263d
00000250: 8841 ce3c 60ea 5ebc f0a4 3abc 30c3 6f3d
00000260: d82e 843c 3423 d03c 826d 11bd d08f 43bc
00000270: b42f dcbc b09d 7a3c 407c f03c 7e97 7cbd
00000280: 5042 bf3c 8057 393c e4b0 e9bc 78c1 1d3d
00000290: 78e5 c23c 84bf d6bc 8e53 153d ce1c 1b3d
000002a0: c047 c23b aa49 483d 0637 283d f630 5cbd
000002b0: 62c8 2c3d 52fc 4a3d a818 a43c 0050 303d
000002c0: 381e 013d 0069 d5bc 7ca8 5bbd 82a8 6dbd
000002d0: ec0b 9dbc 6099 c73c 40d0 e6bc 325b 36bd
000002e0: 5661 3ebd 1eae 70bd 985c ee3c 503f afbc
000002f0: 7455 753d 4ebb 0ebd 4477 b3bc 14c0 d2bc
00000300: d6f9 133d d0a0 073c 4075 f03a 9c50 9abc
00000310: c0f4 91bc 208e 00bc c052 8bba b0fe 423d
00000320: a403 4cbd 2c38 623d 325b 61bd 84b2 b0bc
00000330: 4881 06bc 9ae1 183d c43a c4bc 5213 40bd
00000340: 187e 263c 6c37 0ebd 142c 62bd d80c 163c
00000350: 40e3 36bd d46b 9b3c 7085 9abb 1ca4 b43c
00000360: b244 11bd f805 603c 9a3d 2b3d b64a 1b3d
00000370: b0b7 3dbd 6032 02bd b6e0 1f3d ec1d 8fbc
00000380: ec34 b4bc 4059 0cbd e0fc f53c 000b 0dba
00000390: 92cb 6bbd 3064 1a3d 9889 75bd ea95 373d
000003a0: 609f 44bb 7094 55bd dcb3 54bd f08e ac3c
000003b0: 787c c83c cc4a 823c d86c 413d cc18 d5bc
000003c0: b8ce c8bc 3080 c7bc 88df e4bc 4465 e63c
000003d0: 4ef5 46bd 90ef 423c 1ec0 263d 66ca 143d
000003e0: eee8 1a3d d4d0 72bd 8cd4 38bd 9ce6 88bc
000003f0: c8a6 1a3d 0052 ef39 ec67 143d 7c8e f23c
0.024529658 0.009138286 -0.003273107 -0.023043022 -0.049747802 -0.02491656 -0.0019465834 0.033273876
0.056957014 0.035421975 -0.0046795383 0.055343002 0.0023584142 -0.026856788 -0.042206846 -0.014998816
0.05663611 -0.03839107 0.0034757927 -0.024666265 0.011590652 -0.04922943 0.0054899678 -0.050355323
0.0038481057 -0.021989614 0.019091956 0.024918154 -0.010700226 -0.03324201 0.011391647 0.0015221685
0.03741084 0.010351352 -0.056634367 -0.06090705 -0.04111953 -0.059107773 -0.04854922 -0.016771115
-0.059005186 -0.02796933 -0.0007214397 -0.033726513 0.028755553 0.05963347 -0.03557358 -0.049653314
-0.033890657 0.054675743 -0.045686007 0.016798928 -0.050575458 0.012316227 0.05786594 -0.0045805946
-0.011901349 0.051199317 -0.049395427 0.025813699 -0.05426018 0.026774935 0.05261033 -0.049793847
0.0036644563 0.06176091 -0.05148165 0.05646033 0.040426753 -0.010604791 0.032829076 0.027012154
0.0146124065 0.059016444 0.010013245 -0.015095927 -0.029308781 -0.026852533 0.020724319 -0.025959231
0.050102234 0.018815458 -0.031523846 0.02097445 0.04185435 -0.05095785 0.050803974 -0.0021521822
-0.05610773 0.036080793 -0.023098908 0.014445983 -0.0038396567 -0.061480716 0.04940275 -0.0185005
0.048983037 -0.02988676 0.0113535 0.01083 0.032735534 0.060483485 0.04326942 0.037589423
-0.0494387 0.06245915 -0.0059108064 0.051059924 -0.023721665 0.005505584 0.026915267 0.052864403
-0.029026732 0.056478932 -0.032104075 0.0064967424 -0.030202396 0.03142588 0.020487063 0.020598426
0.05214701 0.0014917701 0.024171628 -0.026562035 -0.05595746 0.039874993 -0.02301456 -0.05441135
-0.049867705 0.029083386 0.006640367 -0.017649882 -0.0024167448 0.03384152 0.015977353 -0.049447246
-0.013308071 -0.051963158 0.05382038 0.050236657 0.011458531 -0.051328577 -0.036500856 -0.015186034
0.013471812 -0.00462842 0.003828995 0.04059813 0.025177732 -0.013605684 -0.011391863 0.058535755
0.016135618 0.025407411 -0.035504825 -0.011936143 -0.026878215 0.015296385 0.029356122 -0.06166791
0.02334705 0.0113123655 -0.02852673 0.038514584 0.02379106 -0.026214369 0.036456637 0.037869267
0.0059289634 0.048898377 0.0410681 -0.05375763 0.042183287 0.049557038 0.020031288 0.043045044
0.03152296 -0.026051044 -0.053627476 -0.05802203 -0.019170724 0.024365127 -0.028175473 -0.044520564
-0.046479546 -0.0587598 0.029096887 -0.021392494 0.059895948 -0.034846596 -0.021907456 -0.025726356
0.036126934 0.008278087 0.001834549 -0.018837266 -0.017816901 -0.007846385 -0.001062952 0.04760617
-0.04980816 0.05522935 -0.05501861 -0.021569498 -0.008209534 0.037324525 -0.023953803 -0.046893425
0.010161899 -0.034720823 -0.055217817 0.009158336 -0.044650316 0.018972315 -0.004715614 0.02205091
-0.035465904 0.013673298 0.041806795 0.037913047 -0.046317756 -0.031786323 0.03903266 -0.017470323
-0.021997891 -0.034264803 0.030027807 -0.0005380362 -0.057567187 0.037693202 -0.059945673 0.044820704
-0.0030002221 -0.052143514 -0.05192934 0.021064252 0.024473414 0.015904807 0.047222942 -0.0260128
-0.024512634 -0.024353117 -0.02793862 0.02812446 -0.048573785 0.011897936 0.04071056 0.036325835
0.037819795 -0.059281185 -0.045124575 -0.016711526 0.03775671 0.00045646727 0.03623192 0.029608957

q_net.2.bias f4 [256]
00000000: 501a fa3c 88fc 403c 4691 30bd 789b 56bd
00000010: 50ef 853b a0f7 a5bc e4cd 613d f467 c2bc
00000020: 50d1 8b3b 3062 f3bc 188e b5bc ac42 7bbd
00000030: c060 6a3d aa75 253d 1cb0 5f3d f050 0ebd
00000040: a04c 08bb b07b 1b3c 2cb8 28bd bab2 733d
00000050: b8e5 f33c 0008 c53c b051 dc3c 0e82 25bd
00000060: 9830 273d 14da 8dbc ece5 f33c ec0c 55bd
00000070: 9ac8 233d 3017 01bd 4016 33bb 40a0 9fba
00000080: aadb 3b3d 4ed6 2bbd 7008 363c 7af1 253d
00000090: 90e4 473c 3a51 10bd 808b 613b 32c3 3e3d
000000a0: 3aab 41bd 18c4 06bc f2dd 7fbd b667 78bd
000000b0: 80f8 033b c0b1 d5bb 2c08 8e3c 8ccd 47bd
000000c0: d654 26bd f80f f53c c0fd e8bb 409e 8d3b
000000d0: 7c68 3abd d2c6 63bd 7024 f6bc 1cfd 4f3d
000000e0: bca5 3bbd 227c 6a3d 00f4 3d3d 7455 b63c
000000f0: 4c67 213d 3252 14bd 20f8 d03c d05f 3e3d
00000100: 64d7 73bd 3015 c0bc f00c 05bc bc51 70bd
00000110: 00c8 f53a 54d0 db3c e8b4 ccbc 1a25 26bd
00000120: 804e ddba 8887 23bd a026 ee3c 801c b1bc
00000130: 08de 933c 34cb 4e3d 249c bebc 9a56 2abd
00000140: 007e ddbb c8ad 07bc 0882 11bd 545e edbc
00000150: 4089 3d3c 70e6 cebc 7075 db3c 88f5 7bbc
00000160: d81a f6bc 0038 84ba a24f 4dbd 00e4 453d
00000170: 30ca 73bd a89d a23c 8a77 463d 8072 20bb
00000180: 6015 833c d894 d03c a6d0 523d b415 8ebc
00000190: c83e 16bd de11 2abd 588c b23c f0b0 8a3c
000001a0: b4d5 e7bc 9a93 1a3d 30ba 9c3c 58b3 0bbc
000001b0: 1859 d73c 2e58 4bbd 1464 4f3d 2c17 413d
000001c0: a68e 023d faa5 2dbd 5698 633d 0048 ac38
000001d0: 30af d8bb 2426 f2bc 602d 88bc 60b6 673c
000001e0: 8c6e 413d a0bb 04bb 50dd 3abc c44d 813c
000001f0: 4ab3 05bd c405 08bd 94e4 723d 7a7a 20bd
00000200: e612 583d 9473 483d e08f 6fbd 00c8 e4b8
00000210: 90fa 2d3d c88d 30bd 1084 593c 1223 233d
00000220: b8c3 673d a453 64bd e05c aebc 2421 ef3c
00000230: 6057 3c3b 42ff 503d 1886 c0bc f87f 5b3c
00000240: 1e23 0fbd b0d0 ed3c 38a9 cd3c 48ab 3dbd
00000250: 986d 91bc 04a1 f03c 70b8 c93c 1cfd 30bd
00000260: 5c62 8abc cc33 7bbd 5c6c 433d 4cfd 17bd
00000270: 0eb7 323d d06d 7f3c 18cd 323d d882 263d
00000280: a8b3 593d f402 dcbc 8ca7 503d 486f 473c
00000290: f0b9 b63b 7a45 75bd 9038 64bc e087 2cbb
000002a0: 1e2c 6cbd ee72 003d d03b aa3c 5844 73bd
000002b0: 068f 063d 764a 3c3d 60ad 923b 70fa 153c
000002c0: 84a5 933c 26c5 4d3d 741d 713d 0081 bb3c
000002d0: 02d4 63bd 50da 273c 5a07 50bd c8ec a23c
000002e0: 6450 1dbd 96e1 49bd 4e94 0f3d 90c8 4e3d
000002f0: 90b9 303c a0c0 043d c8ba 3e3d 1c3e 78bd
00000300: e083 2bbd 8ce8 9bbc 20b2 21bd d0ed 623d
00000310: 5c62 9c3c 442d 49bd 5464 c4bc 24f8 a83c
00000320: d065 e13c 104b 3f3d ec31 9c3c 5aa9 373d
00000330: 46b6 4a3d f29f 32bd 24f0 cfbc 202d 8ebc
00000340: 3c51 2fbd b894 bfbc a010 b93c f484 853c
00000350: 76f3 533d 5c5a ab3c 6473 dbbc 9c88 c43c
00000360: 1ae3 1dbd c23c 3fbd 3010 643d d8a0 6b3d
00000370: c45b babc 3e37 013d d82d 1e3d 9013 623d
00000380: 1a2d 2fbd b0f2 0d3d 88a7 313c 48bf 373c
00000390: d8e1 673c 0018 883c 6441 283d ea19 1e3d
000003a0: 7872 b8bc 2076 0b3d c4d2 ebbc 78cb b53c
000003b0: 8843 113c 4461 453d 2027 38bb 84cf 903c
000003c0: 04fc f13c 5648 7bbd dc7c 37bd 40af abbb
000003d0: 2067 4fbd 0414 fabc c8ef 2c3d 8c1e 4a3d
000003e0: 9ccd 56bd 1427 373d 7897 3dbc 4023 723b
000003f0: 902a 293d 40d3 02bb f0b9 143d f0ab 4dbd
0.030530125 0.011778958 -0.043107294 -0.05239436 0.004087366 -0.020259678 0.055127993 -0.02373121
0.0042668954 -0.029709905 -0.022162482 -0.06134288 0.057221174 0.040395416 0.05461131 -0.034745157
-0.0020797625 0.009489939 -0.041191265 0.05949662 0.029772624 0.024051666 0.02689442 -0.040407233
0.040817827 -0.017315902 0.029772721 -0.052014276 0.03998623 -0.031516254 -0.0027326494 -0.0012178496
0.045863785 -0.041952424 0.01111041 0.040513493 0.01220049 -0.035233714 0.0034415424 0.04657287
-0.047282435 -0.008225463 -0.062467523 -0.06064578 0.0020137131 -0.0065214336 0.017337881 -0.04878001
-0.04060825 0.029914841 -0.0071103275 0.0043218434 -0.0455098 -0.05560953 -0.030046672 0.050778493
-0.045812353 0.05724729 0.046375275 0.022257544 0.039405152 -0.0362112 0.02550894 0.046478093
-0.059531584 -0.023447603 -0.00812076 -0.058671698 0.0018751621 0.026832737 -0.024988607 -0.040562727
-0.0016884357 -0.039924175 0.029071152 -0.021620035 0.018050209 0.05048676 -0.023267813 -0.041586496
-0.006759405 -0.008281179 -0.035524398 -0.028975643 0.0115683675 -0.025256366 0.026789397 -0.015378363
-0.030042097 -0.001008749 -0.050124772 0.04831314 -0.059518993 0.019850567 0.048453845 -0.002448231
0.016001403 0.0254616 0.051468514 -0.017344333 -0.036680967 -0.041520946 0.021795437 0.016930073
-0.028300144 0.03773842 0.01913175 -0.008526646 0.0262876 -0.04964464 0.05063255 0.04714124
0.03187432 -0.042394616 0.0555652 8.21501e-05 -0.006612681 -0.029559202 -0.016623199 0.014142603
0.047224566 -0.0020253435 -0.011405304 0.015784152 -0.032641686 -0.033208624 0.05930002 -0.039179303
0.052752398 0.04893835 -0.05848682 -0.0001090914 0.042475283 -0.043103963 0.013276115 0.039828368
0.056583136 -0.05574383 -0.02128452 0.029190607 0.0028738603 0.051024683 -0.02350144 0.013397209
-0.0349456 0.029030174 0.025105104 -0.046305925 -0.017752454 0.029373653 0.02462408 -0.043210134
-0.016892605 -0.061328694 0.04771076 -0.037106797 0.043631606 0.015590146 0.043652624 0.040652126
0.05314985 -0.026856877 0.050941035 0.012172528 0.0055763647 -0.05988071 -0.013929501 -0.0026326105
-0.05765926 0.031359605 0.020780474 -0.05939135 0.03285124 0.04596945 0.0044762343 0.009153947
0.01802326 0.050236844 0.05886598 0.02288866 -0.05562211 0.010244921 -0.05078826 0.019888297
-0.038406745 -0.0492874 0.035053544 0.05048424 0.010786429 0.032410264 0.046564847 -0.060606107
-0.041873813 -0.019031785 -0.039476514 0.055402577 0.01908987 -0.049115434 -0.023973621 0.020626135
0.027514368 0.046702445 0.019066773 0.04483924 0.049490236 -0.043609567 -0.025383063 -0.017355502
-0.04280208 -0.023386344 0.022590935 0.016298749 0.051745854 0.02091711 -0.026788421 0.023990922
-0.03854666 -0.046688803 0.0556795 0.05752644 -0.022748835 0.031546824 0.03861794 0.055194438
-0.04276762 0.034655273 0.010843165 0.011215039 0.014152966 0.016613007 0.041077986 0.038598932
-0.02251552 0.0340482 -0.028787024 0.022191748 0.008866198 0.048188463 -0.0028099492 0.017677076
0.029539116 -0.06134828 -0.04479681 -0.0052393973 -0.050635457 -0.030527122 0.04222086 0.049345538
-0.052442178 0.044715002 -0.0115717575 0.003694728 0.041300356 -0.001996234 0.036310136 -0.0502128

q_net.3.weight f4 [128, 256]
00000000: 106f 323c 20fb e8bb 8e1e 233d 80aa f33c
00000010: 7484 803c 92e1 56bd 0880 8f3c 0476 23bd
00000020: 3443 853c 00f1 4cbd 0090 3c3d fcc2 31bd
00000030: aa03 313d 502c 5b3c 8a73 263d 56d4 463d
00000040: 2884 b9bc 746d ecbc a041 a43b 4495 663d
00000050: a0c6 113c 0a75 1ebd c0af 2f3d a0df eabc
00000060: 48ef 76bd 3cbf 9abc 80a8 8e3a 001b 163c
00000070: 1c7c bd3c 66be 453d 4013 1d3c 80d3 9d3c
00000080: f234 393d 52ba 2dbd 7c9a bb3c 40d0 80bb
00000090: 8282 0cbd 4459 69bd 8028 98ba 60c8 013c
000000a0: a8ee 253c 2007 96bb 629f 1c3d c667 1dbd
000000b0: 90b2 ef3c 74a4 4bbd 2889 983c 4ef4 7f3d
000000c0: aa8b 5bbd 4841 393d de88 173d 6c17 4b3d
000000d0: b4e9 5ebd ccaa 77bd c866 c7bc a671 0f3d
000000e0: 94ea db3c b04e 853b 94db 17bd e69b 0cbd
000000f0: 7ce4 493d 5c46 bd3c 1004 70bc 64b9 bb3c
00000100: 3049 b93c 60a7 e53c b45f 953c 0047 70bd
00000110: ccbe ef3c f05c 1f3c 4812 3cbd 803d 113b
00000120: 50e8 c03c 98f7 013d 546f 853c 60ba 713c
00000130: 783f b13c b274 5bbd 7891 ee3c 84a6 fdbc
00000140: 2018 d73c 4009 4ebd 884f 9bbc 1418 8e3c
00000150: d0a7 933b d04f 0dbc 48cf 48bd 74bf 673d
00000160: 6690 70bd 667f 193d c443 07bd 147c 0fbd
00000170: 4471 153d d4ef 513d e65d 643d 80c4 debc
00000180: 58c7 7e3c fe2e 7ebd 6c78 c1bc 1021 c03c
00000190: d860 1abd d0b4 d23c 80cb f9bb 308b 79bc
000001a0: ecea fd3c 88d7 a8bc 9cb7 99bc 5252 2dbd
000001b0: 48dc 7f3d 00d0 3cbd a0b9 773d c4c0 ab3c
000001c0: c846 293c d8f4 743d 624f 69bd 06a2 77bd
000001d0: 620a 56bd e0d2 513b f056 793d 4c64 bf3c
000001e0: 9024 7dbc c856 6fbc ac54 92bc 18f7 44bc
000001f0: d0bc 6d3d 5ce1 e4bc baf8 593d 1e62 0a3d
00000200: f0ae a1bb b698 1fbd 80bc 02ba 8a78 0d3d
00000210: b653 403d aadc 35bd 9034 07bd 7873 d8bc
00000220: 0c83 d8bc 1850 6d3c e44a 8b3c c0be 8bba
00000230: b63a 3e3d a079 11bd b8a2 923c 2411 69bd
00000240: e841 7c3d bed3 60bd 50b9 06bd 305c f3bc
00000250: 3a2c 2dbd 8ee7 143d e040 44bc 8cea 1ebd
00000260: 6493 713d 0a03 32bd f0c0 e83c 70b2 28bc
00000270: 24d4 ce3c 6853 7e3d 4cf5 853c 2a04 37bd
00000280: 9254 2a3d ca76 283d 0442 95bc f0c0 30bd
00000290: aad0 2cbd 7c0f 1bbd 1826 24bc cc11 6ebd
000002a0: fc79 473d 049e 56bd 386a d7bc d4e9 bd3c
000002b0: 14c5 ff3c 00b8 653a 3055 4e3d c058 09bb
000002c0: b866 2f3c c444 fcbc a29e 643d 1851 a73c
000002d0: cc56 56bd 52fc 07bd 18af 303c b424 843c
000002e0: 0c1a b63c 785e cebc c81c 63bd 7882 aa3c
000002f0: fe2b 463d 2257 313d c61a 4fbd 1ead 3f3d
00000300: 986d 453d d48d fdbc 1c7c 8dbc 50fc 5c3c
00000310: 50f9 073d a808 c33c c8b9 b8bc 4007 f6bb
00000320: 1a3a 4b3d d84c 20bd fcd5 86bc a424 bebc
00000330: 2e26 39bd 70e2 3a3d c8a2 47bc c41c 753d
00000340: 38cb 8dbc 0062 0139 c084 ccbb 703d a1bb
00000350: 80fb 453a 8c14 45bd 0815 c4bc c25c 213d
00000360: b4b7 5c3d 7476 51bd c49f 06bd 4071 3bbd
00000370: aa08 28bd 5c01 b8bc 3ea6 413d 764b 79bd
00000380: 0088 e13b 584b 253c d407 5bbd b8a3 103c
00000390: 3e2d 2a3d 0cb3 823c f0d3 77bc 50a4 b4bb
000003a0: 0af0 2a3d fe17 20bd 0004 aeb8 2088 c7bc
000003b0: 40e6 0e3d 609a d03b 8807 693c 64e7 4cbd
000003c0: b8ff 583d 806d 18ba 6ec1 443d e01a f1bb
000003d0: 50df 4abc 96ae 333d c00b bfbc 6a29 6e3d
000003e0: ac19 8fbc 9c14 b6bc c065 3b3d 6c6a cd3c
000003f0: a88b 453d 6e24 363d d049 94bc e49b 03bd
0.010890737 -0.0071100146 0.03982406 0.029744387 0.015688159 -0.052461214 0.017517105 -0.03990747
0.016267397 -0.050034523 0.046035767 -0.043398842 0.043216385 0.013377264 0.04063753 0.048542343
-0.022646025 -0.028860785 0.005012706 0.056294695 0.008897454 -0.038685836 0.042892218 -0.028671086
-0.06028679 -0.018890016 0.0010883957 0.009161711 0.023130469 0.04827728 0.009587109 0.01926589
0.04521651 -0.042414017 0.022900812 -0.0039310753 -0.03430415 -0.056969896 -0.001160875 0.007921308
0.010127701 -0.004578486 0.038237937 -0.038429044 0.02925995 -0.04971738 0.018620089 0.062488846
-0.05359999 0.045228273 0.03699576 0.049582884 -0.054422095 -0.06046562 -0.024341002 0.035020493
0.026845254 0.004068218 -0.03707464 -0.034328364 0.049290165 0.023104839 -0.014649406 0.02291555
0.022617906 0.028033912 0.018234111 -0.05866146 0.029265784 0.009726748 -0.04591587 0.00221619
0.023548275 0.031730264 0.016288437 0.014753908 0.02163671 -0.053578086 0.0291221 -0.03096319
0.02625662 -0.05030179 -0.018958822 0.017345466 0.004506089 -0.008624986 -0.049025804 0.05657907
-0.05873146 0.037475012 -0.03302361 -0.03503044 0.03648497 0.05125411 0.05575361 -0.027193308
0.015550457 -0.062056534 -0.023616992 0.023453265 -0.037690014 0.025720984 -0.007623136 -0.015230939
0.030995809 -0.020610586 -0.01876431 -0.042314835 0.062465936 -0.0460968 0.06047976 0.020965941
0.010331817 0.059803814 -0.05696047 -0.060457252 -0.052255996 0.003201656 0.060873926 0.023363255
-0.015450612 -0.014608093 -0.01786264 -0.012021802 0.058041394 -0.027939491 0.05321572 0.033784978
-0.0049341843 -0.038963996 -0.0004987195 0.034538783 0.046954833 -0.044399895 -0.033009112 -0.026422247
-0.026429676 0.014484428 0.017003484 -0.0010661706 0.04644271 -0.03551638 0.017899856 -0.056901112
0.06158629 -0.054889433 -0.03289157 -0.029707044 -0.042278506 0.03635364 -0.011978358 -0.0387979
0.058978453 -0.04345993 0.028412312 -0.010296449 0.02524764 0.06209126 0.016352318 -0.044681706
0.04158456 0.04112891 -0.018219955 -0.04315275 -0.042191185 -0.037856564 -0.010018848 -0.05812244
0.048700318 -0.05239679 -0.026295766 0.023182787 0.031221904 0.0008763075 0.05037421 -0.002095744
0.010705642 -0.030794509 0.055815347 0.02042441 -0.05232887 -0.033199616 0.010783933 0.016130783
0.022229217 -0.02519153 -0.05544737 0.020814165 0.048381798 0.043295987 -0.050562643 0.046795957
0.04820022 -0.030951418 -0.017271094 0.01348789 0.033196747 0.023807839 -0.022549525 -0.0075081885
0.049615957 -0.039135784 -0.016459458 -0.023210831 -0.045202427 0.045626104 -0.012184806 0.059841886
-0.017308816 0.00012338907 -0.006241411 -0.004920654 0.000755243 -0.0481153 -0.02393581 0.0393951
0.05388613 -0.051138356 -0.032867208 -0.0457623 -0.041023888 -0.022461586 0.04727768 -0.06086298
0.0068826675 0.010088764 -0.053474262 0.008828096 0.041547053 0.015954517 -0.015126213 -0.0055127516
0.041732825 -0.03908538 -8.2977116e-05 -0.024356902 0.034887552 0.006366059 0.014222987 -0.05002536
0.052978247 -0.00058146566 0.04803603 -0.00735794 -0.012382343 0.04386767 -0.023321033 0.058144964
-0.017468296 -0.022226624 0.045751333 0.02507516 0.04822889 0.044468336 -0.018101603 -0.03213109

q_net.3.bias f4 [128]
00000000: a8bc 5bbd 0680 47bd 3039 b13c 9aae 24bd
00000010: ce4b 083d 78da 1abd be09 10bd a063 2b3b
00000020: 988f e63c 7456 573d 38c0 3bbc b832 933c
00000030: 609a 5e3c c48f d03c 02ff 3abd 802e 683a
00000040: e030 efbc e0a3 4a3d 0c7c d93c 00f6 a03b
00000050: 8412 573d d8f3 2bbc a04d d3bc 901f 453c
00000060: a0cf 693c 54d0 8cbc 6a00 413d 20c6 96bc
00000070: 006f b639 7848 b3bc 8abd 7ebd c817 42bc
00000080: 20b6 ab3c c0b1 57bb c86d 063c 16bb 6bbd
00000090: 3025 0abd bafe 07bd 2ce8 9a3c 04ef c3bc
000000a0: 0021 7cbd 50b3 e2bc 80da 39bb c07c c43a
000000b0: b2c6 02bd 808c f1ba 8061 9dbc c065 1abc
000000c0: 38f1 63bc 0056 1f3b 0271 243d 80a7 93ba
000000d0: 7821 1fbd 1844 15bd f6c8 1c3d 9c09 7bbd
000000e0: c860 c3bc e8af 653d 0094 673a c623 22bd
000000f0: ee92 3c3d f817 97bc 005a 8fbb 0014 673d
00000100: a0a8 e1bc 60bb 3d3b 40c8 c93c 94e0 67bd
00000110: 40a6 b9ba 0c17 4e3d b06d 68bc b839 b03c
00000120: 2046 58bb 144d 5e3d be49 0a3d f871 713d
00000130: 4613 6cbd d64c 3fbd 14e9 5f3d 34d3 c6bc
00000140: 40ae a83c c43f 46bd d00f c7bc 20ae 8ebc
00000150: 50fc c7bb a83b da3c 1cca 5f3d bcdb 10bd
00000160: 00ad c43b 7e42 73bd 4edc 0ebd 2ec7 5ebd
00000170: e637 2f3d d084 9e3b e236 003d ba7c 60bd
00000180: bc6e 73bd 00c3 323b 521f 6abd ee75 7bbd
00000190: 46e0 0bbd 9021 253d c6c8 173d 801b 903b
000001a0: b07a 06bd 1afb 70bd f860 273c a0a8 f93b
000001b0: 46eb 26bd 3a16 00bd c002 abbb b4ca 8f3c
000001c0: ccfe 7ebd 0e2a 4ebd dadd 7fbd 3c96 103d
000001d0: c01c 8bbc 849d 03bd 58fd 653d 22cc 6f3d
000001e0: 5a8f 2b3d 00f5 ec3c 8c89 813c d6f5 07bd
000001f0: 8086 1cbd de28 5e3d ea88 383d 78d0 29bc
-0.053646713 -0.048706077 0.021633714 -0.040205576 0.033275418 -0.037806004 -0.03516554 0.002615191
0.028144643 0.052572682 -0.011459403 0.01796852 0.013586611 0.025459178 -0.04565335 0.00088570267
-0.02919811 0.04947269 0.026548408 0.004912138 0.052507892 -0.010495149 -0.02579385 0.012031451
0.014270693 -0.017189182 0.047119536 -0.01840502 0.00034796447 -0.021885142 -0.062192477 -0.01184649
0.020960867 -0.0032912344 0.008204885 -0.057551466 -0.03372687 -0.03320191 0.018909536 -0.023917682
-0.06155491 -0.027673393 -0.0028358996 0.0014990792 -0.031927772 -0.0018428713 -0.01921153 -0.009423673
-0.0139124915 0.0024312735 0.040146835 -0.0011265129 -0.038850278 -0.036441892 0.03827759 -0.06128846
-0.02384986 0.05607596 0.00088340044 -0.039584897 0.04603856 -0.018444046 -0.0043747425 0.056415558
-0.027546227 0.0028950796 0.02463162 -0.05661066 -0.0014163926 0.050314948 -0.014186308 0.021511897
-0.0033000782 0.054272726 0.033761732 0.05894658 -0.057635568 -0.046704136 0.05466564 -0.024270631
0.020590901 -0.048400655 -0.024299532 -0.017417014 -0.006103076 0.026639774 0.054636106 -0.035365805
0.0060020685 -0.059389584 -0.034878068 -0.05438917 0.04277792 0.00483761 0.03130234 -0.05480645
-0.059431776 0.0027276874 -0.057158776 -0.061391763 -0.03414943 0.04031521 0.037056707 0.0043978095
-0.032831848 -0.05883322 0.01021599 0.0076189786 -0.040751718 -0.031271197 -0.0052188337 0.017552711
-0.062254712 -0.050333075 -0.062467434 0.035299525 -0.016981483 -0.03213264 0.05614981 0.058544286
0.041884758 0.028925419 0.015812658 -0.03319343 -0.038214207 0.054238193 0.045052446 -0.010364644
