models/MSELoss.pth (torch, 541212 bytes, 10 tensors)

q_net.0.weight f4 [128, 17]
-0.23063107 -0.22323187 -0.20362636 0.013180312 0.027198596 0.23589352 0.01409759 0.030516334
-0.14832239 0.2023455 -0.07681088 -0.2224427 -0.24015063 -0.100624025 0.06222392 0.10942161
0.18575005 -0.024924222 0.033389688 0.115941666 -0.12648398 -0.1861155 -0.22314312 -0.14739393
0.12621441 0.003874593 -0.15252748 0.031763706 0.17210318 0.15340833 0.21999156 0.13044903
0.010089074 0.16424195 0.0329015 0.049430024 -0.22880071 -0.04488463 0.027981719 -0.22517216
-0.1643806 -0.029698456 0.049890857 0.14950821 0.07481549 0.21021691 -0.044430472 -0.036289435
-0.22193842 0.09683339 0.16797529 -0.06699749 0.051692598 0.21242647 0.17611988 0.22929783
-0.026485352 0.011609699 0.12808292 0.032330565 -0.22905993 -0.08818529 -0.23473078 0.03308859
0.030415082 -0.052812815 0.1963669 -0.23060028 0.066362165 0.13648677 0.1813537 -0.15703873
0.087772794 -0.12858787 -0.003327048 -0.22950542 -0.025384162 -0.12397006 -0.12868571 -0.14354347
0.12479609 -0.054041103 -0.040677834 -0.08055777 0.10052008 -0.1747071 0.14526868 0.13605042
-0.0797699 -0.21775463 0.18636048 -0.1548763 0.17796268 -0.07559208 0.043335617 -0.18990533
-0.05413186 -0.14383034 0.18383457 0.2292765 0.008268715 -0.07030739 0.18237863 -0.20234221
-0.108358204 0.16612484 0.036800638 0.18853812 -0.041278027 0.087556385 -0.026186947 -0.095675424
0.15969495 -0.24246643 0.11285352 0.1876937 0.22804353 0.18304488 0.03964927 0.06411136
0.069927655 0.1576369 -0.13786772 0.15065615 0.18767452 -0.069592156 0.06614917 0.21303456
0.17858118 0.20144828 -0.06885081 0.19533065 0.14286423 -0.074099034 0.13799357 0.049601678
0.080261156 -0.09750911 -0.09479038 -0.23903577 -0.20115983 0.1395938 -0.23591605 0.1817412
-0.04306381 0.10166982 -0.079873 0.17165515 0.1843028 0.013341181 0.19092105 0.04888768
0.031438325 -0.087567635 0.20702636 0.16227563 -0.12850371 0.103510335 -0.01999308 0.07725145
-0.19962175 0.17395344 0.08513956 0.23571233 0.16269971 0.18779993 -0.15506126 -0.015787613
0.16874138 -0.020924468 0.13646917 -0.060085405 -0.15631928 0.20187698 -0.0056686713 -0.0005708773
-0.009703382 -0.03948421 0.037184164 0.12241335 0.23336391 -0.01950365 0.18882583 0.19435063
-0.22294182 0.12562935 -0.23392166 -0.15205349 -0.091736384 -0.1459319 0.123082735 0.16531539
-0.17419153 -0.16823614 -0.18131554 0.18925244 -0.15110455 -0.02923016 -0.049718857 0.23306294
-0.11598677 -0.22370736 -0.17893033 0.0139260525 0.10246144 0.20345417 -0.011986602 0.18337354
-0.20259133 -0.1568438 -0.21850176 0.08989937 0.02717269 -0.010631762 0.20922321 0.15609135
-0.2309146 0.03988965 -0.11688161 0.10301908 0.1845007 0.2094481 0.21196924 -0.0010997737
-0.08712735 -0.039736588 0.18434106 0.17486773 -0.12448895 0.040406488 0.112124436 0.21525879
0.010854764 -0.11441003 0.21248536 0.0070495033 0.063335024 -0.11663409 0.12518224 0.11554175
-0.15204051 0.033520717 0.02472649 0.1754304 0.08732746 0.23407724 -0.16046165 0.043445945
0.16933042 0.013018258 0.15144642 0.07809702 -0.24212368 -0.21369532 0.13892442 0.18593232
00000000: 8d2a 6cbe e596 64be 6e83 50be 3cf2 573c
00000010: 97cf de3c 128e 713e 94f9 663c 64fd f93c
00000020: d3e1 17be a933 4f3e 064f 9dbd 05c8 63be
00000030: 0cea 75be f813 cebd 82de 7e3d 7018 e03d
00000040: 4335 3e3e e22d ccbc a0c3 083d d372 ed3d
00000050: 0485 01be 1095 3ebe a17f 64be 6fee 16be
00000060: 5a3e 013e e2ec 7d3b 2a30 1cbe a91a 023d
00000070: d13b 303e 1317 1d3e 7845 613e 6e94 053e
00000080: a54c 253c 0b2f 283e b9c3 063d 2377 4a3d
00000090: bc4a 6abe f2d8 37bd eb39 e53c 8893 66be
000000a0: 6353 28be 2d4a f3bc 5b5a 4c3d ae18 193e
000000b0: dd38 993d 1a43 573e bafc 35bd 3ba4 14bd
000000c0: d343 63be 9650 c63d b701 2c3e fb35 89bd
000000d0: 9ebb 533d 5386 593e c558 343e 0dcd 6a3e
000000e0: cff7 d8bc 9b36 3e3c 2b28 033e 0e6d 043d
000000f0: b08e 6abe 7d9a b4bd 445d 70be e787 073d
00000100: 0d29 f93c 4052 58bd 6814 493e 7b22 6cbe
00000110: e3e8 873d 30c3 0b3e c9b4 393e c3ce 20be
00000120: 39c2 b33d 8aac 03be 9a0a 5abb 7803 6bbe
00000130: 72f2 cfbc 04e4 fdbd 30c6 03be 0ffd 12be
00000140: 1895 ff3d 345a 5dbd cd9d 26bd 79fb a4bd
00000150: 79dd cd3d 6be6 32be 50c1 143e cd50 0b3e
00000160: 675e a3bd 12fb 5ebe 48d5 3e3e e597 1ebe
00000170: d93b 363e 05d0 9abd b080 313d 8b76 42be
00000180: 5fb9 5dbd 4348 13be 213f 3c3e 75c7 6a3e
00000190: 8179 073c 52fd 8fbd 77c1 3a3e cc32 4fbe
000001a0: e8ea ddbd a11c 2a3e 44bc 163d 2310 413e
000001b0: 2613 29bd c350 b33d 0286 d6bc 7af1 c3bd
000001c0: 1387 233e 1f49 78be bf1f e73d c732 403e
000001d0: 3e84 693e 1e70 3b3e 4667 223d d14c 833d
000001e0: 3b36 8f3d 916b 213e 322d 0dbe 9b45 1a3e
000001f0: c02d 403e 5586 8ebd 3779 873d bb25 5a3e
00000200: fcdd 363e 7548 4e3e a701 8dbd c204 483e
00000210: 004b 123e 3cc1 97bd 304e 0d3e 212b 4b3d
00000220: f65f a43d dbb2 c7bd 7521 c2bd cbc5 74be
00000230: d8fc 4dbe adf1 0e3e fa93 71be 5d1a 3a3e
00000240: ad63 30bd 4438 d03d 7594 a3bd 5ec6 2f3e
00000250: e0b9 3c3e f894 5a3c cf80 433e 733e 483d
00000260: 79c5 003d a956 b3bd b8fe 533e 952b 263e
00000270: 7a96 03be 3afd d33d 87c8 a3bc 0236 9e3d
00000280: a569 4cbe da20 323e a65d ae3d 935e 713e
00000290: c19a 263e a04e 403e 61c8 1ebe 0655 81bc
000002a0: 8aca 2c3e ca69 abbc 93be 0b3e 1d1c 76bd
000002b0: 2912 20be d7b8 4e3e 43c0 b9bb eda6 15ba
000002c0: effa 1ebc 32ba 21bd 6c4e 183d dab3 fa3d
000002d0: f3f6 6e3e 1ec6 9fbc 8f5b 413e da03 473e
000002e0: dc4a 64be fba4 003e 2989 6fbe e9b3 1bbe
000002f0: 49e0 bbbd 2c6f 15be cd12 fc3d 7048 293e
00000300: 445f 32be 1846 2cbe c8aa 39be 64cb 413e
00000310: 27bb 1abe 1774 efbc 00a6 4bbd 0da8 6e3e
00000320: 798a edbd 8b13 65be 8339 37be 192a 643c
00000330: 4ed7 d13d 4a56 503e 7463 44bc 46c6 3b3e
00000340: 1a74 4fbe a99b 20be edbe 5fbe 291d b83d
00000350: 4399 de3c d830 2ebc 9c3e 563e 69d6 1f3e
00000360: e074 6cbe 5463 233d a05f efbd abfb d23d
00000370: c0ed 3c3e 9079 563e 770e 593e 4826 90ba
00000380: d36f b2bd d5c2 22bd e7c3 3c3e 8710 333e
00000390: 10f4 febd 4681 253d 7fa1 e53d cd6c 5c3e
000003a0: 2ed8 313c ce4f eabd c395 593e 85ff e63b
000003b0: cbb5 813d dbdd eebd c62f 003e 27a1 ec3d
000003c0: 82b0 1bbe 054d 093d 358f ca3c 07a4 333e
000003d0: bdd8 b23d f2b1 6f3e 0f50 24be 60f4 313d
000003e0: f464 2d3e 884a 553c c514 1b3e 55f1 9f3d
000003f0: 45ef 77be f2d2 5abe 3442 0e3e 0b65 3e3e

q_net.0.bias f4 [128]
-0.18422642 -0.2171796 0.18414143 0.14223148 -0.22857456 -0.11900477 0.14186996 -0.17851812
-0.20431307 0.1779625 -0.14473414 0.029997613 -0.15118241 -0.1837135 -0.0475292 0.069537334
0.040977687 -0.05764418 -0.0603743 0.19443104 0.12608822 -0.13017492 0.036677558 0.16636044
-0.029742606 -0.15135413 -0.027869364 0.006419847 -0.092924975 -0.091208786 0.1332771 0.21482822
0.09004801 -0.13818295 -0.1999095 0.20664099 0.14029616 -0.058820687 0.2350816 -0.13150299
-0.041958425 0.11085778 -0.04631707 -0.22720012 0.061510097 0.18420394 -0.101211585 0.12005895
-0.033474572 0.17080325 -0.072856754 -0.17168014 -0.12141486 -0.02195861 -0.2258894 -0.08716231
0.08745548 -0.13761742 0.15683319 0.061934765 -0.07462816 0.017762277 0.21952063 0.03253645
0.0503074 -0.21252905 0.08148219 0.22218749 0.23615201 -0.22304045 -0.14182818 0.18708688
-0.11317951 -0.15570372 0.05198563 -0.068424895 -0.11617051 -0.08095772 -0.20330237 0.12646322
-0.1788664 0.0034439412 -0.23925477 -0.015515372 0.1266942 -0.17375782 -0.12094928 -0.020578414
-0.049215376 -0.05031914 0.22238363 0.16260895 0.14031011 0.14759558 -0.07443572 -0.07320957
0.02803009 -0.18273063 0.089202344 0.06662131 0.1991747 -0.17396076 0.09166471 0.04887901
0.23077433 -0.1636666 -0.036174133 -0.16855432 -0.054477334 0.02153429 0.027894404 -0.09376792
-0.12617102 0.020184422 -0.106939584 -0.15657514 -0.07772848 0.09831464 0.071031936 0.076546244
0.1674202 -0.07735186 0.03078308 -0.085358575 -0.23158996 0.18674502 0.029220851 -0.01081446
00000000: daa5 3cbe 5464 5ebe 928f 3c3e 21a5 113e
00000010: 730f 6abe c6b8 f3bd 5c46 113e 74cd 36be
00000020: 7237 51be cd3b 363e 3035 14be 8ebd f53c
00000030: 90cf 1abe 641f 3cbe faad 42bd 9769 8e3d
00000040: 38d8 273d 4e1c 6cbd 0b4b 77bd ee18 473e
00000050: 451d 013e 934c 05be 353b 163d 645a 2a3e
00000060: c4a6 f3bc 94fc 1abe 4b4e e4bc 945d d23b
00000070: 734f bebd accb babd cb79 083e eefb 5b3e
00000080: 176b b83d d57f 0dbe 13b5 4cbe b299 533e
00000090: cca9 0f3e f6ed 70bd 3bb9 703e b8a8 06be
000000a0: 99dc 2bbd 6709 e33d f8b6 3dbd 26a7 68be
000000b0: 03f2 7b3d f59f 3c3e 0548 cfbd 77e1 f53d
000000c0: a21c 09bd 0ce7 2e3e ec35 95bd ebcc 2fbe
000000d0: 5ba8 f8bd 8be2 b3bc 8d4f 67be 2782 b2bd
000000e0: dc1b b33d 95eb 0cbe e198 203e 4faf 7d3d
000000f0: a6d6 98bd 3282 913c 04ca 603e f144 053d
00000100: 220f 4e3d 37a1 59be 22e0 a63d 1e85 633e
00000110: d5d1 713e b764 64be 683b 11be b493 3f3e
00000120: a9ca e7bd cc70 1fbe e2ee 543d 5a22 8cbd
00000130: ceea edbd 29cd a5bd 7f2e 50be 937f 013e
00000140: c128 37be bfb3 613b 34ff 74be 3034 7ebc
00000150: 20bc 013e 92ed 31be 42b4 f7bd 1094 a8bc
00000160: 1096 49bd 711b 4ebd 89b8 633e f682 263e
00000170: 74ad 0f3e 4c23 173e c171 98bd e6ee 95bd
00000180: 5c9f e53c bd1d 3bbe b8af b63d c170 883d
00000190: 74f4 4b3e c522 32be b5ba bb3d 5b35 483d
000001a0: 1b50 6c3e 3898 27be 542b 14bd 8199 2cbe
000001b0: a023 5fbd ae68 b03c ce82 e43c 6509 c0bd
000001c0: fa32 01be cd59 a53c 2403 dbbd 3c55 20be
000001d0: 1c30 9fbd 3059 c93d 3179 913d 47c4 9c3d
000001e0: 3370 2b3e a76a 9ebd cc2c fc3c 7ad0 aebd
000001f0: eb25 6dbe 163a 3f3e 9160 ef3c 222f 31bc

q_net.1.weight f4 [256, 128]
0.07216977 0.0041416655 -0.014395414 -0.015399193 0.031178636 0.04904538 -0.04233648 0.052046604
0.033087067 0.023217002 0.05867285 0.04122009 -0.07260895 -0.07646836 0.055633113 -0.052048575
0.047030404 0.024364734 0.011889837 0.037966736 0.061411224 -0.020105848 -0.030350957 0.07526561
-0.07145639 -0.07131132 -0.06990722 -0.040637527 0.0150924595 0.025098259 0.08817136 0.06648057
0.04802172 -0.050330985 -0.07477151 0.0666029 0.046380803 0.050296195 0.04545543 -0.019587811
0.007351485 0.08344946 -0.05690656 -0.048047047 0.013669487 0.03815184 0.003920468 -0.033462923
0.025111282 -0.08215378 0.046283014 0.043632776 -0.04476515 0.042028595 0.0076041133 -0.007734737
0.05439253 -0.06579608 0.05088608 -0.02228287 0.045797028 -0.0051327907 0.025373425 0.06120777
0.013331058 -0.004633635 -0.008737357 -0.067747116 -0.075551026 0.07584768 0.07783511 0.0039370847
-0.077297516 0.025886057 -0.0616618 -0.073226705 0.0462812 0.07819106 -0.036390822 -0.050675917
-0.0040712697 -0.03404025 -0.07031582 0.05944623 -0.041334942 -0.0003439815 0.023608219 -0.0039069285
-0.085608475 0.034171294 0.01672743 0.07230945 0.05333026 0.05667613 -0.06716042 0.0340061
-0.05328984 -0.04899628 0.01003311 0.07906854 0.047917794 0.04315065 -0.018022308 0.083403185
0.022561187 -0.039282117 -0.08035937 0.008063177 -0.072543964 -0.07609893 0.01411125 -0.07666383
-0.07519672 -0.080052346 -0.076623656 -0.05714573 0.003978072 0.08186231 -0.029249143 -0.03976005
-0.064488396 0.08826681 -0.05403328 0.074644014 0.07485026 0.047945507 -0.014029274 -0.015284185
0.06177375 -0.07728942 -0.022425273 0.085755534 0.005174347 0.042182345 0.08396302 -0.06980853
-0.00210121 0.042448916 -0.07372901 0.056890775 -0.037640043 0.06706098 0.08546513 0.018048134
-0.074210055 -0.08477516 -0.04141325 0.03288105 -0.07192295 0.06372091 -0.02340935 -0.036156908
-0.035588913 0.006684627 -0.0806881 -0.010301069 -0.051053774 0.02321028 -0.08824431 -0.08095469
-0.07157945 0.005872394 0.07543779 -0.07583611 0.050116416 -0.000769317 -0.06266875 0.059452828
-0.07228011 -0.013212142 0.07297846 0.023008807 -0.022765009 0.08784039 -0.037152648 0.0025271461
0.0700742 0.077599 -0.017378462 0.057577938 0.0018227036 0.028560232 0.010162722 0.047208443
0.018537153 -0.029111281 0.07643433 -0.08456843 -0.0067364573 -0.07244468 0.05765735 -0.02735224
0.017959941 0.013581116 0.054820236 -8.903522e-05 0.02578423 0.038017742 -0.06235132 0.08776108
-0.0816419 0.07378528 0.086315446 0.0040403656 -0.003675047 -0.04822887 -0.04807461 0.06773324
-0.025952132 -0.026270015 0.084144495 -0.03608439 0.056967966 -0.040172964 -0.064795256 0.048569962
0.07947535 0.0013100926 -0.038025033 0.055306368 0.08800405 0.024993492 -0.08202292 0.07187548
0.054346032 -0.049837288 0.015082428 0.0709338 -0.043824926 -0.0477848 0.04661511 -0.056015573
-0.0237052 0.025515923 -0.0873514 -0.06768087 -0.059649285 -0.052392967 -0.005598113 0.087312445
0.042985074 0.05197486 0.04742262 0.007243958 0.010536364 0.055002995 0.030454174 -0.06374663
0.061447017 0.052776597 -0.07947708 0.062004745 0.063543096 0.07821394 -0.0012432056 -0.013680677
00000000: bfcd 933d cfb6 873b beda 6bbc e64c 7cbc
00000010: 576a ff3c cfe3 483d 0469 2dbd d22e 553d
00000020: 4e86 073d 9531 be3c f152 703d 66d6 283d
00000030: 00b4 94bd 729b 9cbd 8cdf 633d e330 55bd
00000040: f4a2 403d 8d98 c73c 97cd 423c 0283 1b3d
00000050: 568a 7b3d 05b5 a4bc 92a2 f8bc db24 9a3d
00000060: ba57 92bd ab0b 92bd 842b 8fbd 8973 26bd
00000070: 5d46 773c dd9a cd3c 3093 b43d f726 883d
00000080: 6cb2 443d dd27 4ebd ce21 99bd 1a67 883d
00000090: ccf9 3d3d 6203 4e3d 792f 3a3d 9e76 a0bc
000000a0: bae4 f03b 8de7 aa3d da16 69bd fbcc 44bd
000000b0: fcf5 5f3c 1b45 1c3d 4577 803b 6b10 09bd
000000c0: 2db6 cd3c 3e40 a8bd 4293 3d3d 48b8 323d
000000d0: a95b 37bd 2d26 2c3d ed2b f93b ad73 fdbb
000000e0: b4ca 5e3d 18c0 86bd ec6d 503d 918a b6bc
000000f0: aa95 3b3d f830 a8bb eedb cf3c 00b5 7a3d
00000100: 836a 5a3c bfd5 97bb 2227 0fbc 00bf 8abd
00000110: 7fba 9abd 0756 9b3d 0468 9f3d a902 813b
00000120: 294e 9ebd ff0e d43c 1591 7cbd e2f7 95bd
00000130: 5b91 3d3d a222 a03d 8b0e 15bd 8d91 4fbd
00000140: 4968 85bb ca6d 0bbd be01 90bd e47d 733d
00000150: d44e 29bd 6a58 b4b9 0666 c13c b105 80bb
00000160: 7f53 afbd 33f7 0b3d f707 893c fa16 943d
00000170: d570 5a3d 3b25 683d 678b 89bd fb49 0b3d
00000180: 7346 5abd 53b0 48bd ea61 243c b0ee a13d
00000190: 7345 443d bcbe 303d 85a3 93bc 4acf aa3d
000001a0: 3dd2 b83c 49e6 20bd 7493 a4bd 6a1b 043c
000001b0: ee91 94bd c1d9 9bbd df32 673c ed01 9dbd
000001c0: bd00 9abd 7cf2 a3bd ddec 9cbd a411 6abd
000001d0: 7d5a 823b 6da7 a73d e69b efbc 6fdb 22bd
000001e0: 7e12 84bd 3bc5 b43d 0052 5dbd f6de 983d
000001f0: 184b 993d 8262 443d 0adb 65bc 856a 7abc
00000200: 7906 7d3d ea49 9ebd 35b5 b7bc 99a0 af3d
00000210: 928d a93b 65c7 2c3d cef4 ab3d c6f7 8ebd
00000220: 74b4 09bb eade 2d3d 3cff 96bd 4d06 693d
00000230: 722c 1abd 4457 893d 5808 af3d aed9 933c
00000240: 71fb 97bd 999e adbd f1a0 29bd 48ae 063d
00000250: 574c 93bd 1c80 823d f7c4 bfbc 4419 14bd
00000260: aec5 11bd b70a db3b cd3f a5bd d1c5 28bc
00000270: c31d 51bd 7c23 be3c 6fb9 b4bd 93cb a5bd
00000280: 3f98 92bd 366d c03b 217f 9a3d f64f 9bbd
00000290: df46 4d3d fdab 49ba 7958 80bd cf84 733d
000002a0: 9807 94bd bd77 58bc bb75 953d f77c bc3c
000002b0: af7d babc aae5 b33d 602d 18bd 7a9e 253b
000002c0: 1083 8f3d 39ec 9e3d 475d 8ebc d8d6 6b3d
000002d0: c9e7 ee3a 26f7 e93c 8c81 263c a45d 413d
000002e0: 3adb 973c c87a eebc 9a89 9c3d 3732 adbd
000002f0: 80bd dcbb e05d 94bd 1d2a 6c3d ce11 e0bc
00000300: ba20 933c 5483 5e3c 2f8b 603d 6bb8 bab8
00000310: 7339 d33c 7eb8 1b3d 1964 7fbd 15bc b33d
00000320: de33 a7bd bd1c 973d 27c6 b03d 0b65 843b
00000330: 0fd9 70bb a38b 45bd e2e9 44bd bab7 8a3d
00000340: 9199 d4bc 3734 d7bc f353 ac3d 3acd 13bd
00000350: 3e57 693d 688c 24bd 60b3 84bd 4cf1 463d
00000360: f9c3 a23d 6ab7 ab3a 23c0 1bbd ee88 623d
00000370: 783b b43d 27bf cc3c a2fb a7bd 7433 933d
00000380: f299 5e3d 2f22 4cbd 4a1c 773c bd45 913d
00000390: c481 33bd ffb9 43bd 7cef 3e3d 9670 65bd
000003a0: 6831 c2bc c506 d13c 4ae5 b2bd 459c 8abd
000003b0: cf52 74bd 029a 56bd 6070 b7bb ded0 b23d
000003c0: 1e11 303d 97e3 543d 393e 423d b95e ed3b
000003d0: b7a0 2c3c d24a 613d 087b f93c 988d 82bd
000003e0: deaf 7b3d 462c 583d e1c4 a2bd b0f8 7d3d
000003f0: e222 823d a12e a03d 0ff3 a2ba eb24 60bc

q_net.1.bias f4 [256]
-0.00999209 0.01818293 -0.030097602 0.039838824 0.07940151 0.062011607 0.056348186 0.08532939
-0.040718723 0.04583616 0.07249537 0.07944956 -0.05459946 0.08288794 0.02380847 0.0071809273
-0.06122596 0.07807186 -0.07956291 -0.013605466 -0.08586948 0.045005523 -0.02152883 -0.039133675
-0.055406835 0.072859906 -0.045200188 0.045484856 0.056825437 0.04557325 -0.033388574 -0.05126814
0.07216924 0.0846395 0.08730386 -0.014528482 0.074157886 0.01615476 0.01998535 -0.0066013974
0.0484829 0.03329403 0.01679399 -0.029686522 0.018387754 -0.08806894 0.06794784 -0.016972367
0.07917648 0.06398279 0.071597695 -0.033119563 -0.019151201 0.0069625224 -0.023819713 0.033742893
-0.05701832 0.08743682 0.014931912 -0.083004184 -0.069310755 0.079037435 0.07074596 0.026990747
0.011382062 0.015702125 -0.06497721 -0.017313883 0.015820356 -0.042641968 0.061937585 -0.0019705233
-0.030964194 0.031363178 0.05699575 -0.01347773 -0.054559253 0.086748995 -0.029074466 -0.04535419
-0.041129116 0.039527293 0.020461557 -0.07500665 -0.038443267 -0.0021782967 0.019349987 0.00075551384
0.0764213 -0.05234707 0.030426642 -0.04114332 -0.056260765 0.051284824 -0.06419284 -0.0464622
-0.029234549 0.004976837 -0.03546693 -0.028237714 -0.027289389 -0.052958474 0.024896154 -0.061213713
0.06814063 0.08466977 0.043422487 0.014851422 0.0834445 -0.06384984 0.027373377 -0.008708065
0.009840151 0.020840667 -0.00091921224 0.0051172804 -0.076708265 -0.016433457 0.0076941075 0.031783864
-0.0014639181 -0.08676882 0.0077273296 -0.034710594 0.03454345 0.05816584 0.025007969 0.050726503
-0.034504477 0.030062176 0.024027139 -0.08223427 0.07480007 0.027367529 0.021351362 -0.04354644
0.04827679 0.023658648 -0.005143633 -0.083231635 -0.06469869 -0.06848606 -0.002083561 0.074044354
-0.060436178 -0.075532325 0.06281809 0.00058694754 -0.015334994 0.05849677 0.013439197 -0.0011166913
-0.06532951 0.086146325 0.06416421 0.015502359 -0.064176776 -0.08818407 -0.057063375 -0.025421588
-0.025493395 -0.0023904429 -0.0186604 -0.05755272 -0.087943204 -0.049710825 -0.0509102 -0.0043458776
0.0043815128 0.06387287 -0.032017432 0.07060007 -0.021056524 0.0027189353 -0.061606016 0.02903708
-0.06601271 -0.06526123 0.06405311 -0.04460127 0.061903257 0.033599574 -0.07172842 -0.03420025
0.0484829 -0.081243135 0.07521639 0.031049592 -0.014593041 0.004181747 -0.08517543 0.086004436
-0.009366378 0.06336845 0.053768344 0.023499692 -0.08286608 0.07515337 -0.0453526 -0.06314326
0.07937388 -0.045519777 -0.0014968137 0.0057337205 -0.028568745 -0.050591886 0.02379848 0.024605615
0.05809175 -0.052576076 0.06708725 -0.027055146 -0.05651692 -0.06460707 -0.0017754465 -0.011527984
0.077688865 0.03701371 0.05155064 0.042342935 -0.041078046 0.031505063 0.06672322 0.030252712
0.08622714 -0.0029598572 -0.05196778 0.08629913 0.084630385 -0.060149852 0.0068316036 -0.06647645
0.07280285 -0.08504146 0.046216704 -0.048436705 -0.08033672 0.07242959 0.0054499772 -0.06949033
-0.013140534 0.06472402 0.021833342 0.07784623 -0.008007722 -0.037391745 0.031205062 -0.087496646
0.08497239 0.0026361167 0.0808047 0.04188603 -0.04918983 0.08302657 -0.046511795 -0.028138816
00000000: ddb5 23bc 5ef4 943c 3f8f f6bc 092e 233d
00000010: 429d a23d e2ff 7d3d 5bcd 663d 2dc1 ae3d
00000020: adc8 26bd b3be 3b3d 7478 943d 73b6 a23d
00000030: afa3 5fbd 27c1 a93d fb09 c33c fc4d eb3b
00000040: 12c8 7abd 24e4 9f3d e1f1 a2bd 76e9 5ebc
00000050: 57dc afbd b657 383d 3b5d b0bc a24a 20bd
00000060: 47f2 62bd 9337 953d d523 39bd 544e 3a3d
00000070: cac1 683d 04ab 3a3d 75c2 08bd 8bfe 51bd
00000080: 77cd 933d 7957 ad3d 5ecc b23d df08 6ebc
00000090: 17e0 973d fd56 843c 51b8 a33c 8950 d8bb
000000a0: 0196 463d 525f 083d 8d93 893c 2631 f3bc
000000b0: eaa1 963c 7d5d b4bd 3d28 8b3d a209 8bbc
000000c0: 4727 a23d 6909 833d d0a1 923d 61a8 07bd
000000d0: fbe2 9cbc df25 e43b 8f21 c3bc fd35 0a3d
000000e0: 0b8c 69bd 1312 b33d faa4 743c 19fe a9bd
000000f0: ccf2 8dbd 61de a13d 42e3 903d b31b dd3c
00000100: d47b 3a3c bea1 803c c512 85bd d8d5 8dbc
00000110: b199 813c 58a9 2ebd 44b2 7d3d e523 01bb
00000120: 9fa8 fdbc ad76 003d 6074 693d b2d1 5cbc
00000130: 8679 5fbd 75a9 b13d 932d eebc 51c5 39bd
00000140: 0177 28bd 5fe7 213d ff9e a73c 169d 99bd
00000150: b076 1dbd c1c1 0ebb dd83 9e3c ad0d 463a
00000160: c582 9c3d e269 56bd 4b41 f93c e685 28bd
00000170: b071 66bd 0910 523d 8977 83bd 264f 3ebd
00000180: 4b7d efbc bc14 a33b c645 11bd c752 e7bc
00000190: ff8d dfbc fcea 58bd 05f3 cb3c 3bbb 7abd
000001a0: 518d 8b3d 5867 ad3d c7db 313d 6153 733c
000001b0: f3e4 aa3d b4c3 82bd 223e e03c 46ac 0ebc
000001c0: 9638 213c 0cba aa3c 4af7 70ba dcae a73b
000001d0: 3919 9dbd 759f 86bc da1e fc3b cc2f 023d
000001e0: f1e0 bfba dab3 b1bd 8a35 fd3b b22c 0ebd
000001f0: 6f7d 0d3d 4e3f 6e3d 83dd cc3c 98c6 4f3d
00000200: 9154 0dbd f444 f63c 90d4 c43c 716a a8bd
00000210: c730 993d de31 e03c 0de9 ae3c c05d 32bd
00000220: e2bd 453d c8cf c13c ec8b a8bb 5975 aabd
00000230: bf80 84bd 6b42 8cbd 5a8c 08bb 91a4 973d
00000240: ed8b 77bd b1b0 9abd c5a6 803d 62dd 193a
00000250: a03f 7bbc 4f9a 6f3d 1430 5c3c f15d 92ba
00000260: 7acb 85bd 7c6d b03d 8668 833d 9bfd 7d3c
00000270: 1d6f 83bd da99 b4bd 49bb 69bd ef40 d0bc
00000280: 86d7 d0bc faa8 1cbb b2dd 98bc 67bc 6bbd
00000290: 911b b4bd 949d 4bbd 3787 50bd dd67 8ebb
000002a0: cb92 8f3b c7cf 823d b624 03bd c596 903d
000002b0: bb7e acbc 2a30 323b 9756 7cbd 2cdf ed3c
000002c0: ac31 87bd aea7 85bd 472e 833d d2af 36bd
000002d0: 458e 7d3d b59f 093d 5ae6 92bd 9015 0cbd
000002e0: 0196 463d cd62 a6bd 0d0b 9a3d b75b fe3c
000002f0: a617 6fbc 0907 893b 7570 aebd 1823 b03d
00000300: 7075 19bc 51c7 813d 323c 5c3d 6d82 c03c
00000310: b1b5 a9bd 03ea 993d a6c3 39bd 4151 81bd
00000320: c68e a23d f272 3abd bc30 c4ba efe1 bb3b
00000330: 0009 eabc 7039 4fbd 08f5 c23c b791 c93c
00000340: 9df1 6d3d 035a 57bd 0a65 893d c1a2 ddbc
00000350: 497e 67bd b650 84bd 19b6 e8ba dfdf 3cbc
00000360: 571b 9f3d b09b 173d c426 533d c96f 2d3d
00000370: 7441 28bd 740b 013d 2fa6 883d 89d4 f73c
00000380: db97 b03d 2afa 41bb 2bdc 54bd 99bd b03d
00000390: b252 ad3d b15f 76bd a5db df3b ce24 88bd
000003a0: a919 953d 382a aebd ba4d 3d3d 9165 46bd
000003b0: 9487 a4bd f755 943d b995 b23b f250 8ebd
000003c0: 654b 57bc 078e 843d d6db b23c d86d 9f3d
000003d0: d232 03bc 1628 19bd c2a1 ff3c 7131 b3bd
000003e0: 0106 ae3d b3c2 2c3b ef7c a53d b090 2b3d
000003f0: 467b 49bd d609 aa3d 2783 3ebd 6083 e6bc

q_net.2.weight f4 [256, 256]
-0.0035475716 0.024093255 0.01737164 0.056350373 0.060697578 0.047431923 0.056072786 -0.061614923
0.024125844 -0.03910631 -0.05634048 0.023943327 -0.013248228 -0.021451682 0.057738498 0.027262181
-0.011654027 -0.011187404 0.04849632 0.057761595 0.017263077 -0.022706054 0.038660444 -0.05121111
0.038855836 0.03151629 -0.012743406 0.032337673 -0.04313062 -0.05348903 0.023739286 0.043163277
0.03237684 0.005940236 0.029051356 -0.059320286 -0.019175597 0.017916806 -0.0013937354 -0.006536007
-0.03132134 0.040631026 -0.0042540133 -0.013535313 0.052626632 -0.044735156 0.013593212 0.012821667
-0.019235052 -0.021916322 0.034682453 -0.028145961 -0.058936536 -0.046023637 0.021509312 0.034082815
-0.054868877 -0.059759602 0.015921392 -0.028264888 -0.0580104 -0.0070018843 -0.009102352 -0.04021631
0.028126113 0.045344718 0.0011149496 0.05946608 0.055763885 -0.049898356 0.03907542 -0.031178571
-0.002011478 -0.046997257 -0.034938246 0.015972435 0.024118803 0.018104814 0.049152784 0.0071303546
0.035119377 -0.0065405816 0.05202671 0.045309253 0.0035700798 0.058099456 -0.05471743 0.01521901
0.039636925 0.024377905 0.034043 -0.005220361 0.015393168 -0.032540202 0.043235198 -0.049891755
-0.019931763 -0.0011302233 -0.03078834 -0.051293872 0.027862512 0.04859534 0.035808153 -0.014636748
-0.057986 -0.01307144 0.0060353205 -0.012090206 0.04710284 0.052166894 -0.01901672 0.013613239
-0.045271993 0.03876315 0.054217212 -0.030319944 0.014450744 0.0072844103 0.05679317 -0.03441427
0.004133135 -0.045966536 0.021676086 0.014616609 0.0065898 -0.04595107 0.0018341169 -0.014771521
0.035702057 0.037640788 0.047683597 -0.0468383 -0.0013273507 0.042349033 -0.016642883 0.0067993924
-0.0032641888 -0.016360976 -0.004137948 -0.036149353 0.018845297 0.015840866 0.0539404 0.0051242188
0.0017194971 -0.001496017 -0.042997308 -0.0566774 -0.006489806 -0.00947576 -0.04194796 -0.032806344
0.01502382 -0.025131233 0.053398922 -0.051692918 -0.03652344 0.0058642104 0.044926174 0.02574353
0.044483893 -0.012724064 -0.03491778 -0.028049357 -0.047020756 -0.015953772 0.035293765 0.027196579
-0.01194682 0.020187587 -0.018267237 0.037571467 0.018987767 0.049610727 -0.005860053 0.016434558
-0.050459497 0.04375951 0.019189157 -0.04407189 -0.03755396 0.020386368 0.040284753 -0.048535496
0.0033583045 -0.041301496 -0.038627528 0.049165234 0.006699793 -0.060485378 0.011972576 0.0048119575
0.0400026 0.03757613 0.059621558 -0.05912167 0.033788905 0.012583233 -0.059670053 -0.032871276
0.05148358 -0.06066276 -0.05042208 -0.05781605 0.02072218 0.027214162 -0.058568217 0.024066336
0.02280081 -0.06059058 -0.020753346 -0.026101142 0.054656297 0.038393527 0.003781028 -0.043334134
-0.052328937 -0.035252936 0.036150508 0.04896597 0.03782987 -0.025916755 0.028646462 -0.05424259
-0.05528792 -0.040281296 0.04580187 0.034579158 -0.05972763 -0.0004857406 -0.04550542 0.05722993
-0.02145128 0.03655383 -0.020299114 0.024646126 0.044439174 -0.017749026 0.047025412 0.03991624
-0.029375829 0.040309206 -0.041450456 0.022216752 0.054903895 0.057586633 0.055669256 -0.024676137
0.033704422 -0.022547923 -0.0030222982 -0.008025683 -0.004215747 0.0021835417 0.020461075 -0.057850443
00000000: 607e 68bb 385f c53c f84e 8e3c a6cf 663d
00000010: 069e 783d fa47 423d 94ac 653d ee5f 7cbd
00000020: 90a3 c53c f02d 20bd 46c5 66bd cc24 c43c
00000030: 180f 59bc 70bb afbc 347f 6c3d f054 df3c
00000040: 88f0 3ebc 604b 37bc 14a4 463d 6c97 6c3d
00000050: 4c6b 8d3c 0c02 babc 6a5a 1e3d bec2 51bd
00000060: 4c27 1f3d 3a17 013d b8c9 50bc 8274 043d
00000070: bca9 30bd 5017 5bbd e478 c23c facb 303d
00000080: 949d 043d 50a6 c23b 1cfd ed3c d4f9 72bd
00000090: 2416 9dbc 44c6 923c 00ae b6ba 002c d6bb
000000a0: ce4a 00bd b86c 263d 4065 8bbb 38c3 5dbc
000000b0: 068f 573d 363c 37bd 10b6 5e3c f811 523c
000000c0: d492 9dbc dc89 b3bc 300f 0e3d 5c92 e6bc
000000d0: 7067 71bd 4883 3cbd 4c34 b03c 6c9a 0b3d
000000e0: 30be 60bd 7cc6 74bd 946d 823c c48b e7bc
000000f0: 509c 6dbd 1070 e5bb 0822 15bc dcb9 24bd
00000100: bc68 e63c 62bb 393d 8023 923a b492 733d
00000110: ac68 643d 3862 4cbd 8c0d 203d 346a ffbc
00000120: 00d3 03bb 3280 40bd 681b 0fbd a0d8 823c
00000130: cc94 c53c 8c50 943c 6e54 493d c0a5 e93b
00000140: 56d9 0f3d 6052 d6bb f619 553d 3296 393d
00000150: 00f8 693b b2f9 6d3d 621f 60bd 2859 793c
00000160: 545a 223d 2cb4 c73c ac70 0b3d 900f abbb
00000170: a033 7c3c e048 05bd 6417 313d 4c5b 4cbd
00000180: f047 a3bc 0024 94ba d437 fcbc 8619 52bd
00000190: ec3f e43c e80b 473d 92ab 123d f8ce 6fbc
000001a0: ba82 6dbd 9829 56bc f0c3 c53b 0016 46bc
000001b0: e8ee 403d f4ac 553d f4c8 9bbc 100a 5f3c
000001c0: 206f 39bd 1cc6 1e3d de12 5e3d 8861 f8bc
000001d0: d0c2 6c3c 10b2 ee3b f49f 683d faf5 0cbd
000001e0: 406f 873b 6847 3cbd 0c92 b13c 807a 6f3c
000001f0: 40ef d73b 3037 3cbd c066 f03a 4004 72bc
00000200: 523c 123d 3a2d 1a3d e04f 433d 84d9 3fbd
00000210: 80fa adba 2e76 2d3d a856 88bc 70cd de3b
00000220: 00ec 55bb 7407 86bc a097 87bb 5811 14bd
00000230: 7461 9a3c b4c4 813c 9cf0 5c3d 10e9 a73b
00000240: c060 e13a 0016 c4ba f21d 30bd 9026 68bd
00000250: 70a8 d4bb 3840 1bbc a0d1 2bbd f25f 06bd
00000260: 7826 763c 04e0 cdbc d4b8 5a3d f4bb 53bd
00000270: 9a99 15bd 9028 c03b 8204 383d 18e4 d23c
00000280: be34 363d 9878 50bc f205 0fbd c4c7 e5bc
00000290: d698 40bd 7cb1 82bc 3290 103d 5ccb de3c
000002a0: 98bc 43bc 7060 a53c 2ca5 95bc 8ae4 193d
000002b0: 3c8c 9b3c 9e34 4b3d b005 c0bb c4a1 863c
000002c0: 9eae 4ebd 2c3d 333d 9432 9d3c ba84 34bd
000002d0: 2ed2 19bd 5001 a73c a001 253d 28cd 46bd
000002e0: 0017 5c3b c22b 29bd e637 1ebd 7c61 493d
000002f0: f089 db3b 84bf 77bd a028 443c a0ad 9d3b
00000300: c4d9 233d 6ee9 193d bc35 743d 9029 72bd
00000310: 3c66 0a3d e829 4e3c 9668 74bd 08a4 06bd
00000320: 72e0 523d 8479 78bd 6287 4ebd 86d0 6cbd
00000330: 90c1 a93c 3cf0 de3c 3ae5 6fbd c426 c53c
00000340: c4c8 ba3c d42d 78bd ec02 aabc 10d2 d5bc
00000350: 48df 5f3d 8842 1d3d 20cb 773b 227f 31bd
00000360: de56 56bd 6265 10bd 8e12 143d 8a90 483d
00000370: 7ef3 1a3d 604f d4bc fcab ea3c 7a2d 5ebd
00000380: 9675 62bd 00fe 24bd be9a 3b3d e0a2 0d3d
00000390: f6a4 74bd 00ab feb9 e463 3abd ee69 6a3d
000003a0: 98ba afbc 78b9 153d 544a a6bc ace6 c93c
000003b0: da05 363d 6866 91bc b89d 403d 367f 233d
000003c0: 94a5 f0bc 441b 253d f4c7 29bd e8ff b53c
000003d0: e8e2 603d f6df 6b3d 7205 643d 9c25 cabc
000003e0: a60d 0a3d 6cb6 b8bc c011 46bb 287e 03bc
000003f0: 4024 8abb c019 0f3b fc9d a73c 96f4 6cbd

q_net.2.bias f4 [256]
0.048469663 -0.052834734 -0.026613645 0.013998903 -0.026615947 0.058780216 0.013726257 0.056438237
-0.05719748 -0.019041687 0.04617089 0.044157237 0.0014271662 -0.03268536 -0.03269414 -0.0012380034
-0.06046191 0.0009152889 -0.015543476 0.046284325 0.044754058 -0.054311566 -0.03349004 0.038122
-0.024253719 -0.017606996 0.051818103 0.06031029 -0.057772316 -0.0018658563 0.026109971 0.026308313
0.026317917 0.033776283 -0.027462892 0.05024682 -0.024627395 0.008957557 0.035894275 -0.03938222
-0.014281064 -0.0037869439 -0.0001309216 -0.042478904 0.042656295 0.013542034 -0.020611256 -0.048251912
0.056955345 0.04539354 0.01923924 0.028470427 0.045940228 0.012366235 -0.0012967587 -0.010150626
0.038737483 -0.039493926 -0.044310294 0.044636473 0.050897226 0.062147595 -0.020504534 -0.029202811
0.048033625 0.04255493 -0.0011049584 -0.018180452 -0.016518287 -0.0031921938 0.05928462 0.017127983
0.017984755 -0.030053176 -0.037395447 -0.057978883 0.015863456 -0.049002424 0.028220288 -0.02892299
-0.03602778 -0.0099390745 0.04058952 -0.020436682 -0.041512787 0.029607147 0.0464752 -0.05848936
0.027376898 -0.020312846 0.056770556 -0.049018458 0.04588984 -0.021091133 -0.010700025 -0.018242627
0.03471172 0.0057579875 -0.038513593 0.017350696 0.031515524 -0.012779675 0.007870264 -0.025661118
0.021487534 0.058806546 -0.0068513453 -0.060086526 -0.05028703 -0.03911642 -0.044183895 -0.023974538
-0.018147506 0.028806716 0.057527833 0.047134347 0.004778035 0.0036033243 0.035428025 0.059393786
0.049947575 -0.036816567 -0.04282508 -0.041702382 -0.0010920018 -0.018602528 -0.033659138 0.03523714
0.015086837 0.017878987 0.044377312 -0.046731643 -0.040244617 -0.017086975 -0.01687029 -0.06216806
-0.01455985 0.02806092 0.054678477 -0.05273065 0.050048828 0.042630456 0.06185977 -0.055142984
0.03178291 -0.03891781 -0.0601217 -0.060907803 -0.013562284 0.0532595 -0.029522099 0.0015929714
0.027394034 -0.02633819 -0.030096963 0.013440013 0.033106573 -0.058180004 0.039589606 0.019933835
0.04541947 -0.035312794 -0.018395714 0.008642994 -0.042247385 0.0071824715 0.060679466 0.0013542622
-0.05390556 -0.023757078 -0.0007144436 -0.008450493 0.04952029 -0.03764923 -0.060376048 0.0003123954
-0.031265147 0.036885507 -0.031171694 0.011668511 0.059602447 -0.029525138 -0.0359395 -0.04233578
0.0051382333 0.0013143867 0.035113603 -0.042132877 0.014242366 -0.049925335 -0.051033713 -0.03998787
-0.043555215 -0.040031537 0.044356294 0.030986756 0.052606255 0.023241833 0.0119770095 -0.017233975
0.0063953847 0.041424006 0.014917657 -0.021707833 0.036340363 -0.056887783 0.057045683 0.01982981
-0.027430356 -0.029207416 -0.030870445 0.0009237081 0.0060183406 -0.04608514 0.0122853145 -0.01587499
0.017342709 -0.0052421093 -0.030137688 0.003062293 0.03340199 0.059432447 -0.031890422 -0.05819407
-0.047519006 0.034828924 0.010947414 0.0020285547 -0.054182567 -0.059033126 0.01785905 0.05890715
0.054833114 0.015873887 0.030862853 -0.043748602 0.010804191 0.02411604 -0.06074878 -0.041681327
0.0069419295 -0.042680778 4.2766333e-06 0.056345664 -0.062127672 -0.048180707 0.019724526 -0.050104417
0.049302064 0.014166273 -0.036330923 0.0018226132 -0.016819865 0.059832245 -0.016649596 -0.06193348
00000000: 2088 463d 3c69 58bd dc04 dabc a85b 653c
00000010: b009 dabc 86c3 703d 18e4 603c c82b 673d
00000020: e847 6abd 50fd 9bbc b01d 3d3d 38de 343d
00000030: c00f bb3a 16e1 05bd 4aea 05bd 8044 a2ba
00000040: e8a6 77bd 00f0 6f3a 10aa 7ebc a294 3d3d
00000050: 0850 373d ce75 5ebd da2c 09bd d025 1c3d
00000060: bcaf c6bc 8c3c 90bc 383f 543d ec07 773d
00000070: aaa2 6cbd c08f f4ba 94e4 d53c 8884 d73c
00000080: ac98 d73c 0059 0a3d dcf9 e0bc 9ccf 4d3d
00000090: 64bf c9bc b8c2 123c e005 133d 404f 21bd
000000a0: 20fb 69bc 602e 78bb 0048 09b9 5cfe 2dbd
000000b0: 5eb8 2e3d 68df 5d3c f0d8 a8bc cca3 45bd
000000c0: 024a 693d 94ee 393d 9c9b 9d3c d03a e93c
000000d0: d22b 3c3d c09b 4a3c 00f8 a9ba d04e 26bc
000000e0: 32ab 1e3d 62c4 21bd b67e 35bd bcd4 363d
000000f0: 9c79 503d 7a8e 7e3d 20f9 a7bc bc3a efbc
00000100: e8be 443d 144e 2e3d 40d4 90ba 2cef 94bc
00000110: 5c51 87bc 2034 51bb 6ed4 723d fc4f 8c3c
00000120: c454 933c 1432 f6bc f82b 19bd 447b 6dbd
00000130: 14f4 813c c4b6 48bd 3c2e e73c e8ef ecbc
00000140: de91 13bd 80d7 22bc 3241 263d d46a a7bc
00000150: 5009 2abd b08a f23c c85c 3e3d 8a92 6fbd
00000160: 8445 e03c 2067 a6bc 3e88 683d 94c7 48bd
00000170: fcf6 3b3d 50c7 acbc 284f 2fbc 9071 95bc
00000180: e02d 0e3d 80ad bc3b 6ec0 1dbd 0c23 8e3c
00000190: 6c16 013d d861 51bc 48f2 003c 4437 d2bc
000001a0: a006 b03c 22df 703d 4081 e0bb 4a1d 76bd
000001b0: c6f9 4dbd 8a38 20bd 2cfa 34bd 4066 c4bc
000001c0: 14aa 94bc 10fc eb3c 4ea2 6b3d f20f 413d
000001d0: 1091 9c3b c025 6c3b fa1c 113d e646 733d
000001e0: d495 4c3d f8cc 16bd 5a69 2fbd 1ed0 2abd
000001f0: 8021 8fba 5464 98bc 2ade 09bd d254 103d
00000200: c82e 773c f476 923c fcc4 353d ae69 3fbd
00000210: 8ad7 24bd fcf9 8bbc 9033 8abc f0a3 7ebd
00000220: 708c 6ebc 04e0 e53c 8af6 5f3d 18fc 57bd
00000230: 0000 4d3d 469d 2e3d ac60 7d3d 9cdd 61bd
00000240: cc2e 023d 4868 1fbd 2c42 76bd 767a 79bd
00000250: 5834 5ebc a226 5a3d 54d8 f1bc 40cb d03a
00000260: 7469 e03c 30c3 d7bc e88d f6bc 8033 5c3c
00000270: c29a 073d 284e 6ebd b628 223d 484c a33c
00000280: c409 3a3d 26a4 10bd 9cb2 96bc 589b 0d3c
00000290: 980b 2dbd f05a eb3b 088b 783d 8081 b13a
000002a0: 14cc 5cbd 349e c2bc 8049 3bba f073 0abc
000002b0: cad5 4a3d 1436 1abd e04c 77bd 00c9 a339
000002c0: e20f 00bd 4215 173d c85b ffbc 482d 3f3c
000002d0: b221 743d b4de f1bc 4c35 13bd 4868 2dbd
000002e0: a05e a83b 8047 ac3a 48d3 0f3d 8693 2cbd
000002f0: d058 693c 827e 4cbd ba08 51bd 52ca 23bd
00000300: f466 32bd 1cf8 23bd f2ae 353d f0d7 fd3c
00000310: a879 573d a865 be3c 383b 443c 442e 8dbc
00000320: 6090 d13b 38ac 293d 3069 743c a0d4 b1bc
00000330: a2d9 143d 2a03 69bd bca8 693d 2072 a23c
00000340: a0b5 e0bc 6444 efbc 04e4 fcbc 0025 723a
00000350: 8035 c53b c6c3 3cbd 5848 493c 440c 82bc
00000360: 4c12 8e3c 00c6 abbb 50e3 f6bc c0b0 483b
00000370: 86d0 083d 706f 733d 889f 02bd e85c 6ebd
00000380: 4aa3 42bd c6a8 0e3d c85c 333c 80f1 043b
00000390: 8aee 5dbd b8cc 71bd 244d 923c a048 713d
000003a0: b098 603d f409 823c 18d4 fc3c bc31 33bd
000003b0: 1004 313c 008f c53c b6d3 78bd 0aba 2abd
000003c0: 2079 e33b 0ad2 2ebd 0080 8f36 b6ca 663d
000003d0: 9679 7ebd 2259 45bd 5495 a13c 4a3a 4dbd
000003e0: f6f0 493d a819 683c bccf 14bd c0e4 ee3a
000003f0: d0c9 89bc a812 753d bc64 88bc f6ad 7dbd

q_net.3.weight f4 [128, 256]
-0.0116665885 -0.031096242 -0.0017814487 -0.050713405 0.05020766 0.04658767 0.042312384 -0.0113544315
0.026759699 -0.040452488 -0.04591831 -0.008989342 -0.0022713616 0.008111984 -0.034834325 -0.060296103
-0.02637913 0.009172834 0.022132993 -0.015798837 -0.044111766 -0.022340648 -0.052729927 0.0402236
-0.017551482 0.012982704 -0.012248732 -0.041920602 0.01781214 -0.013192885 -0.023148805 -0.0002136603
0.03199158 -0.050013855 -0.030588858 -0.010326497 0.04476969 0.049682528 -0.02304189 -0.006026745
-0.013253294 0.052155837 -0.024199612 -0.052782357 -0.06079697 -0.03888865 0.02488432 -0.031570956
-0.03687512 -0.026220672 -0.030468114 -0.036011152 0.05985023 -0.059993178 0.029165044 0.040884264
-0.0015058964 0.00043930858 0.025328636 0.036793955 -0.015729524 -0.031884573 0.055920884 -0.0033866093
0.05850952 0.031533577 -0.054203287 -0.0041664094 0.043603748 -0.019417793 -0.004418075 0.0019020289
-0.054661408 -0.026997693 0.031021602 -0.034802057 0.020913221 0.01021596 0.0466893 -0.030562252
0.060343735 -0.038854636 0.04550703 -0.060111016 0.0009990111 0.038284652 0.050613113 -0.049969494
0.010116525 -0.033507317 0.0027727634 -0.010343999 -0.038284525 0.05235564 0.03732156 -0.05618523
-0.0398433 -0.04249376 -0.053803757 -0.039649293 0.03611552 -0.055192024 0.01490964 -0.055053227
0.022302486 -0.024974167 0.060422324 -0.030388385 -0.049420938 -0.0013951361 -0.059038676 -0.019591548
-0.022242248 0.043024406 0.052180946 0.059677564 -0.050576463 -0.013552047 -0.04683446 -0.061580688
0.049689785 -0.0582164 0.04155664 -0.016137384 -0.0030149594 0.026857562 0.04006079 -0.0158953
-0.033915572 -0.052310184 0.041949123 -0.054331623 -0.013255395 -0.04128041 -0.017641537 -0.037723377
0.008528449 0.023631662 -0.060585678 -0.009354189 0.03633403 0.038441703 -0.033763155 0.040786028
0.043971665 0.026529007 -0.00910265 0.013150834 0.0407357 0.04064706 0.0430924 -0.038082965
0.059374377 0.052792676 -0.031929716 0.013323449 -0.05379013 -0.031011574 0.0038813502 0.04144963
0.0401681 0.059974864 0.018404894 0.0033651441 0.043254614 -0.019040048 0.038261183 0.027545206
0.030041263 -0.012216225 0.059427917 -0.030574158 0.008423537 0.054298162 -0.047210477 -0.028770685
0.03565146 0.010500409 -0.04432217 -0.038862854 -0.011913918 0.046871886 0.04397971 0.054256946
-0.034993 -0.05940599 -0.04296667 -0.04734584 0.014021456 -0.061700366 -0.03786896 -0.0076897144
-0.018216282 -0.011736661 0.024033949 0.03217543 -0.028682142 -0.024355136 0.03326699 0.057796523
-0.0356967 -0.04178965 -0.03686566 -0.03149078 -0.027052902 -0.04202442 -0.004250385 0.0014752373
-0.042335816 0.017418757 0.018151574 0.053542346 0.04911603 0.023577854 0.03779143 0.017171651
-0.017238133 0.031252384 0.03920213 0.03505283 -0.0055098757 0.060445152 -0.060308494 0.0022882894
-0.045174234 -0.008941501 -0.045229718 0.05188816 0.038087457 0.030401617 0.033793144 0.05038236
0.057777025 0.01279927 0.03950829 0.06134682 -0.014378667 -0.029173799 0.024979167 -0.008319922
0.04260003 -0.032209978 -0.019551754 -0.046022296 -0.02894514 -0.028127141 0.054639533 -0.031396024
0.015037917 -0.02997867 0.04927972 0.059251048 0.058442168 -0.038390473 0.027868778 -0.034634247
00000000: 3825 3fbc 8cbd febc 807f e9ba dcb8 4fbd
00000010: 8ca6 4d3d b6d2 3e3d c04f 2d3d f007 3abc
00000020: 2837 db3c 82b1 25bd d614 3cbd 0848 13bc
00000030: 20db 14bb 20e8 043c 70ae 0ebd 0cf9 76bd
00000040: 0c19 d8bc a849 163c 4050 b53c 906c 81bc
00000050: 8aae 34bd bc03 b7bc 56fb 57bd 80c1 243d
00000060: 20c8 8fbc 68b5 543c e8ae 48bc f0b4 2bbd
00000070: c4ea 913c f826 58bc 90a2 bdbc 000a 60b9
00000080: 9a09 033d 54db 4cbd 7c95 fabc 7830 29bc
00000090: 6c60 373d e87f 4b3d 58c2 bcbc 007c c5bb
000000a0: 5824 59bc 5ca1 553d 443e c6bc 5032 58bd
000000b0: 3e06 79bd b449 1fbd 34da cb3c 8c50 01bd
000000c0: 5e0a 17bd bccc d6bc 4498 f9bc 6e80 13bd
000000d0: 8425 753d 68bb 75bd 88eb ee3c 4276 273d
000000e0: 8061 c5ba 0053 e639 007e cf3c 42b5 163d
000000f0: 34db 80bc 6699 02bd 4c0d 653d e0f1 5dbb
00000100: aea7 6f3d 5a29 013d 4404 5ebd 6086 88bb
00000110: d899 323d 1012 9fbc 80c5 90bb 804d f93a
00000120: a4e4 5fbd 442a ddbc 0421 fe3c 9a8c 0ebd
00000130: 3452 ab3c d860 273c 483d 3f3d b05d fabc
00000140: fe2a 773d 0a26 1fbd 9465 3a3d f836 76bd
00000150: 40f1 823a 5ed0 1c3d b24f 4f3d d0ac 4cbd
00000160: c8bf 253c f83e 09bd 40b7 353b e079 29bc
00000170: 3cd0 1cbd de72 563d 7ede 183d 7c22 66bd
00000180: ba32 23bd f00d 2ebd 5461 5cbd 4c67 22bd
00000190: deed 133d 0811 62bd 9047 743c 7e7f 61bd
000001a0: b4b3 b63c a096 ccbc 667d 773d 10f1 f8bc
000001b0: 9c6d 4abd 00dd b6ba 8ad2 71bd 747e a0bc
000001c0: 6035 b6bc 5c3a 303d b0bb 553d 7670 743d
000001d0: 4429 4fbd 6809 5ebc 7ed5 3fbd 083c 7cbd
000001e0: 8487 4b3d 5274 6ebd 4c37 2a3d 8c32 84bc
000001f0: a096 45bb 6404 dc3c c816 243d dc36 82bc
00000200: 0eeb 0abd 3443 56bd d8d2 2b3d d68a 5ebd
00000210: 282d 59bc a615 29bd fc84 90bc d483 1abd
00000220: e8ba 0b3c 3097 c13c b028 78bd 5042 19bc
00000230: fed2 143d 0c75 1d3d 3c4b 0abd 400f 273d
00000240: a21b 343d 5c53 d93c 4823 15bc 9876 573c
00000250: 7ada 263d 887d 263d a881 303d e2fc 1bbd
00000260: 8c32 733d 223d 583d bcc8 02bd 984a 5a3c
00000270: 0a53 5cbd fc0b febc 405e 7e3b 16c7 293d
00000280: 4e87 243d 34a8 753d dcc5 963c c089 5c3b
00000290: c02b 313d e0f9 9bbc c2b7 1c3d 7ca6 e13c
000002a0: 1819 f63c 9026 48bc b06a 733d a876 fabc
000002b0: e002 0a3c c067 5e3d c65f 41bd 80b0 ebbc
000002c0: 4407 123d e809 2c3c 2a8b 35bd a82e 1fbd
000002d0: 9832 43bc bcfc 3f3d 1224 343d 883c 5e3d
000002e0: d254 0fbd b253 73bd d2fd 2fbd b6ed 41bd
000002f0: 40ba 653c 86b9 7cbd 7c1c 1bbd 00fa fbbb
00000300: 503a 95bc 204b 40bc d8e2 c43c 62ca 033d
00000310: d0f6 eabc 6c84 c7bc f842 083d 0cbc 6c3d
00000320: b436 12bd a02b 2bbd 7200 17bd 7afc 00bd
00000330: 0c9e ddbc cc21 2cbd d046 8bbb c05c c13a
00000340: 5268 2dbd c8b1 8e3c 9cb2 943c 384f 5b3d
00000350: e42d 493d 5826 c13c 30cb 1a3d 90ab 8c3c
00000360: fc36 8dbc 8002 003d 6a92 203d 8e93 0f3d
00000370: 308c b4bb 5695 773d 0a06 77bd 20f7 153b
00000380: 9e08 39bd 607f 12bc cc42 39bd ae88 543d
00000390: 9801 1c3d d00c f93c ae6a 0a3d bc5d 4e3d
000003a0: 9aa7 6c3d 08b4 513c 72d3 213d ce46 7b3d
000003b0: 8094 6bbc e4fd eebc 1ca1 cc3c 4850 08bc
000003c0: 5e7d 2e3d 9cee 03bd 002b a0bc e081 3cbd
000003d0: 5c1e edbc e46a e6bc b4cd 5f3d 1e99 00bd
000003e0: 9861 763c d495 f5bc 88d9 493d 3ab1 723d
000003f0: 0e61 6f3d 543f 1dbd 104d e43c a4dc 0dbd

q_net.3.bias f4 [128]
0.062246412 -0.030968525 -0.039887935 -0.058162563 0.01959727 -0.031733893 0.0064415783 -0.039065942
-0.007332869 0.038357712 -0.043200187 -0.04847765 -0.032818824 -0.012981862 -0.030019574 0.05685714
0.06039893 -4.3846667e-05 -0.051639788 -0.04662098 -0.042823695 -0.053956382 0.045059294 -0.014972754
0.055986546 -0.015665025 -0.060115322 0.03879051 -0.058062658 -0.026965901 0.035642058 -0.012189977
0.027995028 0.019041598 -0.024538875 -0.0011810958 -0.022256367 -0.025470741 -0.022975385 -0.030484363
0.040165916 0.049013726 0.039134033 0.039869078 0.051006548 0.0053971857 -0.024639055 -0.015419863
0.045268774 -0.030078433 0.007248871 -0.047104977 -0.044499174 0.0009357184 0.049861588 -0.017594099
-0.025770605 -0.048930317 -0.008376688 -0.04783082 0.014826901 -0.013986215 -0.062246762 -0.017466418
0.009625748 0.00573083 -0.049091272 -0.03468229 0.030870095 -0.03011205 0.04512982 -0.0019816533
0.035332553 0.0024094358 -0.04770013 -0.024964854 0.015138499 0.05872836 0.052369706 -0.038549736
0.03501288 -0.053480074 -0.055462055 -0.047078997 0.007555045 0.058768764 0.05156114 0.008307114
0.009165287 0.024432153 0.049747266 0.011150643 -0.00610999 0.05681079 -0.03393913 -0.0067173466
0.045929298 0.058957905 -0.03194765 0.0042008087 0.009068035 0.034832366 0.04020313 0.03534487
0.03641536 0.04807213 0.024041533 -0.010803141 0.037757143 0.062103577 -0.038195796 -0.025379747
0.030503377 0.056827098 -0.01866214 -0.006018564 0.031223588 -0.05839327 -0.040752552 0.046892524
-0.059697777 0.012223288 -0.017005354 -0.029631667 0.032970645 -0.03986059 0.04556615 -0.052570805
00000000: 18f6 7e3d b4b1 fdbc 8861 23bd de3b 6ebd
00000010: 748a a03c 66fb 01bd e013 d33b 9c03 20bd
00000020: 9048 f0bb fa1c 1d3d aef2 30bd 8090 46bd
00000030: 086d 06bd e0b1 54bc 9ceb f5bc 08e3 683d
00000040: de64 773d 00e8 37b8 3e84 53bd a4f5 3ebd
00000050: e667 2fbd 5e01 5dbd 1890 383d 4850 75bc
00000060: 2652 653d f053 80bc 7c3b 76bd cce2 1e3d
00000070: 1cd3 6dbd 98e7 dcbc 68fd 113d 78b8 47bc
00000080: d455 e53c 20fd 9b3c c005 c9bc 00cf 9aba
00000090: fc52 b6bc 04a8 d0bc e036 bcbc 58ba f9bc
000000a0: 0485 243d 9ec2 483d 024b 203d c24d 233d
000000b0: 3eec 503d e0da b03b d8d7 c9bc 98a3 7cbc
000000c0: c06b 393d 0c67 f6bc f087 ed3b 26f1 40bd
000000d0: c444 36bd 004b 753a aa3b 4c3d 8021 90bc
000000e0: e01c d3bc 286b 48bd 603e 09bc 40ea 43bd
000000f0: 88ec 723c 7026 65bc 76f6 7ebd bc15 8fbc
00000100: 50b5 1d3c b0c9 bb3b ee13 49bd 040f 0ebd
00000110: 48e3 fc3c 8cad f6bc 0cda 383d a0de 01bb
00000120: deb8 103d a0e7 1d3b 3661 43bd 1883 ccbc
00000130: 7807 783c 268d 703d 9e81 563d 54e6 1dbd
00000140: aa69 0f3d ec0d 5bbd 2e2c 63bd e8d5 40bd
00000150: 5090 f73b 84b7 703d c631 533d 901a 083c
00000160: 002a 163c f025 c83c cac3 4b3d 30b1 363c
00000170: 5036 c8bb 6eb2 683d c203 0bbd 301d dcbb
00000180: 5c20 3c3d d87d 713d 8adb 02bd f0a6 893b
00000190: 1892 143c 62ac 0e3d 0aac 243d c8c5 103d
000001a0: 4628 153d 48e7 443d c0f2 c43c a8ff 30bc
000001b0: 3ca7 1a3d 5260 7e3d 3273 1cbd 30e9 cfbc
000001c0: 38e2 f93c 88c3 683d 58e1 98bc 6037 c5bb
000001d0: 9cc8 ff3c c82d 6fbd 26ec 26bd 6012 403d
000001e0: a885 74bd 3044 483c d04e 8bbc 1cbe f2bc
000001f0: 3a0c 073d dc44 23bd 92a3 3a3d 7c54 57bd
