models/q_net.pth (torch, 541212 bytes, 10 tensors)

q_net.0.weight f4 [128, 17]
-0.057552267 -0.017254112 0.09235866 0.18806823 0.118296675 0.14275269 -0.20622742 -0.062954016
0.1314327 0.03900091 -0.06685547 0.11868171 0.13348474 0.042961977 -0.08680006 0.16138127
0.19833526 0.1625812 0.23090553 0.10629409 -0.12702172 0.10138576 0.07977751 0.08012353
0.09051966 0.14988245 0.007964121 0.1983167 -0.032149196 -0.11182996 -0.06854861 0.059504613
-0.17541331 0.18664071 0.21636614 0.21063507 -0.23855256 -0.21033953 -0.2418327 0.14259619
-0.057150528 -0.027992763 -0.039397877 -0.09208168 0.24100043 0.1692632 -0.03178831 -0.15048952
0.18545188 -0.22790098 -0.08053886 -0.07252553 -0.09055759 -0.14168116 -0.006383504 -0.057544257
-0.1277024 0.062286805 -0.03374132 0.18828973 0.19013137 -0.0909776 -0.14798655 0.22612306
0.027929097 -0.19966827 -0.12866195 -0.03473299 -0.12134113 0.020239733 0.1720177 -0.0013479296
0.03112578 0.11148454 0.23505779 -0.2052138 0.06266625 -0.0031216247 0.17604254 -0.0038148018
-0.18050946 0.21659568 0.18064922 -0.22271286 -0.10167372 -0.08241051 0.13608934 0.04955455
0.23623341 -0.1850641 -0.13594429 -0.12418057 0.11364728 0.20019749 -0.05225752 0.05853029
-0.11866947 -0.08384567 -0.20259702 0.08699045 -0.07710047 0.047057174 -0.061010722 -0.1904799
-0.084874466 0.21120757 -0.026568737 0.23380159 0.109763704 -0.18235536 0.09469916 -0.106890954
0.1388497 -0.072588354 0.19258265 0.12300088 -0.026781358 -0.188948 0.0019672932 -0.13789622
0.10452915 -0.04318047 0.037435036 -0.16115174 0.22537686 0.00025038223 0.1811654 0.07110717
-0.019015953 -0.21330659 -0.19752857 -0.12575297 -0.125939 0.19974478 0.057502333 0.16550092
0.1342776 -0.2052152 0.14995354 -0.1452355 -0.24000953 -0.08890854 -0.10397366 0.10044679
-0.1983435 -0.16685346 -0.06279471 -0.14112628 -0.18679522 0.076546274 -0.041705817 -0.09171701
-0.1673759 0.19292285 -0.13725932 -0.13780856 -0.13216667 -0.13601942 -0.04055296 -0.123911455
0.05020008 -0.026223723 -0.046935365 -0.13261111 -0.18424235 -0.062501885 -0.23470719 -0.044508334
-0.08657272 -0.21262361 -0.0553413 0.16489315 0.021701895 0.23629385 0.1832316 -0.21608922
-0.018457219 -0.22973716 0.074732766 0.04685947 -0.21713941 0.21822807 0.018201401 0.22445837
0.23900416 0.20083316 -0.036278248 0.04156704 0.19306856 0.12127894 -0.13100474 -0.032990433
-0.032648515 0.16418153 -0.061470054 0.22981256 -0.10021393 -0.21964175 0.080339044 0.024549661
0.23037618 -0.108035944 0.094912186 0.21170966 -0.22519651 -0.009259893 -0.018330062 -0.2356059
0.121071436 0.040980894 -0.05129534 -0.09435328 -0.15540124 -0.07178887 0.22131298 0.19675323
-0.14770049 -0.028762704 -0.17579259 -0.10114835 -0.034149796 0.13271135 0.112703815 -0.20506361
-0.20887572 -0.06993335 -0.013339938 -0.076860435 0.18995693 -0.038383394 0.10647924 -0.106190346
0.061951417 -0.16840193 0.22671753 0.08850405 -0.16987169 0.019259771 0.02432076 -0.020065939
-0.15427773 -0.17803337 0.22371069 -0.13397771 -0.10839796 0.0449644 0.22916153 0.20243753
0.11892581 0.0748132 -0.06569738 -0.24098687 -0.12887856 0.18179318 -0.15670502 -0.0759501
00000000: edbb 6bbd 7f58 8dbc 8a26 bd3d f594 403e
00000010: 8745 f23d c32d 123e 482d 53be 09ee 80bd
00000020: 4b96 063e 6bbf 1f3d 85eb 88bd 650f f33d
00000030: 39b0 083e e6f8 2f3d 3bc4 b1bd 2241 253e
00000040: 6618 4b3e b07b 263e 8072 6c3e b7b0 d93d
00000050: fb11 02be 56a3 cf3d 6462 a33d ce17 a43d
00000060: 5f62 b93d c97a 193e f27b 023c 8813 4b3e
00000070: e0ae 03bd 1b07 e5bd 3763 8cbd 1cbb 733d
00000080: 8c9f 33be be1e 3f3e 168f 5d3e b8b0 573e
00000090: 1f47 74be 3f63 57be fea2 77be bc04 123e
000000a0: ac16 6abd 1451 e5bc ab5f 21bd 5295 bcbd
000000b0: d1c8 763e 5553 2d3e 7534 02bd ed19 1abe
000000c0: 19e7 3d3e e05e 69be 8ff1 a4bd 4488 94bd
000000d0: 4276 b9bd de14 11be b62c d1bb 87b3 6bbd
000000e0: 6bc4 02be 7320 7f3d 5734 0abd 06cf 403e
000000f0: ccb1 423e 7752 babd c989 17be ce8c 673e
00000100: 90cb e43c d775 4cbe f5bf 03be 2e44 0ebd
00000110: b381 f8bd cccd a53c 6825 303e 03ad b0ba
00000120: 7efb fe3c 0252 e43d fdb2 703e 9123 52be
00000130: 2a57 803d 2c94 4cbb 7f44 343e c101 7abb
00000140: 79d7 38be 42cb 5d3e 1cfc 383e d70e 64be
00000150: 503a d0bd d7c6 a8bd 015b 0b3e b6f9 4a3d
00000160: 2ce7 713e 7281 3dbe fb34 0bbe 6252 febd
00000170: e8bf e83d 9200 4d3e fb0b 56bd 75bd 6f3d
00000180: fb08 f3bd 47b7 abbd 9875 4fbe 0d28 b23d
00000190: dae6 9dbd 06bf 403d 61e6 79bd 2a0d 43be
000001a0: aad2 adbd cc46 583e aea6 d9bc af69 6f3e
000001b0: cbcb e03d 5dbb 3abe a2f1 c13d a5e9 dabd
000001c0: 9e2e 0e3e 34a9 94bd 6334 453e e3e7 fb3d
000001d0: 9464 dbbc 967b 41be b4ed 003b ab34 0dbe
000001e0: 6113 d63d 01de 30bd 7b55 193d f604 25be
000001f0: 31c9 663e bc45 8339 6c83 393e a3a0 913d
00000200: 58c7 9bbc 0b6d 5abe ee44 4abe 63c5 00be
00000210: 27f6 00be e589 4c3e 9187 6b3d 1379 293e
00000220: 1180 093e ef23 52be 6c8d 193e 9db8 14be
00000230: 0fc5 75be ae15 b6bd 24f0 d4bd 0cb7 cd3d
00000240: 8f1a 4bbe a2db 2abe 839a 80bd 6883 10be
00000250: 3f47 3fbe 4bc4 9c3d b8d3 2abd 21d6 bbbd
00000260: 9764 2bbe 918d 453e b58d 0cbe b01d 0dbe
00000270: b356 07be ad48 0bbe dc1a 26bd 4ac5 fdbd
00000280: 999e 4d3d 22d3 d6bc 4c3f 40bd 35cb 07be
00000290: 07aa 3cbe fd00 80bd 1557 70be 5f4e 36bd
000002a0: 0a4d b1bd 01ba 59be 8fad 62bd c0d9 283e
000002b0: 2cc8 b13c 04f7 713e 11a1 3b3e 7e46 5dbe
000002c0: 9833 97bc 3840 6bbe 7e0d 993d b7ef 3f3d
000002d0: cb59 5ebe 2e77 5f3e 1b1b 953c 6ad8 653e
000002e0: 82bd 743e 35a7 4d3e 8098 14bd 3342 2a3d
000002f0: c4b3 453e 1861 f83d 1b26 06be fa20 07bd
00000300: 73ba 05bd 341f 283e 06c8 7bbd fc53 6b3e
00000310: f63c cdbd c4e9 60be cc88 a43d 5f1c c93c
00000320: bce7 6b3e f341 ddbd 5261 c23d 6bca 583e
00000330: ea99 66be ceb6 17bc ed28 96bc ac42 71be
00000340: 4df4 f73d 95db 273d 101b 52bd 4b3c c1bd
00000350: 8121 1fbe 0b06 93bd df9f 623e ae79 493e
00000360: cc3e 17be c39f ebbc f902 34be de26 cfbd
00000370: a8e0 0bbd 7ce5 073e 42d1 e63d 32fc 51be
00000380: 84e3 55be 3739 8fbd c18f 5abc 0169 9dbd
00000390: 1284 423e e837 1dbd ca11 da3d 537a d9bd
000003a0: c5c0 7d3d 8e71 2cbe a428 683e 9d41 b53d
000003b0: d8f2 2dbe abc6 9d3c 553c c73c 5361 a4bc
000003c0: fbfa 1dbe 614e 36be 6a14 653e 7431 09be
000003d0: c0ff ddbd 972c 383d 52a9 6a3e c94b 4f3e
000003e0: 608f f33d aa37 993d 598c 86bd 43c5 76be
000003f0: bef8 03be fe27 3a3e 4877 20be ba8b 9bbd

q_net.0.bias f4 [128]
-0.2089059 0.024160787 0.22025059 0.016424786 0.07918908 -0.11348107 0.055796698 -0.15065242
-0.022412103 0.2103523 -0.07187387 0.23903203 0.047596104 0.08641527 0.23956136 0.19001566
-0.22335692 -0.21568519 0.04826754 0.20936593 0.21671627 0.03437384 0.23451868 0.09608381
-0.24214126 0.101961374 0.031469464 0.08989971 0.16372946 -0.07245495 -0.22689208 0.011506018
0.099335104 -0.18107074 -0.06286673 -0.011604147 -0.23118414 0.10160384 0.021017075 0.2009713
-0.14196901 -0.042909734 0.07912035 0.20353529 0.059322435 -0.2277838 0.117714815 0.05495
-0.08411424 -0.036335986 -0.22395507 -0.0878393 -0.2400466 -0.043625202 0.20862892 0.13176128
-0.016064797 -0.18801497 0.10517696 -0.11299436 -0.05705555 -0.09048779 0.012240396 -0.15498239
0.21758173 0.1909141 0.18058276 0.030206073 0.016211007 0.09695191 0.17855307 0.17699596
-0.15815166 0.09717751 0.0057683038 -0.2410429 0.0075632497 -0.108818 -0.056196213 -0.16195616
0.17477709 0.13163722 -0.03317475 0.12393881 -0.23933712 0.15579142 0.0763621 0.123851545
-0.23720172 0.15916328 0.22177859 -0.17133917 0.11336579 0.08832673 0.20775615 0.13890846
0.047046736 -0.051968686 -0.087033704 -0.17033325 0.040748436 0.004956701 -0.03134647 -0.14399008
-0.047147207 0.034720935 -0.010324393 -0.09820908 0.2082937 0.06806303 0.045728356 0.14309736
0.21984746 -0.024868825 0.16566247 -0.1572799 0.18304223 0.1576964 -0.2282808 -0.02321052
0.02467439 0.22312535 -0.2306533 0.045009043 0.15592395 0.0630926 0.0785731 0.1327577
00000000: 6eeb 55be d8ec c53c 5f89 613e 468d 863c
00000010: e22d a23d c368 e8bd 148b 643d a144 1abe
00000020: 9699 b7bc 9866 573e 9c32 93bd d0c4 743e
00000030: 22f4 423d 7dfa b03d 934f 753e 7793 423e
00000040: adb7 64be 94dc 5cbe 2fb4 453d 0664 563e
00000050: dfea 5d3e 95cb 0c3d aa25 703e 97c7 c43d
00000060: e1f3 77be 20d1 d03d 20e6 003d 571d b83d
00000070: b2a8 273e 4363 94bd 6656 68be bd83 3c3c
00000080: 3470 cb3d 9c6a 39be 46c0 80bd 521f 3ebc
00000090: 89bb 6cbe ad15 d03d 002c ac3c 6ccb 4d3e
000000a0: 5360 11be 1ec2 2fbd da09 a23d 8e6b 503e
000000b0: 15fc 723d 2840 69be 7714 f13d 4013 613d
000000c0: 1644 acbd 0bd5 14bd 7a54 65be 17e5 b3bd
000000d0: c7ce 75be 57b0 32bd d2a2 553e 6eec 063e
000000e0: 529a 83bc ff86 40be 0567 d73d 9669 e7bd
000000f0: 15b3 69bd aa51 b9bd f18b 483c b4b3 1ebe
00000100: bfcd 5e3e fc7e 433e b0ea 383e ba72 f73c
00000110: f2cc 843c b98e c63d 9ed6 363e 6e3e 353e
00000120: 82f2 21be 0105 c73d 0a04 bd3b f3d3 76be
00000130: 23d5 f73b f9db debd 002e 66bd d6d7 25be
00000140: c4f8 323e e8cb 063e 3fe2 07bd a1d3 fd3d
00000150: ca14 75be c987 1f3e bc63 9c3d e1a5 fd3d
00000160: 02e5 72be b3fb 223e ed19 633e 8973 2fbe
00000170: 532c e83d a5e4 b43d 07be 543e 053e 0e3e
00000180: 14b4 403d 1edd 54bd ba3e b2bd d76b 2ebe
00000190: d5e7 263d d26b a23b 2865 00bd 2372 13be
000001a0: 6e1d 41bd 8a37 0e3d a527 29bc d821 c9bd
000001b0: f24a 553e a164 8b3d a84d 3b3d 1d88 123e
000001c0: b11f 613e b5b9 cbbc 6ca3 293e fb0d 21be
000001d0: 6c6f 3b3e 2a7b 213e 71c2 69be fd23 bebc
000001e0: f221 ca3c f97a 643e 6130 6cbe 675b 383d
000001f0: 87aa 1f3e b136 813d efea a03d a2f1 073e

q_net.1.weight f4 [256, 128]
0.08731651 0.03831906 0.01484215 -0.050634887 0.0036549747 0.01807729 -0.062568694 -0.065062396
-0.087173134 0.05240323 0.028800068 0.07634189 -0.014559533 -0.048580248 -0.023225853 0.037376583
-0.018859692 -0.028572487 0.052860375 0.057582974 -0.012950346 -0.03192784 0.034863736 -0.08625533
-0.066665545 -0.06568719 -0.08628814 -0.05903336 -0.05359348 0.052387975 0.065459125 -0.056006838
-0.019951696 -0.026402766 -0.033802226 0.023824548 -0.083322145 -0.008753258 -0.0116639715 0.01512446
-0.064334676 0.039669424 0.071572885 -0.0159453 -0.028208105 0.031480998 0.0022729689 -0.037431236
0.065031245 -0.06444396 -0.07040293 -0.009005001 -0.02926986 0.016080623 0.05813305 0.02613586
-0.028410578 -0.049978312 -0.05425076 0.0590936 0.07177129 -0.04654702 0.072189376 0.036091167
0.011584325 -0.052945733 -0.067092955 0.0728006 -0.051335577 0.010618993 -0.070921205 -0.0045462856
-0.032137908 0.029496187 -0.042907618 -0.017352847 -0.0052637197 -0.042882964 0.044356618 -0.011831527
-0.057919946 -0.073672324 -0.009829793 -0.03455853 -0.075920284 -0.072174445 0.070658684 -0.05359768
0.024795307 0.038320925 0.057623666 -0.04856904 0.07238284 -0.0830979 0.06148693 -0.016663304
0.018541737 -0.028782293 -0.02756212 -0.044119827 -0.04950395 -0.009039782 -0.06956872 -0.04232492
-0.035793852 -0.07773299 -0.080742635 0.07672338 -0.012234882 0.0014497145 -0.049761478 -0.05986472
-0.085310586 -0.06344592 -0.06637995 -0.0050414163 0.037235424 -0.054645885 -0.055710535 -0.061557315
-0.071007684 0.027875483 -0.06417156 -0.06606769 -0.01290055 -0.07783468 -0.062342815 0.0058763768
-0.059666395 0.07515857 -0.0070390715 0.03424285 0.06385047 -0.0685771 -0.0502209 -0.052846435
-0.015107716 -0.07021103 -0.027608693 -0.02422702 -0.022367995 0.026773965 -0.041835614 -0.02380983
0.059861854 0.026861925 -0.051550884 -0.03458844 -0.0221747 0.05640381 -0.08611773 0.07395802
-0.08503142 -0.03317798 0.0693914 -0.0414384 -0.052961655 -0.0031934984 -0.009826759 0.012023516
-0.053996887 -0.0011954848 0.009866366 -0.061404303 -0.034864854 -0.05932471 -0.036715277 -0.08378666
-0.031240065 -0.05567453 0.08175962 -0.006349433 0.031930335 -0.04760179 0.03127017 0.00040865585
0.0739204 0.0007133038 0.0693909 -0.009303411 -0.0775329 -0.011563019 -0.018454915 0.052174035
-0.085132755 0.067322634 -0.016857455 -0.032123316 -0.083123855 -0.08259413 -0.0022837059 0.06234289
-0.037357155 -0.0049973726 -0.03707299 -0.0044022803 0.06510549 -0.08482247 0.07575793 -0.069769174
0.0768005 -0.011627683 0.0679762 -0.0687136 0.041905347 -0.005732983 -0.07081407 0.05738585
0.06561071 0.08150277 0.060375866 -0.055342816 -0.01270876 -0.058251716 -0.022636587 -0.02344392
0.03312381 -0.054261062 -0.081441104 0.008875557 -0.044765864 0.077422135 -0.08038547 -0.07928495
0.071190745 0.0021324093 0.07460529 0.031652283 0.06527756 -0.06742518 -0.01101433 0.057702858
-0.0068217204 0.01707628 -0.05310267 0.061575502 -0.006943967 0.008735134 -0.028639764 0.064680986
0.045776207 -0.023993822 0.00538289 0.018357439 -0.03528453 0.05917646 -0.06163181 -0.012781464
-0.082966395 0.02672264 0.0012275269 0.01796502 0.05077496 -0.0429261 -0.03300742 -0.031155929
00000000: 00d3 b23d 72f4 1c3d 7d2c 733c 8766 4fbd
00000010: 4d88 6f3b d316 943c 0424 80bd 6f3f 85bd
00000020: d487 b2bd c5a4 563d 1fee eb3c 2359 9c3d
00000030: 1c8b 6ebc 15fc 46bd 2544 bebc 3018 193d
00000040: a47f 9abc d910 eabc 1f84 583d 20dc 6b3d
00000050: b02d 54bc c4c6 02bd 47cd 0e3d a2a6 b0bd
00000060: f287 88bd 0187 86bd d6b7 b0bd f7cc 71bd
00000070: d684 5bbd c694 563d 6f0f 863d 6d67 65bd
00000080: bd71 a3bc 9d4a d8bc 3474 0abd b32b c33c
00000090: cda4 aabd d369 0fbc 3e1a 3fbc 95cc 773c
000000a0: e6c1 83bd 687c 223d ce94 923d b89f 82bc
000000b0: af14 e7bc 38f2 003d 17f6 143b 7f51 19bd
000000c0: 1a2f 853d 32fb 83bd 692f 90bd b689 13bc
000000d0: 58c7 efbc 83bb 833c ec1c 6e3d df1a d63c
000000e0: 4dbd e8bc 0fb6 4cbd 0b36 5ebd 210c 723d
000000f0: d3fc 923d 17a8 3ebd 06d8 933d 55d4 133d
00000100: 2ecc 3d3c a0dd 58bd 0868 89bd 7b18 953d
00000110: 4145 52bd 49fb 2d3c 233f 91bd 02f9 94bb
00000120: 0aa3 03bd fda1 f13c e6bf 2fbd 8f27 8ebc
00000130: 487b acbb 0ca6 2fbd 49af 353d 05d9 41bc
00000140: 773d 6dbd 84e1 96bd 240d 21bc 3f8d 0dbd
00000150: 187c 9bbd 32d0 93bd 80b5 903d 3e89 5bbd
00000160: 871f cb3c 67f6 1c3d cb06 6c3d 54f0 46bd
00000170: 743d 943d 3b2f aabd b8d9 7b3d 7b81 88bc
00000180: d7e4 973c d8c8 ebbc f5c9 e1bc feb6 34bd
00000190: a7c4 4abd 981b 14bc 0c7a 8ebd e55c 2dbd
000001a0: 939c 12bd 7932 9fbd 655c a5bd 2621 9d3d
000001b0: d174 48bc 5904 be3a b1d2 4bbd b534 75bd
000001c0: 51b7 aebd efef 81bd 36f2 87bd 7732 a5bb
000001d0: 2c84 183d 5dd4 5fbd bb30 64bd 8623 7cbd
000001e0: 7a6c 91bd 205b e43c 616c 83bd 7f4e 87bd
000001f0: d45c 53bc ca67 9fbd 2e5b 7fbd 9f8e c03b
00000200: c064 74bd bdec 993d 03a8 e6bb 3b42 0c3d
00000210: 09c4 823d 2772 8cbd 6eb4 4dbd 8175 58bd
00000220: 5b86 77bc cdca 8fbd a02b e2bc be77 c6bc
00000230: 163d b7bc 1355 db3c d25b 2bbd d50c c3bc
00000240: b431 753d 8a0d dc3c 0527 53bd 9cac 0dbd
00000250: b7a7 b5bc ae07 673d 7e5e b0bd 4d77 973d
00000260: f424 aebd a2e5 07bd 141d 8e3d 50bb 29bd
00000270: 52ee 58bd 034a 51bb 6a00 21bc 48fe 443c
00000280: d72b 5dbd d0b1 9cba 8aa6 213c 1483 7bbd
00000290: 73ce 0ebd 78fe 72bd c262 16bd 5798 abbd
000002a0: 2aeb ffbc fa0a 64bd 9671 a73d e80e d0bb
000002b0: 62c9 023d 18fa 42bd 2615 003d dc40 d639
000002c0: 9463 973d 02fd 3a3a d11c 8e3d 556d 18bc
000002d0: 92c9 9ebd d172 3dbc c32e 97bc 71b4 553d
000002e0: 155a aebd 73e0 893d a518 8abc bd93 03bd
000002f0: d73c aabd 1c27 a9bd 3aaa 15bb 425b 7f3d
00000300: d103 19bd 00c1 a3bb d9d9 17bd 0141 90bb
00000310: 0756 853d 67b7 adbd f926 9b3d 24e3 8ebd
00000320: 9549 9d3d 0a82 3ebc 1b37 8b3d b7b9 8cbd
00000330: f1a4 2b3d bfdb bbbb f806 91bd 6d0d 6b3d
00000340: e85e 863d edea a63d af4c 773d 26af 62bd
00000350: 6738 50bc 5a99 6ebd 5d70 b9bc 770d c0bc
00000360: d5ac 073d d940 5ebd 98ca a6bd c96a 113c
00000370: 695c 37bd 7f8f 9e3d 23a1 a4bd 2660 a2bd
00000380: 74cc 913d e4bf 0b3b a9ca 983d d3a5 013d
00000390: 3eb0 853d 3616 8abd 7375 34bc d559 6c3d
000003a0: bd88 dfbb 8ee3 8b3c 2f82 59bd 9836 7c3d
000003b0: 388a e3bb cf1d 0f3c f09d eabc 7777 843d
000003c0: d57f 3b3d b18e c4bc f462 b03b 5762 963c
000003d0: 8386 10bd 0463 723d a371 7cbd 5869 51bc
000003e0: 49ea a9bd 70e9 da3c f8e4 a03a 612b 933c
000003f0: 68f9 4f3d 47d3 2fbd ca32 07bd b83a ffbc

q_net.1.bias f4 [256]
0.044849988 0.058084954 -0.0852602 -0.08263972 -0.05149895 -0.05373816 -0.00448944 -0.03474033
-0.026293121 -0.04359239 0.087957345 0.04247808 0.0031586217 -0.022883052 -0.021920186 -0.059020948
0.04421884 -0.006569914 0.020282337 -0.029992266 -0.062582165 -0.047468953 0.06348492 -0.007350189
-0.08162641 -0.0319628 -0.030442605 -0.077969804 0.077650204 0.0057595773 0.010024406 0.033479508
-0.030111784 0.051392697 0.018519366 0.008179882 0.021326 -0.04634717 -0.012683061 -0.002523985
0.061447438 0.065400325 0.04382031 0.0453982 0.06134954 -0.04019666 0.03553213 0.08555777
-0.05997625 0.044621635 -0.00075597747 0.046487343 0.08493811 -0.016075851 0.08490886 0.04598731
-0.025728269 -0.023384515 -0.06547498 -0.020604055 -0.07260527 -0.026713725 -0.05150353 0.05723269
-0.051720545 0.028501743 -0.049014382 -0.070660084 -0.048564307 0.0636634 0.051861305 -0.031409748
0.007063506 -0.00866202 -0.02904021 -0.07199153 -0.036344595 -0.00042766405 -0.023568507 -0.0297907
0.076311685 -0.009615793 0.042957816 -0.015248887 0.0081996275 0.028425256 0.017249767 -0.055671275
0.07784935 -0.07847696 -0.054072235 -0.08318911 0.034590647 0.025599163 0.0665647 -0.043218493
0.06892908 0.040325083 0.016348898 0.06609584 -0.0075914166 -0.0070276917 -0.04146117 -0.0606451
0.0033805987 -0.047556363 -0.057163022 0.08733432 -0.071848 -0.08799246 0.046629764 -0.071238786
0.08210795 -0.04636698 0.07834936 0.0861197 -0.012160503 -0.026710154 0.014455358 -0.080265425
0.067123905 0.0606102 -0.026706424 -0.057511702 -0.043631703 0.0040612174 0.081177175 -0.016012862
-0.08775725 0.05639892 -0.03094354 0.083120055 -0.00859251 -0.026715327 0.02519862 -0.045569308
-0.021987379 0.004062071 0.02480496 0.041330125 -0.057830796 -0.06041587 0.0133206695 0.008222692
0.018151361 0.057222817 -0.06723128 -0.052460823 0.038766533 -0.045564864 0.0828171 -0.029370327
-0.070690356 -0.053329777 -0.060118992 -0.037877835 0.07813443 -0.056095537 0.035834495 -0.07713611
0.0031183925 -0.007894715 -0.008553492 0.025201475 0.033265032 -0.040153366 -0.028383732 -0.055783838
0.056708403 0.008027826 0.045854475 -0.08490265 -0.0122608235 -0.036941964 -0.047154643 0.005867273
-0.026760066 -0.08075363 0.035971545 -0.060927894 0.018486261 -0.06391373 -0.04082059 -0.047738608
-0.027084375 -0.05238988 0.045038175 0.06352078 0.0040155724 -0.04901219 -0.00078781944 -0.012560972
-0.049965866 -0.07594167 0.07490263 -0.044049494 -0.032060865 0.06831729 -0.022137906 -0.013727302
0.05099697 -0.020403089 -0.04418467 0.017028075 -0.024832511 -0.00510451 -0.004711902 0.003785103
-0.0479203 -0.014766675 0.05283982 0.024600366 -0.059749078 0.028171532 -0.08534295 0.047239948
-0.00055612763 -0.017040635 -0.058708273 0.027819691 -0.034975383 -0.014458592 -0.05437466 -0.087606974
0.060457 0.019155204 -0.07385912 0.0017334366 0.03455092 -0.023714155 -0.03229103 -0.07950087
0.030978166 -0.030498207 -0.06272328 0.0729795 -0.07848736 -0.07152538 -0.03345874 -0.04408147
0.07367373 0.07756512 0.013329373 -0.0015633636 -0.0075807534 -0.07254801 -0.047877587 -0.008778366
-0.065709054 -0.018663226 0.009822807 0.014511318 0.07421566 -0.072243355 0.056553453 -0.0009627288
00000000: 9fb4 373d 7dea 6d3d e69c aebd 033f a9bd
00000010: 90f0 52bd 8b1c 5cbd 271c 93bb e04b 0ebd
00000020: ac64 d7bc ef8d 32bd fb22 b43d 7ffd 2d3d
00000030: e100 4f3b 3d75 bbbc f691 b3bc f3bf 71bd
00000040: d01e 353d 6f48 d7bb 2527 a63c 57b2 f5bc
00000050: 142b 80bd ce6e 42bd 6204 823d dbd9 f0bb
00000060: bf2b a7bd 6deb 02bd c562 f9bc a2ae 9fbd
00000070: 1207 9f3d d6ba bc3b 683d 243c cf21 093d
00000080: fdac f6bc 2681 523d edb5 973c e904 063c
00000090: ddb3 ae3c 88d6 3dbd 9dcc 4fbc 7169 25bb
000000a0: 4fb0 7b3d 9bf0 853d ed7c 333d 77f3 393d
000000b0: a849 7b3d 41a5 24bd 248a 113d ea38 af3d
000000c0: a8a9 75bd 2dc5 363d ca2c 46ba 8369 3e3d
000000d0: 08f4 ad3d 81b1 83bc b2e4 ad3d 315d 3c3d
000000e0: 17c4 d2bc e290 bfbc bf17 86bd d6c9 a8bc
000000f0: 12b2 94bd bed6 dabc 5ef5 52bd d36c 6a3d
00000100: ecd8 53bd 7d7c e93c 4ec3 48bd 3cb6 90bd
00000110: 5eeb 46bd f561 823d 856c 543d 82a7 00bd
00000120: fc74 e73b 25eb 0dbc bce5 edbc 4c70 93bd
00000130: 12de 14bd 1938 e0b9 be12 c1bc a00b f4bc
00000140: 4d49 9c3d 8f8b 1dbc 89f4 2f3d 78d6 79bc
00000150: bb57 063c 15dc e83c 624f 8d3c 9007 64bd
00000160: 7b6f 9f3d 87b8 a0bd d97a 5dbd 0d5f aabd
00000170: ecae 0d3d 56b5 d13c 1353 883d e005 31bd
00000180: b12a 8d3d ea2b 253d 20ee 853c 415d 873d
00000190: 6bc1 f8bb 8d48 e6bb 30d3 29bd ff66 78bd
000001a0: 098d 5d3b 76ca 42bd c623 6abd 56dc b23d
000001b0: 0b25 93bd 6435 b4bd dafe 3e3d a4e5 91bd
000001c0: 3628 a83d 4deb 3dbd a175 a03d 865f b03d
000001d0: d93c 47bc 41cf dabc 2ad6 6c3c 3362 a4bd
000001e0: 4278 893d 6742 783d 6ec7 dabc 6491 6bbd
000001f0: 28b7 32bd f613 853b 3840 a63d 682d 83bc
00000200: 13ba b3bd 8e02 673d 4f7d fdbc d93a aa3d
00000210: 99c7 0cbc 1ada dabc 566d ce3c e2a6 3abd
00000220: e01e b4bc 1f1b 853b c533 cb3c c749 293d
00000230: fcdf 6cbd a276 77bd f03e 5a3c 78b8 063c
00000240: 2ab2 943c 7962 6a3d 8eb0 89bd 29e1 56bd
00000250: a8c9 1e3d 39a2 3abd 039c a93d 0a9a f0bc
00000260: 1bc6 90bd 5370 5abd 553f 76bd ca25 1bbd
00000270: f204 a03d 6fc4 65bd 31c7 123d 89f9 9dbd
00000280: f25d 4c3b d658 01bc f223 0cbc 5373 ce3c
00000290: ea40 083d db77 24bd 0085 e8bc 987d 64bd
000002a0: 1247 683d 2587 033c e7d1 3b3d 71e1 adbd
000002b0: 9fe1 48bc 7550 17bd 3a25 41bd 4142 c03b
000002c0: ed37 dbbc 2962 a5bd e656 133d 878f 79bd
000002d0: 8070 973c 34e5 82bd 7e33 27bd 8f89 43bd
000002e0: 0de0 ddbc c596 56bd f379 383d 2f17 823d
000002f0: 1095 833b 02c1 48bd ab85 4eba 89cc 4dbc
00000300: 02a9 4cbd 4e87 9bbd 8d66 993d 3e6d 34bd
00000310: 4152 03bd efe9 8b3d 8e5a b5bc 7ae8 60bc
00000320: 33e2 503d 6124 a7bc fcfa 34bd 767e 8b3c
00000330: 8d6d cbbc bc43 a7bb 4c66 9abb 7e0f 783b
00000340: 1448 44bd edef 71bc 916e 583d b586 c93c
00000350: 73bb 74bd fcc7 e63c 49c8 aebd ad7e 413d
00000360: 18c9 11ba cd98 8bbc 1678 70bd 1fe6 e33c
00000370: 5942 0fbd bbe3 6cbc f7b7 5ebd 496b b3bd
00000380: c2a1 773d 60eb 9c3c 7343 97bd 7b34 e33a
00000390: 4485 0d3d 3044 c2bc 9943 04bd 5ad1 a2bd
000003a0: ecc5 fd3c 60d7 f9bc 1075 80bd 4776 953d
000003b0: fbbd a0bd e67b 92bd 080c 09bd c68e 34bd
000003c0: 41e2 963d 76da 9e3d 7163 5a3c c7e9 ccba
000003d0: f867 f8bb 0d94 94bd 4a1b 44bd 23d3 0fbc
000003e0: 7892 86bd 9fe3 98bc d7ef 203c e1c0 6d3c
000003f0: 61fe 973d 53f4 93bd 98a4 673d a35f 7cba

q_net.2.weight f4 [256, 256]
0.033244744 0.045377553 0.031679712 0.049809195 0.035573125 -0.02764301 -0.057167545 -0.05733241
0.0420701 -0.0035819486 0.031123303 -0.04588881 0.024505109 -0.010333277 0.004907541 -0.018986166
-0.009418681 -0.015066765 -0.017367333 -0.011639923 2.5972724e-05 0.018049143 0.05346629 0.014177419
-0.021578059 0.022458322 -0.02635172 0.039249554 -0.0044308677 0.061437145 0.048467375 0.03246299
0.021944046 0.04494086 0.01888644 -0.015975825 0.043366052 0.03494469 -0.037070468 -0.0011107326
0.038385525 -0.0613736 -0.02514679 -0.008410908 -0.027443744 -0.038335033 -0.034680806 -0.029635489
-0.04958225 0.030349433 -0.028770998 0.048271358 -0.021029495 -0.011040375 -0.016740851 0.028401338
0.042783536 -0.043791443 0.04009884 -0.03764473 -0.04301945 0.018531471 -0.059342556 -0.057398014
0.00032810122 -0.0537486 -0.014768638 0.022594288 0.0026891828 -0.05703017 -0.012429386 -0.04828716
0.008310653 -0.030045755 0.038108498 0.05745221 0.017949112 -0.05740211 0.05536583 -0.02877912
0.039633468 -0.047301456 -0.009425275 0.0069505945 -0.01757373 -0.047904283 0.016044147 -0.057003886
-0.0132379085 0.049950056 0.042938374 -0.021423168 0.033921733 -0.04333099 0.007979564 -0.059622675
0.0034408197 0.052014925 -0.019883096 -0.006874077 -0.025749572 0.015870675 -0.018078327 -0.037616804
-0.039893337 -0.037674405 0.040795185 -0.03571754 0.0071492568 0.05427725 -0.009102307 0.023021072
-0.04237537 0.014635779 0.04992123 0.04876163 -0.059207365 -0.04475081 0.0011556298 0.040897675
0.030972056 -0.0015285537 -0.01292377 -0.05090324 0.050729692 0.012912177 0.03474872 0.055592492
0.05087979 0.004694596 0.010704882 0.020409279 0.0084783435 -0.05416043 0.019275382 0.009078115
-0.03362205 0.0427036 0.0045698136 -0.008842222 0.053479716 -0.039357305 0.0031447709 0.02683691
-0.03787937 -0.054332912 0.0037997589 0.030271403 0.025772981 0.014348708 -0.02992069 0.008674696
0.017601177 -0.0017915964 0.0060875714 -0.022871174 0.05869069 0.0002182275 -0.011847675 -0.060868353
0.058894984 -0.030737408 -0.051415518 0.049445838 0.02275879 0.004652813 0.015524991 -0.036710285
-0.013226517 0.006370358 0.050895475 -0.047859825 -0.039112143 0.0561637 0.06021668 0.026155822
0.061886348 0.054063752 0.024670422 -0.020176612 -0.00019092113 0.039957672 0.04973758 -0.015479602
0.009286106 -0.055876784 -0.020186715 -0.0057267845 -0.01017119 0.018997736 -0.0033866912 -0.035205454
0.049743593 0.021617293 0.025441676 0.058937922 -0.036519937 -0.01467903 -0.02276174 -0.023623854
-0.04751601 0.010660715 0.010479748 -0.010306597 0.0480972 0.05396255 0.053505436 0.037162483
0.058418147 -0.04460194 0.051337183 -0.007481061 0.041971713 -0.0483054 -0.015068099 -0.05195164
-0.005605355 0.009269729 0.03291615 0.026074745 0.05219639 -0.02785325 0.050300695 -0.057944223
-0.0056319907 0.054409213 -0.035526536 0.029914595 0.029693782 0.062495925 -0.02530709 -0.0016613007
-0.02507785 -0.016735047 -0.014537647 -0.05422429 0.030317098 0.044127725 -0.0031647831 0.0358774
0.041567855 -0.013645932 0.041311726 -0.048989072 -0.062126324 -0.0077082515 -0.06162633 0.02372849
-0.059901424 -0.03212355 -0.052163407 0.03434203 -0.038469076 0.026203267 -0.0037060678 -0.053762726
00000000: a42b 083d d0dd 393d 96c2 013d ba04 4c3d
00000010: 20b5 113d 9873 e2bc 8428 6abd 64d5 6abd
00000020: b251 2c3d 20bf 6abb 4cf6 fe3c e8f5 3bbd
00000030: f0be c83c e84c 29bc 70cf a03b e088 9bbc
00000040: d050 1abc 98da 76bc f045 8ebc 60b5 3ebc
00000050: 00e0 d937 ccdb 933c 78ff 5a3d 6848 683c
00000060: 78c4 b0bc 84fa b73c 90df d7bc 24c4 203d
00000070: d030 91bb 84a5 7b3d ba85 463d eaf7 043d
00000080: 00c4 b33c e813 383d bcb7 9a3c bcdf 82bc
00000090: 9aa0 313d 2a22 0f3d 34d7 17bd 0096 91ba
000000a0: 243a 1d3d e262 7bbd a400 cebc e8cd 09bc
000000b0: b4d1 e0bc 3205 1dbd 760d 0ebd 20c6 f2bc
000000c0: c216 4bbd 609f f83c 28b1 ebbc 30b8 453d
000000d0: 0c46 acbc b0e2 34bc 1c24 89bc eca9 e83c
000000e0: ca3d 2f3d a85e 33bd ae3e 243d 5c31 1abd
000000f0: 2a35 30bd 50cf 973c 2e11 73bd 2e1a 6bbd
00000100: 0005 ac39 7e27 5cbd 28f8 71bc a817 b93c
00000110: 003d 303b 7898 69bd a0a4 4bbc c2c8 45bd
00000120: 6829 083c 8422 f6bc a817 1c3d 0253 6b3d
00000130: 040a 933c 7a1e 6bbd 48c7 623d 30c2 ebbc
00000140: b456 223d 2cbf 41bd 786c 1abc d0c1 e33b
00000150: c8f6 8fbc 4837 44bd 046f 833c e87c 69bd
00000160: d0e3 58bc 6e98 4c3d 26e0 2f3d a47f afbc
00000170: 84f1 0a3d d67b 31bd b8bc 023c e836 74bd
00000180: 607f 613b 9a0d 553d e0e1 a2bc f03f e1bb
00000190: c4f0 d2bc 3803 823c 0019 94bc 1414 1abd
000001a0: 3267 23bd 7a50 1abd da18 273d 8e4c 12bd
000001b0: 5044 ea3b d251 5e3d d821 15bc b096 bc3c
000001c0: cc91 2dbd e8ca 6f3c 347a 4c3d 46ba 473d
000001d0: 6c83 72bd a04c 37bd 8078 973a 5284 273d
000001e0: 1cb9 fd3c c059 c8ba 38be 53bc ea7f 50bd
000001f0: f0c9 4f3d 988d 533c ac54 0e3d f4b4 633d
00000200: 5467 503d 20d5 993b 8863 2f3c 5c31 a73c
00000210: c0e8 0a3c 54d7 5dbd 68e7 9d3c 60bc 143c
00000220: 46b7 09bd f8e9 2e3d 60be 953b f8de 10bc
00000230: 8c0d 5b3d 2035 21bd 8018 4e3b 14d9 db3c
00000240: 6627 1bbd 308c 5ebd 6005 793b bcfb f73c
00000250: dc21 d33c d816 6b3c 3c1c f5bc 5020 0e3c
00000260: 5830 903c 00d4 eaba 407a c73b 545c bbbc
00000270: a665 703d 00d4 6439 c01c 42bc 1851 79bd
00000280: de3b 713d 04cd fbbc 1499 52bd b887 4a3d
00000290: a470 ba3c a076 983b 885c 7e3c 865d 16bd
000002a0: 08b4 58bc 70be d03b c677 503d aa08 44bd
000002b0: 0e34 20bd e80b 663d c4a5 763d bc44 d63c
000002c0: 8a7c 7d3d f471 5d3d a019 ca3c 6c49 a5bc
000002d0: 0032 48b9 a8aa 233d a2b9 4b3d 289e 7dbc
000002e0: c024 183c 0edf 64bd 9c5e a5bc c0a7 bbbb
000002f0: 10a5 26bc 24a1 9b3c 40f3 5dbb 9833 10bd
00000300: f0bf 4b3d c016 b13c 106b d03c e468 713d
00000310: ee95 15bd 5080 70bc d476 babc d086 c1bc
00000320: 26a0 42bd 48aa 2e3c 40b3 2b3c 00dd 28bc
00000330: 9201 453d d607 5d3d 8428 5b3d b037 183d
00000340: de47 6f3d 86b0 36bd f046 523d b023 f5bb
00000350: 88ea 2b3d e2db 45bd 30e0 76bc 3ecb 54bd
00000360: 20ad b7bb 10e0 173c 16d3 063d b49a d53c
00000370: e2cb 553d 802c e4bc 1a08 4e3d ec56 6dbd
00000380: 908c b8bb 32dc 5e3d 4684 11bd 740f f53c
00000390: 6040 f33c bafb 7f3d d050 cfbc 00c0 d9ba
000003a0: 1070 cdbc f017 89bc 502f 6ebc 4a1a 5ebd
000003b0: 905b f83c 46bf 343d 4068 4fbb 2ef4 123d
000003c0: 0e43 2a3d 3093 5fbc 7c36 293d c4a8 48bd
000003d0: 2c78 7ebd 8095 fcbb e46b 7cbd 4062 c23c
000003e0: 325b 75bd fc93 03bd 4ca9 55bd 3aaa 0c3d
000003f0: c091 1dbd 3ca8 d63c 80e1 72bb 4e36 5cbd

q_net.2.bias f4 [256]
-0.04899881 -0.0012994632 -0.003186196 0.051743783 -0.018257499 -0.030173361 0.009137295 0.052209295
0.055858262 -0.039944567 -0.03265035 0.00948599 0.044002183 0.044840537 0.00077895075 0.00023119152
0.027043968 0.05117522 -0.05609677 -0.0025885329 0.055301517 -0.013373315 0.006754957 -0.056802526
0.03478042 -0.02670163 -0.021696001 0.042023152 0.017858736 -0.030439414 -0.055040903 0.054354377
0.018850751 0.042847276 -0.03147845 0.058528468 0.044348963 -0.049610317 0.03781818 -0.042860672
-0.043252684 -0.061930917 -0.054608107 -0.047445364 -0.0035615042 -0.022039704 -0.015357062 0.061370388
0.032829583 0.008145824 -0.01197499 0.04667552 0.00054615736 -0.021996707 0.010671757 -0.03479904
-0.05926399 -0.0032188073 0.029657356 0.011667781 -0.061859086 -0.004746452 -0.04122299 -0.050947152
0.044912837 -0.025321878 0.0416068 0.0019477159 0.0040595233 0.018364243 0.054195203 0.04399988
-0.0075985193 0.050877266 0.047676228 -0.007297665 0.049067296 0.049247906 0.037236698 0.010560244
-0.026985638 -0.0016275123 0.037588276 0.03425301 0.038619958 0.026290856 -0.045622528 -0.04478562
-0.007226683 0.010233104 -0.021912247 -0.009371765 -0.03842148 0.018444344 -0.029223122 -0.041901544
0.03275633 0.045278102 -0.027699105 -0.028906606 -0.043208905 0.02145172 0.00075832754 -0.011914037
-0.010784842 -0.030055806 -0.012021832 0.05140777 0.057951428 0.014239691 0.05136227 0.013510227
0.0553229 0.02117686 0.05126346 0.056428075 0.05642076 -0.017074943 -0.04859885 0.043292865
0.06186124 -0.03520728 -0.058545418 -0.060578734 0.020909198 0.010319047 -0.019159451 -0.010276087
-0.049903452 0.057754718 -0.048046976 -0.024028763 -0.0366515 0.043829754 0.025241867 -0.010539845
-0.032547988 -0.053941943 -0.0458254 -0.029417366 0.060841195 0.039965674 -0.05038528 -0.015684746
-0.012933612 -0.060034834 0.045601353 0.022726238 -0.05530355 0.035474338 0.035479054 -0.0021297783
0.040761374 -0.044031836 -0.033352733 -0.04480704 -0.007262148 0.030609436 -0.043940626 -0.03640919
-0.05647947 0.032183923 0.038664445 -0.04628504 0.044955738 0.005500093 0.0004522279 -0.0597004
-0.031110294 -0.046651438 -0.041309178 0.017824553 -0.0360512 -0.0075439587 -0.0031075925 0.0003190413
-0.058828965 0.012278751 -0.036306754 1.2397766e-05 -0.029972017 0.026597008 0.039962336 -0.0108052865
0.029499598 0.020768985 0.0560927 -0.000116333365 -0.010096855 0.021925114 -0.047539063 -0.05531192
0.045062974 -0.01567021 0.007117532 -0.046511874 0.00701192 0.007972188 0.045509405 -0.013396107
0.020198978 0.055173375 0.0543819 0.040192068 -0.05011011 0.00807631 -0.062137812 0.02216062
-0.03069888 -0.042160258 -0.025506884 0.047638014 -0.03844756 -0.032704502 -0.01993958 0.049388066
-0.022786006 0.05447951 -0.009475239 0.03652829 -0.02216965 0.04806237 0.036538787 0.010245107
-0.025248796 -0.021513201 -0.04099022 -0.055702135 0.05061368 -0.0581887 -0.055370055 0.05906909
0.021097451 -0.027246587 0.021260716 -0.04614982 -0.019885123 0.06161727 -0.01080779 -0.026489764
0.015453018 0.012132831 0.03889724 0.035618693 -0.0479884 -0.0054699406 -0.009267457 0.03166096
-0.030808501 -0.020351209 -0.012457907 -0.051096693 0.029573262 -0.00089529157 -0.022345439 -0.058093436
00000000: fab2 48bd c052 aaba 80cf 50bb 4af1 533d
00000010: c090 95bc 202e f7bc 98b4 153c 6ad9 553d
00000020: a2cb 643d ea9c 23bd 60bc 05bd 206b 1b3c
00000030: a23b 343d b6aa 373d 8032 4c3a 006c 7239
00000040: 508b dd3c 1c9d 513d bac5 65bd 60a4 29bb
00000050: d883 623d c01b 5bbc b058 dd3b c4a9 68bd
00000060: ea75 0e3d 60bd dabc d0bb b1bc 7820 2c3d
00000070: 7c4c 923c 145c f9bc 9272 61bd b2a2 5e3d
00000080: e46c 9a3c a080 2f3d 8cef 00bd 8cbb 6f3d
00000090: 42a7 353d 3034 4bbd 3ce7 1a3d ac8e 2fbd
000000a0: ba29 31bd 46ab 7dbd c0ac 5fbd 1256 42bd
000000b0: 2068 69bb 9c8c b4bc 309c 7bbc 845f 7b3d
000000c0: 5078 063d 1076 053c c032 44bc d42e 3f3d
000000d0: 002c 0f3a 7032 b4bc 98d8 2e3c 7089 0ebd
000000e0: ccbe 72bd a0f2 52bb fcf3 f23c 382a 3f3c
000000f0: f45f 7dbd 2088 9bbb 70d9 28bd f6ad 50bd
00000100: 86f6 373d d46f cfbc e46b 2a3d 804a ff3a
00000110: c005 853b 9c70 963c cafb 5d3d 3839 343d
00000120: 00fd f8bb ae64 503d 2648 433d 4021 efbb
00000130: cafa 483d 2cb8 493d 8285 183d e004 2d3c
00000140: fc10 ddbc 4052 d5ba 2af6 193d e24c 0c3d
00000150: f62f 1e3d ec5f d73c b0de 3abd 2071 37bd
00000160: d0cd ecbb c0a8 273c 5081 b3bc 088c 19bc
00000170: d85f 1dbd 9818 973c 5465 efbc f4a0 2bbd
00000180: 802b 063d 8875 393d 3ce9 e2bc 8ccd ecbc
00000190: d2fb 30bd 84bb af3c 80ca 463a 1833 43bc
000001a0: e8b2 30bc 9837 f6bc 38f7 44bc f490 523d
000001b0: 7a5e 6d3d 984d 693c 3e61 523d 005a 5d3c
000001c0: 449a 623d 187b ad3c a2f9 513d 2021 673d
000001d0: 7419 673d c0e0 8bbc 960f 47bd dc53 313d
000001e0: 3662 7d3d 8235 10bd 52cd 6fbd 6821 78bd
000001f0: c449 ab3c 3811 293c 48f4 9cbc 085d 28bc
00000200: 9067 4cbd 3690 6c3d e8cc 44bd f8d7 c4bc
00000210: e21f 16bd d486 333d 08c8 ce3c 50af 2cbc
00000220: 0a51 05bd 3af2 5cbd 6ab3 3bbd b0fc f0bc
00000230: 9e34 793d 0cb3 233d cc60 4ebd 4c7d 80bc
00000240: 80e7 53bc 16e7 75bd 7cc8 3a3d 602c ba3c
00000250: fa85 62bd 8a4d 113d 7c52 113d c093 0bbb
00000260: 66f5 263d ba5a 34bd e09c 08bd 9687 37bd
00000270: 50f7 edbb a4c0 fa3c 16fb 33bd ce21 15bd
00000280: 0457 67bd 4ad3 033d 9c5e 1e3d 6295 3dbd
00000290: 8223 383d 203a b43b 0019 ed39 6888 74bd
000002a0: 04db febc 9415 3fbd d033 29bd cc04 923c
000002b0: 6caa 13bd 5033 f7bb c0a8 4bbb 0045 a739
000002c0: a4f6 70bd d02c 493c 64b6 14bd 0000 5037
000002d0: e087 f5bc f8e1 d93c 8caf 233d a808 31bc
000002e0: 24a9 f13c b823 aa3c 76c1 653d 00f8 f3b8
000002f0: 486d 25bc 4c9c b33c 52b8 42bd c08e 62bd
00000300: f493 383d d05e 80bc 303a e93b 3c83 3ebd
00000310: 40c4 e53b c89d 023c 1268 3a3d 587b 5bbc
00000320: 5478 a53c 7afd 613d 8ebf 5e3d 70a0 243d
00000330: 4240 4dbd 8052 043c 3884 7ebd 308a b53c
00000340: 387c fbbc 3cb0 2cbd d0f3 d0bc 1420 433d
00000350: 307b 1dbd 28f5 05bd 5458 a3bc 244b 4a3d
00000360: b8a9 babc e825 5f3d 083e 1bbc b09e 153d
00000370: 209d b5bc 0cdd 443d b2a9 153d 18db 273c
00000380: 90d6 cebc 743c b0bc 5ce5 27bd ec27 64bd
00000390: 4a50 4f3d 4657 6ebd b6cb 62bd 6ef2 713d
000003a0: 90d4 ac3c 3c34 dfbc f42a ae3c 9807 3dbd
000003b0: 20e6 a2bc 6462 7c3d 2813 31bc 1001 d9bc
000003c0: a82e 7d3c c8c8 463c b652 1f3d e8e4 113d
000003d0: 7c8f 44bd 303d b3bb 88d6 17bc ecae 013d
000003e0: 1c62 fcbc 94b7 a6bc 401c 4cbc c44a 51bd
000003f0: a043 f23c 00b2 6aba c80d b7bc 62f3 6dbd

q_net.3.weight f4 [128, 256]
-0.060459316 -0.05568464 0.0332338 -0.05131653 0.010251895 0.008321993 0.04458677 -0.05710925
0.04538294 0.0147572905 0.023442738 0.0070712045 0.053774916 0.0064950734 0.027889147 -0.018433727
-0.055088386 -0.05418676 0.052286297 -0.0018597618 -0.047061875 0.0126411095 -0.045254804 -0.06119103
0.0015052408 0.022531189 0.057054155 -0.00043842942 0.011926807 -0.01107496 -0.057993963 -0.025555648
-0.020994931 -0.017310277 0.04107441 -0.02942536 0.018420368 0.043910414 -0.009431899 -0.05419442
0.029262006 0.018461697 0.016297221 0.019041203 0.042769216 -0.06178256 -0.022561915 0.04932014
0.017428964 0.053291395 0.015695512 0.039792858 0.04251051 -0.04468403 -0.051782936 -0.032595143
0.0446171 0.037688673 0.022811979 -0.04608489 -0.011758506 0.037168026 0.022183746 0.018487878
0.011135466 0.020034835 0.026384994 -0.020596601 0.011253811 -0.011702277 -0.005353518 0.053686813
-0.032341875 0.05969309 -0.009120189 0.016005427 0.034238808 0.01961799 -0.051296838 0.006940119
-0.022777379 0.02780383 0.004041098 -0.012261026 -0.00041104853 -0.0008629337 0.037430108 -0.0032593086
-0.0142093 -0.04557942 -0.0031825453 0.012670226 -0.012353845 -0.007919215 -0.007492207 -0.047646336
-0.059103012 0.027587876 -0.06111277 -0.013806097 0.019916356 -0.013943315 0.0013567209 -0.044916794
0.039202392 0.056909025 -0.04184641 0.058918767 0.004667096 0.062365606 -0.011836201 -0.008746751
0.047410525 -0.031637006 -0.032883085 -0.04805784 -0.03205064 0.052848898 -0.006144978 -0.012817726
0.05064261 0.023358762 -0.035800718 0.031788506 0.02968616 0.045274146 -0.0056635216 -0.011348709
0.032449774 0.040627822 0.025420569 0.035789236 0.059556387 0.0031500459 0.058284037 0.03579011
0.03938079 0.04441446 -0.056911856 -0.00729464 -0.047105424 -0.034109183 -0.055416264 0.038075455
0.0443229 -0.009801239 0.04955668 -0.008544467 0.000587523 -0.012824334 -0.008600257 0.030429214
-0.017214984 0.049574733 -0.020187184 -0.0068949834 -0.050827533 0.03437119 0.010558657 0.050142683
0.029395655 -0.010166936 -0.029053092 -0.06172964 -0.012416825 0.011144243 0.019614324 0.03672894
-0.014862634 -0.03087037 0.0115348175 -0.019504212 -0.058899634 0.0224173 0.010750487 -0.038191862
-0.016527995 0.0042657405 -0.048791505 0.001703918 0.061400145 0.035974316 -0.010553211 0.028259031
-0.013951324 -0.04573548 -0.0032493845 0.018616132 -0.04903157 0.04090269 0.005561903 0.011509232
0.047223248 -0.040290922 -0.016031116 -0.02359049 -0.019426055 -0.04051517 -0.03056094 0.02971261
0.0486947 -0.047333226 -0.0030750781 -0.0021392107 0.024015315 0.013963461 -0.017379977 -0.026487611
0.035636388 -0.059392028 0.0194529 0.026657611 -0.056629926 0.012299389 0.0072111413 0.03314054
-0.02741237 -0.035327733 0.0508556 0.06240318 0.05925466 -0.019126572 0.03544131 0.05279494
-0.058290817 -0.019030318 0.015963137 -0.0014869571 0.01045648 -0.03178834 -0.060403205 0.013153829
-0.02903454 0.005985111 0.02250269 -0.0592938 -0.05438406 -0.027539343 -0.027990513 0.0017103329
0.008635156 0.056005597 -0.032697514 0.044552796 0.028511606 0.0330099 -0.05368437 -0.053957254
0.04955992 -0.013437681 -0.040687054 -0.04124672 0.00015494972 -0.05010671 -0.003878422 -0.022053942
00000000: 30a4 77bd 9415 64bd 2a20 083d 4831 52bd
00000010: 90f7 273c f858 083c 9ea0 363d 64eb 69bd
00000020: 76e3 393d 90c8 713c fc0a c03c 90b5 e73b
00000030: 1643 5c3d a0d4 d43b c877 e43c 5402 97bc
00000040: 5ca4 61bd f0f2 5dbd 282a 563d 40c3 f3ba
00000050: f4c3 40bd a81c 4f3c 1a5d 39bd 72a3 7abd
00000060: 804b c53a 5493 b83c 9eb1 693d 00dd e5b9
00000070: a868 433c c073 35bc 148b 6dbd 145a d1bc
00000080: 90fd abbc 48ce 8dbc a43d 283d 740d f1bc
00000090: 50e6 963c 68db 333d 4088 1abc f8fa 5dbd
000000a0: e0b6 ef3c fc3c 973c c081 853c 4cfc 9b3c
000000b0: c62e 2f3d b60f 7dbd c4d3 b8bc ea03 4a3d
000000c0: 30c7 8e3c 1448 5a3d e093 803c d6fd 223d
000000d0: 801f 2e3d 9a06 37bd 581a 54bd 7c82 05bd
000000e0: 6cc0 363d 705f 1a3d 30e0 ba3c 82c3 3cbd
000000f0: c0a6 40bc 803d 183d b0ba b53c e473 973c
00000100: 8871 363c 1820 a43c 5825 d83c 34ba a8bc
00000110: e861 383c e8ba 3fbc 906c afbb b4e6 5b3d
00000120: ea78 04bd be80 743d d86c 15bc d01d 833c
00000130: fe3d 0c3d e8b5 a03c a21c 52bd f069 e33b
00000140: a097 babc dcc4 e33c 306b 843b 78e2 48bc
00000150: 0082 d7b9 8036 62ba 5050 193d 209a 55bb
00000160: 20ce 68bc 7cb1 3abd 4092 50bb c896 4f3c
00000170: c867 4abc 98bf 01bc 3081 f5bb ce28 43bd
00000180: 0016 72bd f8ff e13c 6251 7abd f832 62bc
00000190: a027 a33c 8072 64bc 00d4 b13a acfa 37bd
000001a0: b092 203d 7019 693d 2467 2bbd ce54 713d
000001b0: 70ee 983b 1473 7f3d a0ec 41bc 884e 0fbc
000001c0: 8a31 423d ce95 01bd 6ab0 06bd 4cd8 44bd
000001d0: 8847 03bd 1678 583d d05b c9bb 7001 52bc
000001e0: a06e 4f3d e05a bf3c c6a3 12bd aa34 023d
000001f0: 6430 f33c 6271 393d 1095 b9bb f0ef 39bc
00000200: 0eea 043d 5c69 263d cc3e d03c bc97 123d
00000210: 66f1 733d 0071 4e3b 3ebb 6e3d a698 123d
00000220: c04d 213d f0eb 353d 681c 69bd e007 efbb
00000230: 9ef1 40bd 12b6 0bbd 2afc 62bd 02f5 1b3d
00000240: ee8b 353d 6095 20bc f2fb 4a3d 18fe 0bbc
00000250: 0004 1a3a 281d 52bc 18e8 0cbc b046 f93c
00000260: 7006 8dbc e00e 4b3d 985f a5bc 50ef e1bb
00000270: 8830 50bd cec8 0c3d 38fe 2c3c 6a62 4d3d
00000280: 28cf f03c 3893 26bc c000 eebc 38d8 7cbd
00000290: f06f 4bbc 5896 363c 38ae a03c 1671 163d
000002a0: 6882 73bc dce3 fcbc 88fc 3c3c 4cc7 9fbc
000002b0: be40 71bd 7ca4 b73c d022 303c 126f 1cbd
000002c0: b865 87bc a0c7 8b3b 9ad9 47bd 0056 df3a
000002d0: b87e 7b3d ce59 133d 60e7 2cbc 7c7f e73c
000002e0: 1894 64bc 2055 3bbd a0f3 54bb dc80 983c
000002f0: 54d5 48bd 9489 273d a040 b63b 3891 3c3c
00000300: 2a6d 413d 1808 25bd b053 83bc d840 c1bc
00000310: 6423 9fbc 3cf3 25bd f05a fabc dc67 f33c
00000320: 1874 473d 7ce0 41bd 4087 49bb 0032 0cbb
00000330: c4bb c43c 00c7 643c 7460 8ebc 8cfc d8bc
00000340: 76f7 113d 0e45 73bd b05b 9f3c 1061 da3c
00000350: c8f4 67bd 6083 493c 704b ec3b 60be 073d
00000360: e88f e0bc d0b3 10bd f64d 503d 7a9a 7f3d
00000370: 04b5 723d 54af 9cbc e82a 113d 823f 583d
00000380: 5ac2 6ebd 78e5 9bbc 20c5 823c 00e6 c2ba
00000390: a851 2b3c 7e34 02bd 5a69 77bd 2883 573c
000003a0: d8d9 edbc c01e c43b 9057 b83c 0ede 72bd
000003b0: d2c1 5ebd 309a e1bc 5c4c e5bc 402d e03a
000003c0: 787a 0d3c 2066 653d d4ed 05bd fe7c 363d
000003d0: 2c91 e93c 6435 073d 24e4 5bbd 4802 5dbd
000003e0: 58ff 4a3d b829 5cbc 78a7 26bd 52f2 28bd
000003f0: 007a 2239 b23c 4dbd 202d 7ebb 78aa b4bc

q_net.3.bias f4 [128]
-0.03906054 -0.026995227 -0.046575837 0.011151873 -0.030407578 -0.04002303 0.009792626 0.00988058
0.036023922 -0.029730216 0.042856827 -0.012350477 0.028450526 0.055478454 -0.04207935 0.04986012
0.03158509 -0.013663493 0.012448721 0.03714133 0.0007878393 -0.047576614 0.037695736 -0.04768081
0.03933818 0.04758116 0.02430889 -0.0014948472 0.022984356 -0.032208018 0.039045162 -0.014836244
-0.05714503 -0.014428191 -0.017672658 -0.038604833 -0.03797777 0.061343573 -0.02575934 -0.0019454882
0.055775292 0.049791805 0.046559937 0.027929008 0.0419835 0.0069912076 0.0042159855 -0.05507292
-0.028433397 0.0008038655 0.06021054 0.022504143 -0.03792283 -0.05088052 -0.0014303252 -0.02132602
-0.0027310401 0.03285788 0.033813387 -0.022954814 -0.027826168 -0.022548571 -0.026212074 0.04502224
-0.011228971 -0.031399935 0.013487585 -0.020409845 0.0023255274 -0.024657458 -0.030969277 -0.015700512
-0.026751488 -0.01940824 -0.007603124 0.0344053 0.031250507 0.014588796 -0.007674277 0.03930609
0.027401544 -0.017071418 -0.059418686 0.020590298 0.012303457 -0.014331616 0.019897848 -0.0442044
0.03955713 0.053765357 0.05589009 0.013094217 0.045435138 0.048969433 0.043478936 -0.00544551
0.048232675 0.015301481 0.01692833 0.022363663 0.0062971115 -0.04028056 -0.042798825 0.039394975
-0.02322647 -0.05528345 0.027378984 -0.018355757 -0.040048376 0.051447578 0.061790235 -0.02748651
0.046267174 -0.049925506 0.0024015456 0.017944343 0.0289018 0.0257046 -0.011306867 -0.019667692
-0.052530266 0.052984156 -0.027785264 -0.04901427 -0.053780086 0.051449947 0.045707166 0.027559943
00000000: f2fd 1fbd 1825 ddbc 4ec6 3ebd 58b6 363c
00000010: 5019 f9bc 30ef 23bd 4071 203c 28e2 213c
00000020: d28d 133d c88c f3bc a48a 2f3d a859 4abc
00000030: 1411 e93c 603d 633d 665b 2cbd 203a 4c3d
00000040: 5e5f 013d d8dc 5fbc b8f5 4b3c 8221 183d
00000050: 0087 4e3a b2df 42bd d866 1a3d f44c 43bd
00000060: 1221 213d 76e4 423d 7023 c73c c0ee c3ba
00000070: b049 bc3c 8eec 03bd d2ed 1f3d b813 73bc
00000080: e810 6abd 3864 6cbc 40c6 90bc 1a20 1ebd
00000090: 948e 1bbd 6643 7b3d 4005 d3bc c0ff feba
000000a0: a274 643d 7ef2 4b3d a2b5 3e3d 60cb e43c
000000b0: e4f6 2b3d 8016 e53b 4026 8a3b 2494 61bd
000000c0: 28ed e8bc 80ba 523a 549f 763d 9c5a b83c
000000d0: f854 1bbd 1868 50bd c079 bbba e8b3 aebc
000000e0: 40fb 32bb fc95 063d e87f 0a3d bc0b bcbc
000000f0: b4f3 e3bc c8b7 b8bc b4ba d6bc 3e69 383d
00000100: b8f9 37bc 389d 00bd 08fb 5c3c 8c32 a7bc
00000110: e067 183b 70fe c9bc 48b3 fdbc 5c9e 80bc
00000120: f025 dbbc 08fe 9ebc a023 f9bb 92ec 0c3d
00000130: 8800 003d d805 6f3c 8078 fbbb 6cff 203d
00000140: 3479 e03c 5cd9 8bbc 0261 73bd fcac a83c
00000150: 7094 493c 28cf 6abc d000 a33c ac0f 35bd
00000160: a806 223d 1039 5c3d 02ed 643d 2089 563c
00000170: 321a 3a3d 2c94 483d f816 323d 4070 b2bb
00000180: a08f 453d 10b3 7a3c 48ad 8a3c 0034 b73c
00000190: 0058 ce3b 3afd 24bd d24d 2fbd a05c 213d
000001a0: 7045 bebc e670 62bd e449 e03c d05e 96bc
000001b0: c409 24bd b2ba 523d c217 7d3d 642b e1bc
000001c0: a682 3d3d b07e 4cbd 4063 1d3b 0400 933c
000001d0: 78c3 ec3c 7492 d23c 7040 39bc 241e a1bc
000001e0: fa29 57bd ea05 593d ec9d e3bc 30c3 48bd
000001f0: 8248 5cbd 2ebd 523d 7037 3b3d 64c5 e13c
