models/q_net.pth (torch, 541148 bytes, 10 tensors)

0.weight f4 [128, 17]
-0.11687097 -0.09242392 -0.109254755 -0.07643985 0.120705895 0.21057 0.23457439 -0.07584899
-0.045447934 0.08950385 -0.15092842 0.029254764 -0.019728994 0.0020138423 0.08146371 -0.04357313
0.039045464 0.013286103 -0.17569801 0.021846255 -0.0011388344 0.024612082 0.19661029 0.11659049
-0.16855484 0.18162274 0.036861237 -0.039859813 0.17726406 0.1846931 0.14164464 0.1763225
-0.20205596 0.09339521 0.08809121 -0.1601383 -0.010933406 -0.08134598 -0.03812642 -0.20646665
-0.22034028 0.09344245 0.13341574 0.21889882 0.23468807 -0.14671911 0.10516482 -0.080983676
0.22834912 0.18975143 -0.054605737 -0.16934481 0.17631492 0.17173342 0.06437261 -0.14308214
0.211488 -0.05325772 0.112966426 -0.061273824 -0.09703258 0.21901114 0.047164064 -0.07086896
0.017685112 -0.100559205 -0.07424568 -0.10106882 0.14294894 -0.1266641 0.15239848 0.21127088
0.211341 0.18063185 0.20456079 0.06946633 0.0032230786 -0.15243652 0.036911026 0.04259366
-0.08267029 0.10179533 0.015056646 -0.22731249 -0.11657268 -0.17293942 0.23661515 -0.13267581
0.057220526 -0.005529429 0.053342115 -0.057467494 0.14877823 0.17348674 0.14360997 -0.054424483
0.12188272 0.20857665 0.1947519 -0.063682064 -0.048333544 -0.03306107 -0.040078245 0.03701595
-0.13109323 -0.19916525 -0.02841665 -0.1650864 -0.07450447 0.033734582 -0.03475586 -0.054801617
0.08031155 0.18358424 0.10148142 -0.0034571541 -0.025011595 -0.0121907815 -0.19371866 -0.059864514
-0.2420656 -0.14935856 -0.22663791 0.11203949 -0.17068096 0.0712927 0.20751168 0.020505091
-0.078211896 -0.18141209 0.21346584 -0.0003631988 0.22541668 0.09212745 -0.0046746307 0.12363332
0.18367532 0.17638677 0.22426067 -0.22987308 -0.22607024 -0.075806 0.12104056 -0.1861975
-0.033124965 0.12844852 0.17672826 -0.21513641 -0.15736888 0.08654439 0.103875294 0.11521672
0.17220142 -0.044339832 -0.13800818 0.20746423 0.055959765 -0.05857337 -0.04570667 0.07838346
-0.0051402086 -0.2242319 -0.11706925 -0.122138165 -0.13000311 -0.17997557 0.11121638 0.037650175
0.212002 -0.059895076 -0.18741629 0.1054381 -0.17420712 -0.00654978 -0.1355045 0.00813881
-0.23415545 0.10212999 -0.122855484 0.21654019 0.17093463 0.15891677 -0.23078446 0.18703882
0.12900448 -0.12450289 -0.22455236 -0.19166413 -0.010070079 -0.09412062 -0.13869286 -0.1826873
0.14566149 -0.021848366 0.20417787 0.042728625 0.08274471 0.042042967 0.08788486 0.09992457
0.06165061 -0.21968783 0.12323227 0.12304448 0.22973351 0.22766928 -0.1273418 -0.076995924
-0.15439694 -0.16977015 0.07737627 0.0548752 -0.123613596 0.03931932 0.18194807 -0.005049568
0.08624844 -0.121093035 0.030438038 0.05854894 0.034141034 0.21778099 -0.123545595 0.028777247
-0.15254873 0.10838142 -0.13521324 0.047373593 -0.14272065 -0.037680272 0.1433479 0.22720505
0.030085074 0.017666463 -0.05808735 0.22490177 0.2185295 0.12632889 -0.13749544 -0.12252843
-0.0843157 -0.105389066 -0.0027228056 -0.09082546 -0.23486435 0.11986263 0.025404314 -0.1219694
0.098134056 0.16798396 0.20149913 0.15782925 -0.047776256 -0.2370793 -0.10571454 0.121260695
00000000: 0c5a efbd c148 bdbd f5c0 dfbd 7f8c 9cbd
00000010: a734 f73d a99f 573e 4534 703e b756 9bbd
00000020: 9d27 3abd cb4d b73d fb8c 1abe b0a7 ef3c
00000030: b39e a1bc abfa 033b 72d6 a63d bd79 32bd
00000040: 23ee 1f3d f4ad 593c 2eea 33be ebf6 b23c
00000050: f144 95ba 479f c93c 3554 493e ffc6 ee3d
00000060: a499 2cbe 50fb 393e cffb 163d 0b44 23bd
00000070: b684 353e 3020 3d3e 4b0b 113e e38d 343e
00000080: c2e7 4ebe fd45 bf3d 2a69 b43d 4bfb 23be
00000090: 0722 33bc b998 a6bd 732a 1cbd fe6b 53be
000000a0: e2a0 61be c15e bf3d 239e 083e 0327 603e
000000b0: 1252 703e 893d 16be a760 d73d c5da a5bd
000000c0: 5ad4 693e 334e 423e 44aa 5fbd ba68 2dbe
000000d0: e68b 343e e3da 2f3e c9d5 833d 2084 12be
000000e0: 4f90 583e c424 5abd f15a e73d 43fa 7abd
000000f0: 04b9 c6bd 7544 603e 1b2f 413d bf23 91bd
00000100: 5ee0 903c fcf1 cdbd 1e0e 98bd 2bfd cebd
00000110: 3561 123e 3cb4 01be 590e 1c3e 6557 583e
00000120: c669 583e 8ef7 383e 6278 513e 5d44 8e3d
00000130: 493a 533b 5218 1cbe 0430 173d b176 2e3d
00000140: 0a4f a9bd 127a d03d 27b0 763c 9bc4 68be
00000150: a8bd eebd 0817 31be 3e4b 723e 2bdc 07be
00000160: 1260 6a3d 3630 b5bb 437d 5a3d 0963 6bbd
00000170: 5259 183e 82a6 313e 7e0e 133e 35ec 5ebd
00000180: a69d f93d 1e95 553e 0b6d 473e be6b 82bd
00000190: 65f9 45bd 0b6b 07bd 1629 24bd 099e 173d
000001a0: 4e3d 06be faf1 4bbe 09ca e8bc 690c 29be
000001b0: cd95 98bd 462d 0a3d 295c 0ebd a977 60bd
000001c0: 627a a43d 82fd 3b3e 7ed5 cf3d 6c91 62bb
000001d0: 1ee5 ccbc d8bb 47bc 2f5e 46be 7e34 75bd
000001e0: 0be0 77be 73f1 18be c513 68be f674 e53d
000001f0: fdc6 2ebe e801 923d f17d 543e 4bfa a73c
00000200: 8f2d a0bd 17c4 39be ca96 5a3e b86b beb9
00000210: a1d3 663e 51ad bc3d a52d 99bb 7733 fd3d
00000220: 6215 3c3e bc9e 343e 97a4 653e d963 6bbe
00000230: f57e 67be 2d40 9bbd 1de4 f73d 8faa 3ebe
00000240: 0bae 07bd 0288 033e 41f8 343e b84c 5cbe
00000250: 4f25 21be 2f3e b13d 92bc d43d bef6 eb3d
00000260: 9255 303e af9d 35bd 0452 0dbe 8171 543e
00000270: 1136 653d a1ea 6fbd eb36 3bbd 8287 a03d
00000280: 326f a8bb 0c9d 65be 01c2 efbd 9323 fabd
00000290: 891f 05be 844b 38be 6ac5 e33d 1237 1a3d
000002a0: 0d17 593e 8a54 75bd 0eea 3fbe eeef d73d
000002b0: 5a63 32be 899f d6bb b1c1 0abe a558 053c
000002c0: 72c6 6fbe 8729 d13d a89b fbbd b6bc 5d3e
000002d0: 7d09 2f3e 14bb 223e c352 6cbe 1b87 3f3e
000002e0: c019 043e 5ffb febd 0ef1 65be 9a43 44be
000002f0: f9fc 24bc 50c2 c0bd 8005 0ebe 6112 3bbe
00000300: 4928 153e 58fb b2bc 0114 513e 3604 2f3d
00000310: 0f76 a93d 3f35 2c3d fafc b33d 41a5 cc3d
00000320: 5a85 7c3d d9f5 60be 3361 fc3d bffe fb3d
00000330: 433f 6b3e 2322 693e e465 02be 0ab0 9dbd
00000340: 3b1a 1ebe 3ad8 2dbe 7377 9e3d d1c4 603d
00000350: 2029 fdbd 4c0d 213d 9850 3a3e d976 a5bb
00000360: 06a3 b03d a0ff f7bd 3159 f93c 03d1 6f3d
00000370: 78d7 0b3d fb01 5f3e 7905 fdbd 43be eb3c
00000380: bc35 1cbe 14f7 dd3d 5775 0abe d00a 423d
00000390: 5d25 12be a156 1abd cbc9 123e 71a8 683e
000003a0: f974 f63c 42b9 903c 00ed 6dbd a64c 663e
000003b0: 32c6 5f3e 5c5c 013e 9bcb 0cbe 2ff0 fabd
000003c0: b6ad acbd 39d6 d7bd 1971 32bb b302 babd
000003d0: 4880 70be 8a7a f53d b51c d03c 18cb f9bd
000003e0: 82fa c83d fd03 2c3e ca55 4e3e fe9d 213e
000003f0: 09b1 43bd ebc4 72be dd80 d8bd 8757 f83d

0.bias f4 [128]
0.23245765 0.09913052 -0.088109046 0.113615915 0.22519757 -0.20164323 -0.2214307 0.0095272465
-0.17925197 0.031697813 -0.07260978 -0.18855605 -0.19193111 -0.04825077 0.12898277 0.20790799
-0.059970044 -0.20666628 -0.021787217 -0.19284281 -0.07399752 0.17549393 0.15782101 -0.23479415
0.2371896 0.014120229 0.18993174 -0.061935864 -0.16263582 -0.044375744 0.1152081 0.23703432
0.037327394 0.16260624 0.20032343 0.020148976 0.17886591 -0.016422328 0.11358131 0.13254903
-0.14677471 0.072626404 0.18794061 -0.16894516 0.03899842 0.10153422 -0.14200576 -0.13520563
0.1199472 -0.22057527 -0.21186353 -0.13753459 0.08435722 0.22017287 -0.1689828 0.12117867
-0.09378957 0.15468146 0.1604816 0.016668662 -0.059796948 0.15053278 -0.18937586 -0.034901693
0.045915507 0.12831448 0.08448035 -0.15021078 0.088276714 0.07103275 -0.013053936 0.19262025
-0.05331141 0.14969027 -0.090209365 -0.04564503 -0.20732918 0.18944733 -0.0999754 0.22943094
0.08277701 -0.09260193 0.22253835 -0.025197994 0.1420319 0.23335432 0.08170204 -0.22328337
0.15576352 -0.11177321 0.16611098 -0.10352013 -0.03555162 0.18902408 -0.027193997 0.1011522
0.1814362 0.04125701 -0.11944262 0.19998237 0.09665903 0.20769416 -0.1660461 -0.23627587
-0.17451972 0.05054171 -0.07226948 -0.23185101 0.018468611 -0.23649022 -0.17990305 -0.012554559
0.017777313 0.052743685 0.10728289 -0.19668372 0.21571332 0.17282467 0.01865923 0.1315528
-0.061230745 -0.030566266 0.049567793 -0.0033502937 -0.022748094 0.10264689 0.19970484 -0.031356096
00000000: 6109 6e3e f104 cb3d 8472 b4bd 76af e83d
00000010: 319a 663e 907b 4ebe bbbe 62be 2b18 1c3c
00000020: d48d 37be 91d5 013d 70b4 94bd d614 41be
00000030: 9789 44be 99a2 45bd 0f14 043e d5e5 543e
00000040: 26a3 75bd 53a0 53be 1b7b b2bc 9678 45be
00000050: 038c 97bd aeb4 333e d59b 213e e16d 70be
00000060: d5e1 723e 8858 673c 777d 423e 76b0 7dbd
00000070: 018a 26be 57c3 35bd 39f2 eb3d 20b9 723e
00000080: 9ce4 183d 4082 263e 9621 4d3e 770f a53c
00000090: a028 373e 1e88 86bc 519d e83d efba 073e
000000a0: 1c4c 16be 27bd 943d 8173 403e f6ff 2cbe
000000b0: cfbc 1f3d 2cf1 cf3d f569 11be 5873 0abe
000000c0: e1a6 f53d 7cde 61be c1f2 58be ded5 0cbe
000000d0: 7ac3 ac3d ff74 613e d409 2dbe 862c f83d
000000e0: bf14 c0bd d164 1e3e 4a55 243e b88c 883c
000000f0: a5ed 74bd 4425 1a3e bfeb 41be 14f5 0ebd
00000100: e611 3c3d df64 033e 0904 ad3d dbd0 19be
00000110: 6cca b43d 9e79 913d 2de0 55bc 3e3e 453e
00000120: 115d 5abd 6848 193e b0bf b8bd 48f6 3abd
00000130: 1a4e 54be 7bfe 413e e7bf ccbd f2ef 6a3e
00000140: fe86 a93d 15a6 bdbd 18e1 633e 066c cebc
00000150: cf70 113e 6ff4 6e3e 6653 a73d 65a4 64be
00000160: 7980 1f3e 5ae9 e4bd ff18 2a3e 5d02 d4bd
00000170: 939e 11bd 878f 413e f2c5 debc e228 cf3d
00000180: 69ca 393e 1cfd 283d 559e f4bd 2ec8 4c3e
00000190: 2bf5 c53d c7ad 543e fd07 2abe 4df2 71be
000001a0: 4cb5 32be d304 4f3d 0502 94bd 5a6a 6dbe
000001b0: 7c4b 973c 7e2a 72be 8138 38be a3b1 4dbc
000001c0: baa1 913c c309 583d 22b7 db3d 7567 49be
000001d0: f4e3 5c3e f3f8 303e 3edb 983c c7b5 063e
000001e0: 17cd 7abd 1b66 fabc 9907 4b3d 9a90 5bbb
000001f0: 365a babc 8838 d23d 6d7f 4c3e 406f 00bd

1.weight f4 [256, 128]
0.03282545 0.008826435 0.08289617 0.01556382 -0.06433378 -0.02444536 0.005582803 0.026828365
0.00072425144 0.07927622 0.08525806 0.044612385 -0.06846902 -0.07602684 0.024105553 0.079922244
0.06615971 -0.007124408 0.0034104807 -0.0806042 -0.055596624 0.075569205 -0.055820562 0.08816141
-0.040507134 -0.02361 -0.0059422315 0.006734202 0.08355635 0.05747674 0.056598864 0.025524342
0.021876859 -0.025054753 0.073500745 -0.04478717 0.05759607 0.06918441 -0.008261668 -0.08475258
0.073978625 -0.019223504 0.042884964 -0.02295506 0.07528192 0.06616878 0.00056738086 0.047178876
0.064801134 -0.0861152 -0.02523731 0.013821185 -0.006028411 0.0016460873 0.0313678 -0.023988215
-0.057819985 -0.047302198 0.073525935 -0.065781154 0.04456852 0.020822134 0.036026094 0.08754908
-0.027574291 0.022066614 -0.07999 0.041242145 0.018873928 -0.06814335 0.03104874 -0.029097572
0.02299846 0.08421603 -0.07181824 0.06127493 -0.06115082 -0.07758458 -0.080104955 -0.029005239
-0.03905899 0.03156854 0.06802373 -0.02944876 -0.07603063 0.002568998 0.04038336 0.020384923
0.0284532 0.06648035 0.0707697 -0.054937847 0.029491508 -0.029490698 -0.029543076 -0.036919657
-0.06802736 0.042575862 -0.018101102 -0.05408709 -0.061747998 0.009934571 0.062317487 -0.080802865
0.070738815 -0.03160943 -0.03194342 0.018639518 0.001346518 0.035892595 -0.0054651606 0.019829238
0.07295921 0.042357583 0.080885164 0.07097367 -0.050103184 0.057748284 0.034628924 -0.057329964
-0.05595761 0.08609575 0.013529644 0.06429619 -0.062759586 -0.010123357 -0.07283322 0.056802306
0.06612108 -0.08830394 0.029810898 -0.025067924 0.008899328 0.0039056113 -0.07460796 0.0021063413
-0.0615207 0.050665356 -0.0516937 -0.06349456 0.006783019 -0.010887912 -0.06299676 0.010990581
0.06704622 -0.08116284 -0.050894793 0.025654724 0.03783668 -0.027069392 -0.047278963 -0.08822901
-0.0034722365 0.086941294 0.003677165 0.047800604 0.012802548 -0.08800154 0.0005296384 -0.070011824
-0.07908418 0.044448268 -0.066640854 0.06729182 -0.08409819 0.056812488 0.039862037 0.011218974
-0.076504745 -0.039926045 -0.063906886 -0.036096722 0.052298844 -0.087922275 0.028165389 -0.07748143
0.02096635 -0.07183806 -0.06070592 -0.008447177 -0.029343141 0.083146356 -0.03605509 0.06267683
0.005125657 0.02014848 0.058474906 0.001953675 -0.06377565 -0.017218104 0.033527322 0.053119335
-0.03838638 0.057639346 0.049225546 -0.035395227 0.064064346 0.022382105 0.019463835 5.47909e-05
0.04031585 0.023817722 -0.08304197 0.039524514 -0.038427662 -0.045075644 0.057323884 -0.08055073
-0.052010473 0.08673074 0.045754902 0.05989854 0.058080137 -0.020515252 0.004042926 -0.007847069
-0.08191677 -0.0015725411 0.048330307 -0.078561865 -0.08312289 -0.066219874 0.05543224 -0.0067179864
0.039018087 -0.04602931 0.0076683345 0.05586453 0.07728307 0.05819547 0.055130575 0.005645307
-0.03337082 -0.010266846 -0.0070089367 -0.016261803 -0.07117331 -0.079971135 0.06768896 0.0043287133
0.051432535 0.07890615 0.06696912 -0.07730712 -0.036147423 0.042240098 -0.06389613 0.06352293
-0.07267178 -0.050133497 0.015909687 -0.070413865 -0.087788515 0.06486481 0.0400375 0.048416678
00000000: fb73 063d c09c 103c 78c5 a93d 64ff 7e3c
00000010: 6ec1 83bd a341 c8bc f2ef b63b 29c7 db3c
00000020: b1db 3d3a 925b a23d c79b ae3d 7abb 363d
00000030: 7c39 8cbd f6b3 9bbd 0279 c53c 46ae a33d
00000040: be7e 873d de73 e9bb 5f82 5f3b d113 a5bd
00000050: 49b9 63bd 07c4 9a3d 1aa4 64bd f88d b43d
00000060: cfea 25bd c269 c1bc 0db7 c2bb 95aa dc3b
00000070: 971f ab3d bb6c 6b3d 36d4 673d 6d18 d13c
00000080: 1937 b33c a03f cdbc 8f87 963d c072 37bd
00000090: dbe9 6b3d 8eb0 8d3d f25b 07bc c392 adbd
000000a0: 1b82 973d 9c7a 9dbc 25a8 2f3d 400c bcbc
000000b0: 682d 9a3d 7f83 873d 49bc 143a a33e 413d
000000c0: 75b6 843d 2a5d b0bd 7abe cebc 4072 623c
000000d0: fa89 c5bb 86c1 d73a 867b 003d ef82 c4bc
000000e0: a6d4 6cbd f3bf 41bd c494 963d 45b8 86bd
000000f0: 7b8d 363d 2e93 aa3c 1990 133d ef4c b33d
00000100: 7be3 e1bc 0bc5 b43c ccd1 a3bd 86ed 283d
00000110: 7f9d 9a3c be8e 8bbd ed59 fe3c 085e eebc
00000120: 4467 bc3c 7479 ac3d 7115 93bd 6cfb 7a3d
00000130: 4879 7abd aae4 9ebd 110e a4bd 659c edbc
00000140: 52fc 1fbd 034e 013d 0650 8b3d 873e f1bc
00000150: f2b5 9bbd a25c 283b 0669 253d 48fe a63c
00000160: af16 e93c da26 883d b4ef 903d 8206 61bd
00000170: 2d98 f13c 7a96 f1bc 5204 f2bc 1139 17bd
00000180: ee51 8bbd 0764 2e3d c348 94bc 6d8a 5dbd
00000190: 78eb 7cbd 9cc4 223c 9f40 7f3d f97b a5bd
000001a0: 83df 903d e478 01bd 1bd7 02bd e7b1 983c
000001b0: a67d b03a 1d04 133d 1715 b3bb ed70 a23c
000001c0: a36b 953d 257f 2d3d 1fa7 a53d a55a 913d
000001d0: ff38 4dbd 7789 6c3d 0fd7 0d3d d3d2 6abd
000001e0: cf33 65bd f852 b03d 71ab 5d3c b9ad 833d
000001f0: 1988 80bd 70dc 25bc 9529 95bd 89a9 683d
00000200: 7d6a 873d b2d8 b4bd fc35 f43c 3f5b cdbc
00000210: 7dce 113c 49f5 7f3b 0fcc 98bd 8b0a 0a3b
00000220: 21fd 7bbd 7a86 4f3d c6bc 53bd 7009 82bd
00000230: 1644 de3b 3663 32bc 7204 81bd d611 343c
00000240: 874f 893d b438 a6bd 0f77 50bd db29 d23c
00000250: a2fa 1a3d a1c0 ddbc 96a7 41bd 69b1 b4bd
00000260: 768e 63bb 470e b23d 97fc 703b 91ca 433d
00000270: c7c1 513c 273a b4bd 6ed7 0a3a 5c62 8fbd
00000280: e3f6 a1bd 630f 363d 007b 88bd 4bd0 893d
00000290: ac3b acbd 36b4 683d 6046 233d cacf 373c
000002a0: 85ae 9cbd 7e89 23bd 9de1 82bd 28da 13bd
000002b0: 5037 563d 9810 b4bd 1abb e63c 95ae 9ebd
000002c0: 9fc1 ab3c d51f 93bd c5a6 78bd 0766 0abc
000002d0: 0761 f0bc a348 aa3d 81ae 13bd b65c 803d
000002e0: 21f5 a73b 6d0e a53c 6283 6f3d 3a09 003b
000002f0: cf9c 82bd fb0c 8dbc f253 093d a993 593d
00000300: 093b 1dbd 3c17 6c3d baa0 493d 96fa 10bd
00000310: 2b34 833d ad5a b73c 9f72 9f3c 48cf 6538
00000320: 3c22 253d 621d c33c e911 aabd 75e4 213d
00000330: 5366 1dbd 3da1 38bd 73cc 6a3d c8f7 a4bd
00000340: ef08 55bd e39f b13d 7e69 3b3d 2c58 753d
00000350: 70e5 6d3d 9a0f a8bc 857a 843b fe90 00bc
00000360: fbc3 a7bd b91d ceba 00f6 453d 0be5 a0bd
00000370: 553c aabd 499e 87bd eb0c 633d 8e22 dcbb
00000380: 6ed1 1f3d 3b89 3cbd a746 fb3b 35d2 643d
00000390: 9646 9e3d 605e 6e3d 99d0 613d 44fc b83b
000003a0: d7af 08bd 4636 28bc 39ab e5bb 7937 85bc
000003b0: 50c3 91bd e8c7 a3bd 82a0 8a3d e1d7 8d3b
000003c0: ecaa 523d 8c99 a13d 1b27 893d 3253 9ebd
000003d0: 520f 14bd f403 2d3d f9db 82bd 4f18 823d
000003e0: f1d4 94bd c858 4dbd 0855 823c 2535 90bd
000003f0: 77ca b3bd d7d7 843d 5dfe 233d 9150 463d

1.bias f4 [256]
-0.036272906 -0.026989218 -0.05389273 0.03748551 0.08306608 0.029858502 0.029270396 -0.053151485
0.004489398 -0.029845795 0.06829276 -0.0536165 -0.0051485747 0.0028889873 0.050821036 0.011453985
-0.06269223 0.02911029 0.04882825 0.03897826 0.052071452 -0.04013073 0.03325984 0.0006732116
-0.07862447 -0.07239891 0.0856839 -0.0043018446 -0.06060981 -0.07257907 0.07755432 0.07079193
-0.01338293 -0.039054416 0.022489738 -0.084872864 -0.027164465 0.012010219 0.086883955 0.00689023
-0.057863683 -0.038564526 -0.07257842 -0.071203694 0.07627022 -0.08690087 -0.02277306 -0.038345456
-0.08754638 -0.05117837 -0.036837988 0.0020444277 -0.0072923107 0.052945144 -0.04396285 0.079890385
-0.01041417 -0.030957544 0.061984282 0.028768754 0.027430454 0.05041859 0.00038324128 0.07327296
-0.050521784 0.082814954 0.07961106 0.062236354 0.046945687 0.06666997 2.3823506e-05 -0.07775977
0.0055669346 0.034744304 -0.041653212 -0.04740195 -0.061692785 -0.009857273 -0.06601994 0.014560061
0.06882304 0.05624131 -0.019286597 0.0066673993 -0.08615594 -0.023251131 -0.036329415 -0.043885965
-0.04878951 -0.003440974 0.014403643 -0.07536018 0.011452458 0.06484198 -0.0699219 -0.05512366
-0.073657125 0.0719123 0.069524914 -0.05946583 0.054620028 -0.033917718 0.03935815 0.013697641
-0.06101655 0.069474496 -0.060563534 0.0011560249 -0.0858398 -0.00967936 0.031719234 0.0042849015
0.0019497026 -0.07248523 -0.056791298 0.0008804898 0.056589235 0.08304593 0.07057428 -0.080213375
-0.062053688 0.011869437 -0.08621537 0.028444422 0.024757659 -0.008256768 0.04058772 -0.022437759
-0.04728064 0.043829046 0.021340372 -0.062703446 -0.019996982 0.0649256 -0.086252555 -0.017316064
0.06412507 0.032872897 -0.024925329 -0.05677646 -0.0883815 0.03303888 0.072994746 -0.06736453
0.058217116 -0.020208055 0.059986733 -0.013076397 -0.06373722 -0.082483836 -0.007958168 0.08201438
0.0028718547 0.06484203 0.013005295 -0.08356812 -0.00024114319 -0.0032922062 -0.083295934 -0.071451046
0.08554546 0.07829668 0.053546812 0.0687443 -0.08343194 -0.036098797 0.070251174 -0.0013785813
0.058073826 -0.0643644 -0.035518393 -0.039595384 -0.067319244 -0.06892057 -0.0025213088 0.07594416
0.05449521 -0.0175084 -0.06137718 -0.06698207 -0.072246395 0.045910183 -0.037632037 0.05053412
0.021592284 0.08261802 0.053731542 0.078626364 -0.03426877 0.016952822 0.025513731 0.036535542
0.059719764 -0.08558525 -0.07396854 0.019729035 -0.01979335 0.06361289 0.014252853 -0.0699146
0.0071328483 0.04875733 -0.062323187 -0.0742581 0.009248325 0.08764495 -0.0020847516 0.059301246
-0.034722164 -0.043208 -0.0049394737 -0.06567411 -0.068540424 -0.077606805 0.009791124 -0.038299832
-0.06358929 0.01948474 -0.037640255 0.081283346 0.05174257 -0.07205627 -0.012797216 0.006848399
0.06699395 0.036394984 -0.032462545 0.035190962 0.007612174 -0.0033848556 0.06948668 0.0005470134
-0.049492136 -0.08326251 0.042644583 -0.048312057 0.034579445 0.05401974 -0.043851152 0.08076205
0.017811805 0.07435489 0.03579105 0.01232122 0.027583752 0.055999093 -0.056301728 0.054570694
-0.07249931 0.019305384 0.07442709 -0.042455237 -0.005209435 -0.04705628 -0.08059844 -0.0060593784
00000000: e692 14bd 7e18 ddbc a0be 5cbd 688a 193d
00000010: 8d1e aa3d d199 f43c 78c8 ef3c 5fb5 59bd
00000020: cd1b 933b 2b7f f4bc 13dd 8b3d fa9c 5bbd
00000030: 60b5 a8bb 2a55 3d3b b829 503d 7fa9 3b3c
00000040: c964 80bd b478 ee3c 2200 483d aba7 1f3d
00000050: e048 553d 1f60 24bd 783b 083d 777a 303a
00000060: de05 a1bd e145 94bd 0a7b af3d 7df6 8cbb
00000070: fe41 78bd 56a4 94bd cdd4 9e3d 5cfb 903d
00000080: 1444 5bbc 86f7 1fbd 663c b83c d3d1 adbd
00000090: 0388 debc 82c6 443c 37f0 b13d 70c7 e13b
000000a0: 7802 6dbd d6f5 1dbd ffa3 94bd 3ed3 91bd
000000b0: 9033 9c3d 15f9 b1bd 918e babc 2010 1dbd
000000c0: 844b b3bd 69a0 51bd 6ee3 16bd cefb 053b
000000d0: 56f4 eebb 02dd 583d 6412 34bd 929d a33d
000000e0: 32a0 2abc ad9a fdbc 3be3 7d3d 73ac eb3c
000000f0: d5b5 e03c b983 4e3d c6ed c839 2210 963d
00000100: eeef 4ebd e39a a93d 200b a33d 8ceb 7e3d
00000110: 1f4a 403d 448a 883d 97d8 c737 8440 9fbd
00000120: d56a b63b 0b50 0e3d 8f9c 2abd 8c28 42bd
00000130: 93b1 7cbd 6680 21bc 7635 87bd 528d 6e3c
00000140: 18f3 8c3d 4a5d 663d edfe 9dbc 337a da3b
00000150: 8772 b0bd 2879 bebc 27ce 14bd c5c1 33bd
00000160: 82d7 47bd f781 61bb 42fd 6b3c 7056 9abd
00000170: 17a3 3b3c dfcb 843d 3733 8fbd 59c9 61bd
00000180: 8cd9 96bd c246 933d 1463 8e3d 7192 73bd
00000190: 40b9 5f3d 4eed 0abd 0336 213d 126c 603c
000001a0: 7dec 79bd a548 8e3d 7811 78bd c285 973a
000001b0: c7cc afbd 2e96 1ebc 07ec 013d 5c68 8c3b
000001c0: 2a8d ff3a 2373 94bd fe9d 68bd acd0 663a
000001d0: 1dca 673d fc13 aa3d 4089 903d e946 a4bd
000001e0: 022c 7ebd 0778 423c af91 b0bd 4704 e93c
000001f0: 93d0 ca3c 6547 07bc 4f3f 263d 64cf b7bc
00000200: 58a9 41bd 1686 333d 01d2 ae3c aa6a 80bd
00000210: b6d0 a3bc b7f7 843d 2ea5 b0bd 6bda 8dbc
00000220: 0154 833d bba5 063d 3430 ccbc 6f8e 68bd
00000230: 5c01 b5bd c753 073d 457e 953d 6af6 89bd
00000240: 1275 6e3d 5d8b a5bc a6b4 753d 623e 56bc
00000250: a988 82bd 49ed a8bd fa62 02bc 28f7 a73d
00000260: ba35 3c3b e6cb 843d 2914 553c c325 abbd
00000270: 62db 7cb9 0ec2 57bb 0f97 aabd ed54 92bd
00000280: 7532 af3d 025a a03d e753 5b3d d0c9 8c3d
00000290: 5dde aabd 55dc 13bd d9df 8f3d 83b1 b4ba
000002a0: d2de 6d3d 7cd1 83bd bc7b 11bd c52e 22bd
000002b0: acde 89bd 3a26 8dbd 8b3c 25bb 9d88 9b3d
000002c0: 5f36 5f3d c76d 8fbc a366 7bbd e52d 89bd
000002d0: ebf5 93bd 510c 3c3d 0d24 1abd defc 4e3d
000002e0: 4de2 b03c a333 a93d 9b15 5c3d dc06 a13d
000002f0: 695d 0cbd a5e0 8a3c 2c02 d13c 4ba6 153d
00000300: b69c 743d 5247 afbd d17c 97bd c99e a13c
00000310: aa25 a2bc 7a47 823d cc84 693c 632f 8fbd
00000320: abba e93b c4b5 473d 9946 7fbd a114 98bd
00000330: 4986 173c 327f b33d 54a0 08bb dde5 723d
00000340: d438 0ebd dffa 30bd 4fdb a1bb 2680 86bd
00000350: ec5e 8cbd 51f0 9ebd f36a 203c 49e0 1cbd
00000360: 1a3b 82bd 769e 9f3c ab2c 1abd e277 a63d
00000370: 04f0 533d 3d92 93bd 6aab 51bc 8968 e03b
00000380: 2034 893d e812 153d 72f7 04bd 6624 103d
00000390: 8b6f f93b 74d4 5dbb 084f 8e3d 7365 0f3a
000003a0: 44b8 4abd 8985 aabd 16ac 2e3d dde2 45bd
000003b0: 2da3 0d3d ce43 5d3d 449d 33bd 9366 a53d
000003c0: 10ea 913c 6047 983d a399 123d f1de 493c
000003d0: 52f7 e13c 4e5f 653d a49c 66bd 8585 5f3d
000003e0: 857a 94bd 5326 9e3c 3b6d 983d 8be5 2dbd
000003f0: e8b3 aabb 16be 40bd cb10 a5bd c08d c6bb

2.weight f4 [256, 256]
0.021423407 0.059733763 0.040517576 -0.013283633 0.005584128 0.058297493 0.021776177 0.022582747
-0.017554149 -0.057145797 0.041794635 -0.0048566386 0.052303195 -0.0066466704 0.061276115 -0.028670952
0.000610888 -0.005574271 -0.020037793 -0.031009085 -0.006817639 0.010392502 0.009762883 0.021588832
-0.054656453 0.021296054 -0.046012312 -0.00056162477 -0.055677027 0.0011978894 -0.048878036 -0.02417691
-0.015738733 -0.056614846 -0.05996222 -0.040519282 -0.005869411 -0.059554167 -0.03432416 -0.012669563
-0.014950834 0.025495462 0.03845395 0.034218326 -0.025841288 0.028430246 0.02538161 -0.05535035
-0.0019302219 -0.030721486 0.002127029 -0.0054829046 0.03942421 0.025775582 -0.053539746 -0.041196957
-0.03714405 0.0479453 0.0034475178 0.01950442 0.014888428 -0.013429508 0.010259248 -0.044840217
0.040604733 0.055016667 0.0011001825 0.02582372 0.03332326 -0.02872651 0.0069739 0.04004585
-0.061558746 -0.04181627 0.053979263 -0.0002996549 0.034144953 0.025296487 0.022118635 -0.05978302
-0.04993853 -0.04680504 0.015215099 0.020966254 -0.046632536 0.039834134 -0.054952227 -0.019002154
0.025618106 -0.02170284 0.053590685 -0.03096655 -0.0061685517 0.039518356 -0.0071545094 -0.054237604
-0.06048014 -0.013123713 0.020585313 0.039601848 -0.015692256 -0.0011221841 -0.061979085 0.019202687
-0.016685434 -0.0068171024 0.035334513 -0.008117996 -0.01828117 -0.02813062 -0.0066319928 0.013955139
0.03407292 0.023679398 -0.0441935 -0.05723715 0.023700938 -0.01173009 0.044325806 -0.0024234056
-0.015143625 0.03169114 0.06127771 0.050130926 0.030194081 0.053073697 -0.012011938 -0.04551483
-0.041125074 0.054143906 -0.022400409 0.050892167 -0.03640648 -0.031965166 0.016777113 0.0072481707
-0.054818697 0.015807524 0.0019253567 0.025899246 -0.04089164 0.06039656 -0.035454825 0.03195688
0.04294788 -0.013773285 0.008936442 -0.0170957 -0.009282224 -0.021865927 -0.04356894 -0.038225986
0.05067102 0.001664862 0.028530315 -0.051005073 0.056203797 -0.032789618 0.0420148 0.009757742
-0.005769491 -0.05287081 0.049780823 0.028076388 0.011273079 0.046980806 -0.03864914 -0.024363667
0.018749557 0.03542749 -0.0020594 -0.056751058 -0.0025427714 -0.009219535 -0.041115686 -0.043336645
0.037838914 -0.058407106 -0.030871637 0.011177555 -0.006633915 0.02737517 0.014754303 -0.0053293705
0.007803336 0.05251591 0.016139746 -0.039282434 -0.0008060783 -0.04533522 -0.040304966 0.03602829
-0.05558441 -0.016942747 -0.01590091 0.061481185 -0.026990071 0.022282839 -0.06214057 -0.007285945
-0.0043531284 0.047746688 -0.05024351 0.011917599 0.021613233 0.054174714 -0.061075643 -0.040771365
-0.009494238 0.043213278 0.05537709 0.023399636 0.04265465 0.052131087 0.020277858 0.05940877
-0.055896804 0.027851552 0.002119787 0.05240103 -0.033960618 0.042466603 0.0555045 -0.012766354
-0.004401788 0.032755442 -0.0566578 -0.0306542 -0.030792214 -0.055697016 -0.01609768 -0.05924969
-0.036640912 -0.058272295 -0.032998264 0.02612923 -0.0032154545 -0.051599354 -0.024268843 -0.042512946
-0.040698014 -0.018758632 -0.01989536 -0.048119307 0.05480063 0.038984463 0.0024998635 0.0349501
-0.059956633 -0.03466653 -0.054859877 0.05334215 -0.005715117 0.058749855 0.04610587 0.060531773
00000000: 2480 af3c 64ab 743d c2f5 253d 98a3 59bc
00000010: 10fb b63b 5ac9 6e3d f463 b23c 74ff b83c
00000020: b8cd 8fbc b611 6abd da30 2b3d 7024 9fbb
00000030: e03b 563d 50cc d9bb aafc 7a3d 58df eabc
00000040: 0024 203a 60a8 b6bb 4c26 a4bc c406 febc
00000050: 8066 dfbb 5045 2a3c 80f4 1f3c 10db b03c
00000060: 72df 5fbd 1075 ae3c 6877 3cbd 003a 13ba
00000070: 980d 64bd 8002 9d3a 5634 48bd a80e c6bc
00000080: 84ee 80bc f8e4 67bd f29a 75bd 8cf7 25bd
00000090: 3054 c0bb 12ef 73bd 7e97 0cbd 0094 4fbc
000000a0: 58f4 74bc dcdb d03c e481 1d3d 8428 0c3d
000000b0: 1cb1 d3bc 8ce6 e83c 18ed cf3c 0cb7 62bd
000000c0: 80ff fcba a0ab fbbc a065 0b3b f0a9 b3bb
000000d0: 487b 213d 5027 d33c 7e4c 5bbd 24be 28bd
000000e0: 5c24 18bd 4a62 443d c0ef 613b bcc7 9f3c
000000f0: 98ee 733c 7007 5cbc 6816 283c 60aa 37bd
00000100: 2651 263d 2859 613d 0034 903a 448c d33c
00000110: f87d 083d dc53 ebbc 5085 e43b 1e07 243d
00000120: 0625 7cbd 8a47 2bbd 5c19 5d3d 001b 9db9
00000130: 94db 0b3d 943a cf3c 2432 b53c 0adf 74bd
00000140: 588c 4cbd a4b6 3fbd c048 793c 6cc1 ab3c
00000150: c201 3fbd 1e29 233d 9615 61bd 68aa 9bbc
00000160: 10dd d13c 28ca b1bc e881 5b3d 90ad fdbc
00000170: 9021 cabb 00de 213d 6070 eabb 4028 5ebd
00000180: 06ba 77bd d804 57bc 88a2 a83c 8c35 223d
00000190: 0c8d 80bc 4016 93ba c8dd 7dbd f44e 9d3c
000001a0: e4af 88bc 0062 dfbb ecba 103d 5801 05bc
000001b0: 64c2 95bc 3072 e6bc 3051 d9bb 18a4 643c
000001c0: 0c90 0b3d 4cfb c13c 3e04 35bd 8071 6abd
000001d0: 7828 c23c 902f 40bc fa8e 353d 00d2 1ebb
000001e0: f81c 78bc 92ce 013d 56fe 7a3d 1656 4d3d
000001f0: 9459 f73c ce63 593d b8cd 44bc c26d 3abd
00000200: c472 28bd 00c6 5d3d 1081 b7bc 4e74 503d
00000210: f61e 15bd e8ed 02bd 2870 893c 1082 ed3b
00000220: 9289 60bd c87e 813c 405c fc3a a82a d43c
00000230: fe7d 27bd 6262 773d 1439 11bd 38e5 023d
00000240: 1eea 2f3d 58a9 61bc 286a 123c 480c 8cbc
00000250: 7814 18bc 2c20 b3bc 5875 32bd da92 1cbd
00000260: 6a8c 4f3d 8037 da3a 68b8 e93c b2ea 50bd
00000270: f435 663d 684e 06bd b617 2c3d f0de 1f3c
00000280: 000e bdbb 108f 58bd fae6 4b3d 7400 e63c
00000290: b8b2 383c f26e 403d 904e 1ebd 5096 c7bc
000002a0: ac98 993c 6a1c 113d 00f7 06bb cc73 68bd
000002b0: a0a4 26bb 880d 17bc ec68 28bd c481 31bd
000002c0: fafc 1a3d 4a3c 6fbd 84e6 fcbc 1022 373c
000002d0: 5061 d9bb e441 e03c 08bc 713c 00a2 aebb
000002e0: 20b3 ff3b ec1a 573d 8037 843c 9ee6 20bd
000002f0: 004f 53ba 6cb1 39bd d216 25bd 6692 133d
00000300: 7aac 63bd 84cb 8abc a042 82bc b2d3 7b3d
00000310: 481a ddbc 808a b63c 1c87 7ebd f0be eebb
00000320: b0a4 8ebb 0892 433d 24cc 4dbd 0842 433c
00000330: 3c0e b13c 4ee6 5d3d 742a 7abd e0ff 26bd
00000340: b88d 1bbc 6800 313d 16d3 623d 98b0 bf3c
00000350: a4b6 2e3d 6887 553d c01d a63c 9c56 733d
00000360: 0cf4 64bd f028 e43c 20ec 0a3b 76a2 563d
00000370: 4a1a 0bbd 76f1 2d3d b058 633d f829 51bc
00000380: e03c 90bb 922a 063d 0212 68bd 841e fbbc
00000390: f43f fcbc 8e22 64bd 48df 83bc ceaf 72bd
000003a0: c814 16bd eeae 6ebd 3029 07bd f80c d63c
000003b0: 60ba 52bb d859 53bd 74cf c6bc 0e22 2ebd
000003c0: f6b2 26bd b4ab 99bc 98fb a2bc c018 45bd
000003d0: a076 603d 2cae 1f3d c0d4 233b d627 0f3d
000003e0: 1695 75bd 7efe 0dbd c0b4 60bd 4c7d 5a3d
000003f0: e045 bbbb b0a3 703d 82d9 3c3d 2af0 773d

2.bias f4 [256]
-0.046440072 0.042946957 0.021147802 0.036096163 -0.026869766 0.006060764 0.033140436 -0.015763812
-0.058937542 0.033596702 -0.00321237 0.021540187 -0.032875642 0.06238468 -0.052682474 -0.054900154
-0.0016324893 -0.022171617 0.04475131 -0.03281097 0.05999379 -0.05402974 -0.056998327 0.05730132
-0.048619978 -0.005950287 -0.013527915 -0.027508676 -0.034110002 -0.026645273 -0.012017429 -0.050597705
-0.035908185 -0.028413475 0.021499231 -0.0028438345 0.029990569 -0.055748984 0.021839008 -0.029069431
-0.054615185 -0.010228336 0.029984027 -0.03452926 0.028448686 0.062444903 0.0025244951 -0.057002537
-0.05707688 -0.056368724 -0.049917914 -0.02198606 -0.02325213 0.009925589 -0.012673199 -0.051370807
-0.015476175 -0.0101175755 0.0197151 0.037021652 0.011372499 -0.061166234 0.020842813 0.05333583
-0.01212687 -0.020286083 -0.05978615 0.0067799836 0.053264685 0.05847182 -0.037329987 0.05328221
-0.035773717 0.02864717 -0.051161505 0.032979243 0.060931467 0.0043230727 0.03820827 0.043113187
-0.00584542 -0.01916363 -0.038161516 -0.0059445947 0.041500464 -0.009283565 -0.048498742 -0.016009629
-0.009382099 0.0008118972 0.016969524 0.01989898 -0.056566343 -0.0023997575 0.059934624 0.027551942
-0.049954318 -0.05078361 -0.011466712 -0.015232943 -0.035676144 0.023008391 0.0052585453 -0.0020075217
0.03835287 -0.043405145 -0.058045976 -0.007511638 -0.0021185726 -0.050840393 0.048106126 -0.03126858
0.048030548 -0.037205458 0.0334121 -0.030713879 0.026769847 -0.020256765 0.060271405 -0.022792824
-0.043577224 -0.007126063 -0.060168102 0.052964553 0.048891 -0.05126422 -0.06204793 -0.0146311
-0.0040410087 0.0060200095 0.021370932 0.026838593 0.045031846 0.0069246143 0.016496077 -0.014612116
0.047059633 0.03083776 -0.055046856 -0.05192914 0.04935866 0.0012875795 -0.044454664 0.04630372
-0.05716894 0.014091954 -0.00802426 -0.019160822 0.005034171 -0.024405852 -0.055452496 -0.038879752
0.051515587 -0.0025577322 0.045843937 -0.055481113 -0.00037056953 0.021925703 -0.06038274 0.011990033
0.06028004 -0.0017888173 0.053585872 0.040142886 -0.029341608 -0.023417376 0.04707489 0.03150767
-0.020457342 -0.043318085 -0.02739399 0.015877374 0.058410145 -0.031680815 -0.023443215 -0.034611665
-0.051481724 0.0122528 0.06032145 -0.00796859 0.06011177 0.015031584 0.05599141 -0.013397746
-0.01930689 -0.0351471 0.031933255 -0.012215145 -0.026583366 0.052676357 -0.009470068 0.0053666756
-0.036791906 -0.032077737 0.025806405 -0.039541483 -0.037540823 -0.05121004 -0.05596362 -0.04047901
0.019720718 -0.034335785 0.042028427 -0.023077361 0.028095543 -0.053406775 -0.037229083 -0.05786922
0.0014421418 -0.0012029186 -0.005296655 0.047577895 0.017887153 -0.0031054765 0.017299041 0.058831483
-0.062221818 0.027038366 -0.05435343 -0.04941605 -0.01577349 -0.051789597 -0.012652151 0.03480252
-0.036820956 0.0054978877 0.037915125 -0.009506583 0.003124535 0.020914756 0.05691717 0.008240208
0.030478306 0.031179778 0.05021619 0.0417758 0.016354866 -0.052932397 -0.04325194 -0.049164116
-0.05004389 -0.020709343 -0.027517445 0.028023474 0.049344502 0.02427543 -0.013654031 0.0261771
-0.040363103 0.030807488 -0.046295665 -0.045582563 0.00052126497 -0.012826502 -0.0065002963 0.04710921
00000000: f237 3ebd 26e9 2f3d 283e ad3c 92d9 133d
00000010: fc1d dcbc 6099 c63b 44be 073d 1c23 81bc
00000020: 7e68 71bd b29c 093d a086 52bb 0c75 b03c
00000030: 9ca8 06bd 1487 7f3d 94c9 57bd fcde 60bd
00000040: 40f9 d5ba 40a1 b5bc 264d 373d cc64 06bd
00000050: 0cbc 753d 4a4e 5dbd 1477 69bd cab4 6a3d
00000060: be25 47bd a0fa c2bb 30a4 5dbc e059 e1bc
00000070: eeb6 0bbd 3047 dabc c0e4 44bc 8a3f 4fbd
00000080: 7614 13bd 60c3 e8bc 281f b03c a05f 3abb
00000090: c8ae f53c 0c59 64bd b8e7 b23c 0423 eebc
000000a0: 2cb4 5fbd c094 27bc 10a1 f53c 8e6e 0dbd
000000b0: 380d e93c 3ac6 7f3d 0072 253b 7e7b 69bd
000000c0: 72c9 69bd e4e2 66bd ba76 4cbd 1c1c b4bc
000000d0: 407b bebc f09e 223c 40a3 4fbc 326a 52bd
000000e0: c88f 7dbc 30c4 25bc 9081 a13c 04a4 173d
000000f0: b853 3a3c 7289 7abd 8cbe aa3c ac76 5a3d
00000100: c8af 46bc 002f a6bc 52e2 74bd a02a de3b
00000110: 122c 5a3d 2680 6f3d 54e7 18bd 723e 5a3d
00000120: 7687 12bd 78ad ea3c ba8e 51bd 3e15 073d
00000130: 4693 793d 90a8 8d3b 4680 1c3d 7497 303d
00000140: f08a bfbb 0cfd 9cbc 404f 1cbd e0ca c2bb
00000150: 64fc 293d 181a 18bc 9ea6 46bd a026 83bc
00000160: 60b7 19bc 80d5 543a ac03 8b3c 3003 a33c
00000170: 1cb2 67bd 4045 1dbb 027e 753d 9cb4 e13c
00000180: e69c 4cbd 7a02 50bd e0de 3bbc 9893 79bc
00000190: 2621 12bd 187c bc3c e04f ac3b a090 03bb
000001a0: e617 1d3d 98c9 31bd 9ec1 6dbd 3024 f6bb
000001b0: c0d7 0abb 043e 50bd ee0a 453d 7c13 00bd
000001c0: aebb 443d c064 18bd 20db 083d ac9b fbbc
000001d0: 704c db3c 84f1 a5bc 26df 763d 04b8 babc
000001e0: 087e 32bd c081 e9bb d472 76bd 5cf1 583d
000001f0: ee41 483d 6efa 51bd f825 7ebd 48b7 6fbc
00000200: 706a 84bb 8043 c53b 1812 af3c 9cdc db3c
00000210: 5073 383d e0e7 e23b c822 873c a867 6fbc
00000220: 9ac1 403d 789f fc3c d078 61bd a6b3 54bd
00000230: 4e2c 4a3d 00c4 a83a 1816 36bd f8a8 3d3d
00000240: fa29 6abd f0e1 663c 3078 03bc 28f7 9cbc
00000250: b0f5 a43b c8ee c7bc 2822 63bd 6040 1fbd
00000260: 0202 533d a09f 27bb dac6 3b3d 2a40 63bd
00000270: 0049 c2b9 889d b33c e453 77bd d871 443c
00000280: 34e8 763d c076 eaba dc7c 5b3d de6c 243d
00000290: d05d f0bc ccd5 bfbc 9ad1 403d 300e 013d
000002a0: 2896 a7bc 4e6e 31bd 5c69 e0bc 4411 823c
000002b0: 7a3f 6f3d bec3 01bd fc0b c0bc f6c4 0dbd
000002c0: 80de 52bd f8bf 483c a013 773d b08e 02bc
000002d0: c237 763d 0847 763c 4057 653d 3882 5bbc
000002e0: 7c29 9ebc 68f6 0fbd 72cc 023d 0822 48bc
000002f0: 5cc5 d9bc 2ac3 573d 5828 1bbc f0da af3b
00000300: 1cb3 16bd f263 03bd f467 d33c 40f6 21bd
00000310: 68c4 19bd 9ec1 51bd 1c3a 65bd 52cd 25bd
00000320: 588d a13c aea3 0cbd 0026 2c3d bc0c bdbc
00000330: a028 e63c 10c1 5abd 867d 18bd 4608 6dbd
00000340: 4006 bd3a 40ab 9dba 908f adbb 0ae1 423d
00000350: 1488 923c 4085 4bbb b8b6 8d3c 48f9 703d
00000360: 4edc 7ebd 907f dd3c b4a1 5ebd 7c68 4abd
00000370: 6837 81bc 5421 54bd f84a 4fbc 168d 0e3d
00000380: 92d1 16bd a027 b43b e44c 1b3d 80c1 1bbc
00000390: 00c5 4c3b 6c55 ab3c fa21 693d f001 073c
000003a0: a4ad f93c bc6c ff3c 7eaf 4d3d 1a1d 2b3d
000003b0: a4fa 853c a4cf 58bd f228 31bd 5060 49bd
000003c0: d2fa 4cbd a4a6 a9bc 446c e1bc 7c91 e53c
000003d0: 761d 4a3d 44dd c63c 28b5 5fbc 5c71 d63c
000003e0: c853 25bd fc5f fc3c 86a0 3dbd c8b4 3abd
000003f0: 80a5 083a 4026 52bc 7000 d5bb 96f5 403d

3.weight f4 [128, 256]
0.03055273 -0.03271453 0.053193673 0.030634709 -0.019880876 -0.059627302 -0.056399725 0.010428734
-0.018217333 -0.006787613 -0.02654124 -0.03951464 0.0018327013 0.034738556 0.030355148 0.057614855
0.045803778 0.0560835 -0.028726518 -0.0476724 -0.03527774 0.038010165 0.002232559 -0.0017173514
0.01203917 0.05096443 0.0605722 0.01976671 -0.02321034 0.014675818 -0.013468452 -0.020729356
-0.019682989 -0.03262063 0.015824705 -0.03751021 0.00456769 0.038427062 -0.05058237 -0.008846536
-0.04969941 0.037788518 0.058893263 -0.011774562 -0.005557753 0.039772205 -0.050947867 0.04277561
0.013396457 -0.05438225 -0.03498415 -0.05084484 -0.051502988 0.05088252 0.02354692 -0.015422091
0.01588402 0.008000441 -0.040944427 0.027292766 -0.048678115 0.053398274 -0.035993382 0.04489121
0.015075944 -0.052621633 -0.034921177 -0.019844599 -0.043399774 -0.034072407 0.02996827 -0.045604795
0.036436975 -0.020854682 -0.05030673 0.009627305 0.055251718 -0.04583428 -0.012166008 -0.022933766
-0.016458064 0.027326979 0.04921122 0.038361423 -0.050320752 -0.022431374 -0.05071485 -0.030465677
0.04552093 -0.007292129 -0.044194065 -0.033592165 -0.040357687 -0.038172945 -0.060819007 -0.0062704533
0.03091196 0.049944706 -0.060221836 0.05630152 -0.0010250509 0.062051587 0.050113596 0.045751087
-0.031432256 0.037406728 0.020569928 0.0009144917 0.027576387 -0.014388941 0.034818977 0.0062694475
0.016269006 0.0037922338 -0.002889827 -0.024594598 0.061922684 0.029732719 0.056722656 -0.04132595
0.007610336 0.05895546 -0.02190359 -0.029015847 -0.041102022 0.0233607 -0.049791917 -0.048601158
0.045658886 -0.056120418 -0.050547212 0.045760177 0.04179403 0.05574131 -0.0014208853 -0.017369106
0.0029644296 0.039366633 -0.0003170967 0.0014866963 0.054386087 0.045273267 0.037835754 -0.040964633
-0.019572116 0.011376344 0.037656613 -0.05433523 -0.00842952 0.05779542 -0.046604484 0.04136233
-0.06091728 0.05796165 -0.042113937 -0.047841966 0.06177392 -0.03886345 0.040338285 0.036811702
-0.04693953 -0.0262928 0.059572034 -0.040804483 0.03153886 -0.024968177 -0.0051213726 0.01344952
0.037905127 -0.0018963739 -0.040999524 -0.014754169 0.0031507015 -0.06188833 0.061957926 0.014235333
-0.019075066 -0.056353293 -0.022123449 -0.04416857 0.007879421 -0.018508494 0.03690739 0.04543349
-0.013859391 -0.028802477 0.02562388 -0.03325893 0.022815071 -0.037761636 0.046241656 0.013075791
0.056782052 -0.049210623 -0.050951272 0.0038307533 0.056489512 0.04881511 0.03027203 0.054911427
0.033376396 0.0077507645 0.023458637 -0.026374772 0.00688906 0.0311817 -0.05305303 -0.0467619
-0.019144535 -0.019768357 -0.041310094 0.022209652 0.0016902313 -0.036485717 -0.053985253 0.054151222
-0.0032183751 -0.055405915 0.010084249 0.051017858 0.034236453 -0.022321083 -0.05099138 -0.060287565
-0.026599415 -0.055931814 0.059100613 -0.02227313 0.013264351 -0.03495194 -0.023498222 0.015018523
-0.015109077 0.027824424 0.0373064 -0.047860898 0.024644911 0.012650147 0.016182706 0.01837717
0.018863298 -0.046753407 -0.010007508 -0.034702748 0.0463539 0.007874139 0.059885122 0.034294017
0.014975429 0.05292266 -0.03238444 0.009514064 -0.022931673 -0.056338727 0.052427143 0.02229324
00000000: b849 fa3c acff 05bd 9ce1 593d a4f5 fa3c
00000010: 38dd a2bc c23b 74bd 6603 67bd 48dd 2a3c
00000020: 843c 95bc a06a debb 046d d9bc 1ada 21bd
00000030: 4037 f03a 044a 0e3d 5cab f83c 8efd 6b3d
00000040: be9c 3b3d d0b7 653d e053 ebbc 2244 43bd
00000050: 647f 10bd 8cb0 1b3d 2050 123b c018 e1ba
00000060: f03f 453c 14c0 503d 8e1a 783d cced a13c
00000070: 9c23 bebc d872 703c c8aa 5cbc 9cd0 a9bc
00000080: 383e a1bc 369d 05bd d0a2 813c 4ea4 19bd
00000090: 90ac 953b b265 1d3d 762f 4fbd 10f1 10bc
000000a0: 9c91 4bbd 22c8 1a3d 103a 713d 18ea 40bc
000000b0: d01d b6bb 2ee8 223d b6ae 50bd 7a35 2f3d
000000c0: d07c 5b3c ecbf 5ebd 8a4b 0fbd ae42 50bd
000000d0: ccf4 52bd 306a 503d 78e5 c03c f0ac 7cbc
000000e0: 341f 823c 4814 033c 58b5 27bd 1495 df3c
000000f0: b462 47bd 26b8 5a3d cc6d 13bd d8df 373d
00000100: 1801 773c c889 57bd 8209 0fbd 2491 a2bc
00000110: f6c3 31bd 828f 0bbd 0480 f53c 18cc 3abd
00000120: f03e 153d 70d7 aabc 6e0e 4ebd d8bb 1d3c
00000130: a04f 623d babc 3bbd f053 47bc 98df bbbc
00000140: 10d3 86bc d4dc df3c b491 493d de20 1d3d
00000150: 221d 4ebd 00c2 b7bc 60ba 4fbd 2893 f9bc
00000160: 2874 3a3d d0f2 eebb d604 35bd f097 09bd
00000170: 1a4e 25bd 3c5b 1cbd 5a1d 79bd 6078 cdbb
00000180: 143b fd3c d292 4c3d 2cab 76bd 6c9c 663d
00000190: 005b 86ba ce29 7e3d ea43 4d3d 7e65 3b3d
000001a0: 1cbf 00bd cc37 193d 4482 a83c 80ba 6f3a
000001b0: e0e7 e13c 98bf 6bbc 589e 0e3d f06f cd3b
000001c0: 9446 853c 2087 783b 4063 3dbb 9c7a c9bc
000001d0: a4a2 7d3d 0892 f33c 0456 683d 6645 29bd
000001e0: 2060 f93b 487b 713d 286f b3bc a4b2 edbc
000001f0: 985a 28bd f05e bf3c 9cf2 4bbd 0212 47bd
00000200: d004 3b3d 86de 65bd 980a 4fbd 066f 3b3d
00000210: 3830 2b3d 0051 643d 003d baba a849 8ebc
00000220: e046 423b e83e 213d 0040 a6b9 40dd c23a
00000230: f2c3 5e3d 7670 393d aaf9 1a3d 88ca 27bd
00000240: b455 a0bc d863 3a3c d23d 1a3d 9e8e 5ebd
00000250: f81b 0abc e4ba 6c3d 58e4 3ebd 8c6b 293d
00000260: 6684 79bd 3269 6d3d aa7f 2cbd f0f5 43bd
00000270: a606 7d3d 482f 1fbd c239 253d dec7 163d
00000280: aa43 40bd 0064 d7bc ce01 743d 9a22 27bd
00000290: e42e 013d 108a ccbc 30d1 a7bb 605b 5c3c
000002a0: 6842 1b3d c08f f8ba 1eef 27bd 78bb 71bc
000002b0: 007c 4e3b 9e7e 7dbd 98c7 7d3d 503b 693c
000002c0: 5043 9cbc b6d2 66bd 3c3c b5bc 1aea 34bd
000002d0: b018 013c 209f 97bc 342c 173d 7818 3a3d
000002e0: 8012 63bc 2cf3 ebbc 2ce9 d13c 843a 08bd
000002f0: ace6 ba3c f2ab 1abd e467 3d3d d83b 563c
00000300: 4c94 683d 1491 49bd 48b2 50bd 600d 7b3b
00000310: 8c61 673d 5af2 473d 0cfd f73c ceea 603d
00000320: b0b5 083d 20fa fd3b 542c c03c e80f d8bc
00000330: a0bd e13b c470 ff3c 224e 59bd 6889 3fbd
00000340: 00d5 9cbc 40f1 a1bc c634 29bd 04f1 b53c
00000350: c08a dd3a 0c72 15bd a41f 5dbd accd 5d3d
00000360: 60eb 52bb 50f1 62bd 6838 253c 1af8 503d
00000370: 863b 0c3d b4da b6bc 56dc 50bd 18f0 76bd
00000380: 04e7 d9bc c218 65bd 7c13 723d 2476 b6bc
00000390: b852 593c c429 0fbd 587f c0bc 4010 763c
000003a0: 108c 77bc 0cf0 e33c 98ce 183d ca09 44bd
000003b0: 20e4 c93c 9042 4f3c 9891 843c b88b 963c
000003c0: 3487 9a3c 8080 3fbd 88f6 23bc 7824 0ebd
000003d0: 96dd 3d3d 8802 013c 1a4a 753d e277 0c3d
000003e0: 805b 753c 6ec5 583d 8ca5 04bd e0e0 1b3c
000003f0: 34db bbbc 70c3 66bd d8bd 563d 50a0 b63c

3.bias f4 [128]
0.054033495 0.04340393 0.0010326132 0.053328604 0.031323038 0.00889568 -0.04466679 -0.032257773
-0.039845005 0.021624647 0.043994844 -0.006739266 0.047890052 -0.018059619 -0.021781646 0.025227815
0.031725056 -0.04402005 0.036436684 0.011858165 -0.017591655 -0.032171413 0.057913244 0.010733187
0.012211651 -0.050395757 -0.04965382 0.005945146 0.024553962 -0.00031395257 -0.017155454 -0.0036957338
0.05556152 -0.0614997 -0.032005712 0.033461355 -0.058039814 0.039810196 -0.021904916 -0.040720835
0.0033505335 0.0125597045 0.03685365 -0.048427396 0.01701209 0.029281057 -0.04967685 0.0004176274
-0.030963764 0.030092426 -0.057216212 0.052221917 0.06013619 -0.016247816 0.034087054 -0.040327296
0.019955896 -0.035615914 0.04209785 -0.03602024 -0.031422883 -0.020763703 -0.047703765 0.036536008
0.0022426322 0.05655192 -0.027856842 0.008387029 0.042606167 0.018965729 0.013241895 -0.008905359
0.043997765 0.036184415 -0.027574368 0.034590714 -0.05027307 -0.031258523 -0.023712091 0.043290354
-0.0053922385 0.040019147 0.038813844 -0.057795368 0.019457497 0.0059734657 -0.012036823 -0.043363906
0.05378674 -0.0060784593 0.039817892 0.028850265 0.05236464 0.027236372 -0.026335754 0.011267319
0.0491793 -0.045476213 0.024855182 0.028550453 0.030253954 -0.020911485 0.028668523 0.0044604316
-0.06047094 -0.057246342 0.020109795 0.017684989 0.05256939 -0.0008877292 0.061233148 -0.060353577
-0.033110045 0.020733304 0.007883877 0.041136034 0.029609501 -0.057665765 -0.0049701706 0.0025208965
-0.041925535 0.057005897 -0.022801757 -0.024877869 -0.02849795 -0.04916942 0.018160373 -0.052427046
00000000: 3a52 5d3d 52c8 313d c058 873a 186f 5a3d
00000010: 964c 003d 30bf 113c 86f4 36bd ba20 04bd
00000020: 8434 23bd 2c26 b13c f033 343d 10d5 dcbb
00000030: 5c28 443d c4f1 93bc 6c6f b2bc 90aa ce3c
00000040: 22f2 013d 5e4e 34bd a23e 153d c048 423c
00000050: 601c 90bc 2cc6 03bd 7036 6d3d 40da 2f3c
00000060: 6013 483c c86b 4ebd ce61 4bbd 80cf c23b
00000070: 6425 c93c 009a a4b9 9889 8cbc 2034 72bb
00000080: 7a94 633d 1ce7 7bbd 6c18 03bd c60e 093d
00000090: 28bb 6dbd 0410 233d f071 b3bc e4ca 26bd
000000a0: a094 5b3b 38c7 4d3c daf3 163d ce5b 46bd
000000b0: f05c 8b3c d4de ef3c f479 4bbd 00f5 da39
000000c0: b8a7 fdbc 6484 f63c 8c5b 6abd a6e6 553d
000000d0: 5e51 763d 241a 85bc de9e 0b3d 3c2e 25bd
000000e0: 8c7a a33c fee1 11bd cc6e 2c3d f689 13bd
000000f0: 48b5 00bd a418 aabc 0665 43bd c8a6 153d
00000100: 20f9 123b fca2 673d 0834 e4bc c069 093c
00000110: ce83 2e3d 045e 9b3c 88f4 583c c8e7 11bc
00000120: 0037 343d 1c36 143d a4e3 e1bc feae 0d3d
00000130: 22eb 4dbd f008 00bd dc3f c2bc 3a51 313d
00000140: 60b1 b0bb 1eeb 233d 44fb 1e3d d6ba 6cbd
00000150: 5465 9f3c 10bd c33b 1836 45bc 5a9e 31bd
00000160: 7c4f 5c3d d02d c7bb 1618 233d 6457 ec3c
00000170: 4e7c 563d d01e df3c 14be d7bc 909a 383c
00000180: 3c70 493d 4445 3abd 189d cb3c a4e2 e93c
00000190: 24d7 f73c 904e abbc 40da ea3c d028 923b
000001a0: 60b0 77bd 247b 6abd 4cbd a43c 1ce0 903c
000001b0: 0053 573d 80b6 68ba 9ccf 7a3d 5035 77bd
000001c0: 669e 07bd e4d8 a93c 602b 013c 427e 283d
000001d0: a08f f23c f032 6cbd d0dc a2bb a035 253b
000001e0: 1cba 2bbd 047f 693d c0ca babc accc cbbc
000001f0: 8874 e9bc e065 49bd 10c5 943c bebd 56bd
